checkpoint/model_epoch100.pth (torch, 730109 bytes, 30 tensors)

conv1.weight f4 [6, 1, 3, 3]
0	0xbd8af4a1	-0.067849405
1	0x3e5479e1	0.20749618
2	0xbe30c34a	-0.17261997
3	0x3e9061dc	0.2819966
4	0x3ea0e22d	0.31422558
5	0x3e56cba2	0.20976117
6	0xbdc4a0af	-0.096009605
7	0xbe7c900d	-0.24664326
8	0x3ea59cd5	0.32346216
9	0xbce42b50	-0.027852684
10	0x3e7a1dab	0.2442538
11	0xbe59060f	-0.21193717
12	0xbea173d5	-0.31533685
13	0x3d87e168	0.0663479
14	0x3ddabd36	0.1068062
15	0xbdbd10cb	-0.09231719
16	0xbe7406cf	-0.23830722
17	0xbd170ef8	-0.03687951
18	0x3e6f16a7	0.23348485
19	0xbe1a6f41	-0.15081502
20	0xbc9d045b	-0.019167116
21	0x3d72c9b8	0.059274405
22	0xbe9df0fb	-0.30847916
23	0xbd49852a	-0.04919926
24	0xbe9a77be	-0.3016948
25	0x3dd08891	0.10182298
26	0x3de44487	0.11145883
27	0x3e105cad	0.14097853
28	0x3cd9fbec	0.026609384
29	0x3da87cb7	0.082269125
30	0x3da63c2d	0.08116946
31	0x3d356351	0.04428417
32	0x3d9f41a9	0.077761956
33	0xbe44390e	-0.1916239
34	0xbe03fbb0	-0.1288898
35	0xbc78f892	-0.0151959825
36	0xbebf0be4	-0.3731376
37	0xbd5fc836	-0.054634295
38	0xbea8215a	-0.32837945
39	0x3e883889	0.26605633
40	0x3e3cc4d7	0.18434463
41	0xbe86ccb8	-0.26328063
42	0x3e61cc52	0.22050598
43	0xbe005c75	-0.1253527
44	0xbe74231a	-0.23841515
45	0xbd72c9e7	-0.05927458
46	0x3cd64c0c	0.026159309
47	0xbda44943	-0.08021786
48	0x3e8bb422	0.27285868
49	0x3e750258	0.23926675
50	0xbd8376f3	-0.06419172
51	0x3d525f24	0.051360264
52	0x3da5e0d6	0.08099525
53	0xbe1dbe67	-0.15404664

conv1.bias f4 [6]
0	0xbcf9b689	-0.030482547
1	0x3e0b158d	0.1358244
2	0xbdc89be4	-0.09795359
3	0xbd889900	-0.066698074
4	0xbe92041d	-0.28518763
5	0xbdf36df9	-0.1188621

conv2.weight f4 [16, 6, 3, 3]
0	0xbe38bb86	-0.18040285
1	0xbced6fbb	-0.028983941
2	0xbd65756e	-0.056020193
3	0xbc8ccedb	-0.01718848
4	0x3d9f0290	0.07764161
5	0x3d12f662	0.0358795
6	0xbd058fe8	-0.032607943
7	0xbda00a54	-0.0781447
8	0x3cef52d9	0.02921431
9	0xbd7c8b64	-0.06165637
10	0xbe17d641	-0.14827825
11	0x3d28c427	0.04120269
12	0x3c83e74e	0.016101506
13	0xbd623bc8	-0.055232793
14	0x3c9549f2	0.018223736
15	0x3db4550f	0.08805286
16	0x3ca11bad	0.019666517
17	0x3da098a0	0.07841611
18	0x3d410853	0.04712708
19	0xbe284b7a	-0.16435042
20	0x3c885b26	0.016645025
21	0x3dfa616b	0.12225612
22	0x3dee5192	0.11636652
23	0xbdc5df86	-0.09661774
24	0x3d9988ec	0.07496819
25	0x3d656f9e	0.05601465
26	0x3cddf55c	0.027094536
27	0xbdc930bb	-0.09823748
28	0x3b9e36ca	0.0048283087
29	0xbd299728	-0.04140392
30	0x3d3e8c56	0.046520554
31	0x3d9bbf96	0.076049015
32	0x3d69af19	0.05705175
33	0xbe3fdabd	-0.18735786
34	0x3d861148	0.06546265
35	0xbddb9ece	-0.10723649
36	0x3db16929	0.08662636
37	0x3c275260	0.010212511
38	0x3dd8f31c	0.105932444
39	0x3cf7f81b	0.030269673
40	0x3bd76a75	0.00657397
41	0x3d77d39e	0.06050455
42	0xbdd3f6b2	-0.10349788
43	0xb9d1aa38	-0.0003999041
44	0x3d9a1118	0.075227916
45	0xba9614e8	-0.0011450322
46	0xbc7056c7	-0.014669127
47	0xbe24252f	-0.1602981
48	0xbc25a5fc	-0.010110375
49	0xbe316333	-0.17322998
50	0xbcb074df	-0.021540103
51	0xbe17a31b	-0.14808314
52	0xbdccae4c	-0.09994182
53	0xbd787ef6	-0.060667954
54	0xbe58e536	-0.21181187
55	0xbdafdfaf	-0.08587586
56	0xbe079af5	-0.13242705
57	0xbdeec25e	-0.11658166
58	0xbc39caa2	-0.011339815
59	0xbe5b66c5	-0.21425922
60	0xbe2d39f9	-0.16916646
61	0x3cb2cd81	0.021826508
62	0xbe0d277b	-0.13784592
63	0xbe395c9f	-0.18101738
64	0xbe56fa31	-0.20993878
65	0xbcb6f90f	-0.022335557
66	0xbe4c7ec5	-0.19970234
67	0xbe1dafec	-0.1539914
68	0x3d0ddec7	0.034636285
69	0xbe03e50a	-0.1288034
70	0xbe6689b0	-0.22513461
71	0xbe48889f	-0.19583367
72	0xbd05cd8f	-0.03266674
73	0xbe1f06f9	-0.15530004
74	0xbe0bee92	-0.13665226
75	0xbe3379e7	-0.17526971
76	0xbdf0d844	-0.117599994
77	0xbe424583	-0.18971829
78	0xbe2f2a0e	-0.17105886
79	0xbd8649e5	-0.06557063
80	0xbb5c0aa0	-0.003357567
81	0xbdaee50e	-0.085397825
82	0xb98fd804	-0.0002743603
83	0xbdb5c194	-0.08874813
84	0xbd85ae50	-0.06527388
85	0xbe33002f	-0.17480539
86	0xbd81c77e	-0.06336878
87	0xbdd91623	-0.10599925
88	0x3ca70bf4	0.020391442
89	0xbdab0d59	-0.08352155
90	0x3d7b0a9d	0.06128942
91	0x3ddc8e06	0.10769276
92	0xbd82857f	-0.063731186
93	0xbd947ba5	-0.07250146
94	0x3d6e15a3	0.058126103
95	0xbe17c2c5	-0.14820392
96	0xbdf7eda2	-0.12105872
97	0x3d95e012	0.07318129
98	0xbe00d810	-0.12582421
99	0xbdf1cfca	-0.11807211
100	0x3be52868	0.006993342
101	0xbdf9d72f	-0.12199246
102	0xbe23695c	-0.1595816
103	0xbe47b216	-0.19501528
104	0xbd9ed506	-0.07755475
105	0xbdfc4149	-0.1231714
106	0xbdcf84bd	-0.1013274
107	0xbdda8958	-0.106707275
108	0xbcdf2b62	-0.027242366
109	0x3d0fc032	0.0350954
110	0xbe1242b2	-0.14283255
111	0x3cf465d4	0.029833712
112	0xbe0e7f1c	-0.13915676
113	0xbd41a505	-0.047276516
114	0xbdbea63f	-0.09309053
115	0xbdfd6ff9	-0.12374873
116	0xbd9d02fc	-0.07666585
117	0xbe7c4f6b	-0.2463967
118	0xbdf00a9f	-0.11720776
119	0xbe6973d1	-0.22798087
120	0xbe77d9b2	-0.24204138
121	0xba889457	-0.0010420185
122	0xbe7a0978	-0.24417675
123	0xbe19c9b8	-0.15018356
124	0xbdf1c1a2	-0.11804511
125	0xbcb4c6bb	-0.022067418
126	0x3df9e6f7	0.12202256
127	0x3ca11701	0.01966429
128	0x39fa53f9	0.0004774628
129	0x3d721ab6	0.059107505
130	0xbde056b8	-0.1095404
131	0x3d91b0b1	0.07113779
132	0xbddf2326	-0.10895376
133	0xbd1b7531	-0.03795356
134	0xbd6f8312	-0.058474608
135	0xbe2d7e78	-0.16942775
136	0xbe16c68e	-0.1472418
137	0x3d6a0f20	0.05714333
138	0xbe150888	-0.14554036
139	0xbdb4bd3b	-0.08825155
140	0xbcf6c227	-0.030121876
141	0xbe3a4e30	-0.18193889
142	0xbce6be99	-0.028167056
143	0xbdd0eeca	-0.102017954
144	0x3d542afb	0.051798802
145	0x3d8f2099	0.069886394
146	0x3d1a33bc	0.037646994
147	0x3d43e56e	0.047826223
148	0xbdf29586	-0.118449256
149	0xbd6de84d	-0.058082867
150	0xbe133504	-0.14375693
151	0xbdb57ea3	-0.08862045
152	0xbc964b56	-0.01834647
153	0xbe0c5819	-0.13705482
154	0xbd781e0b	-0.060575526
155	0xbe29265d	-0.1651854
156	0xbe084398	-0.13307035
157	0xbd3a4d3c	-0.045483813
158	0x3ccf0eac	0.02527555
159	0xbdeda349	-0.1160341
160	0x3d6360b4	0.055512145
161	0xbd8d7404	-0.06906894
162	0xbe16255b	-0.14662687
163	0xbe2abb1c	-0.16672939
164	0xbe3744b8	-0.17897308
165	0xbe018225	-0.12647302
166	0xbe057d57	-0.13036095
167	0xbe190c99	-0.14946212
168	0x3da8fad4	0.08250967
169	0x3cff701a	0.031181384
170	0xbd46f53a	-0.04857371
171	0xbdd49ab3	-0.10381069
172	0xbc36a840	-0.011148512
173	0xbc7a77cc	-0.015287351
174	0x3d2d264b	0.042272847
175	0x3cfdde79	0.030989872
176	0xbdad377c	-0.084578484
177	0x3d9a79ba	0.07542749
178	0xbd51ff4c	-0.05126886
179	0x3c736862	0.01485643
180	0x3dcb974d	0.09940968
181	0x3d9eb16f	0.077486865
182	0xbc2e52a1	-0.010639817
183	0xbd3eb830	-0.046562374
184	0xbdbffb35	-0.09374086
185	0xbe3b2e14	-0.18279296
186	0xbe3449e1	-0.17606308
187	0xbe2f6937	-0.1712998
188	0x3d2acdf7	0.04170033
189	0x3c6ab897	0.014326236
190	0xbe04b62f	-0.12960123
191	0x3c8229cf	0.015889077
192	0xbd53b120	-0.05168259
193	0x3d326fa4	0.0435635
194	0x3d343990	0.04400021
195	0xbb8e09bd	-0.004334657
196	0xbe137b61	-0.14402534
197	0x3d8dcc66	0.069237515
198	0xbdaf337d	-0.085547425
199	0xbd130ee2	-0.035902865
200	0x3dcd4e1e	0.10024665
201	0xbdcdae7a	-0.100430444
202	0xbd7722d7	-0.06033596
203	0x3cb1d2d6	0.02170698
204	0x3d5b11dc	0.05348383
205	0xbe22adf6	-0.15886673
206	0xbd2103fd	-0.039310444
207	0xbb558194	-0.0032578455
208	0x3c681bea	0.0141668115
209	0xbe439820	-0.19101
210	0x3b9f9926	0.0048705516
211	0xbca9136f	-0.02063915
212	0x3d0f695c	0.035012588
213	0xbe1a6a37	-0.1507958
214	0x3d0d21a4	0.03445591
215	0xbe09eea1	-0.13469936
216	0xbdea7c11	-0.11449445
217	0xbe3842f0	-0.17994285
218	0xbda2cb78	-0.07948965
219	0xbe0e56f3	-0.13900356
220	0xbd799baf	-0.060939487
221	0xbd9bde7d	-0.07610796
222	0xbd42ea86	-0.04758694
223	0xbe5f63b5	-0.21815379
224	0xbd68c1f8	-0.056825608
225	0xbe6441bc	-0.222907
226	0xbd540e9d	-0.05177175
227	0xbd8e0148	-0.06933838
228	0xbe15e6f2	-0.1463888
229	0x3c35dd46	0.011100119
230	0xbe533c9c	-0.2062859
231	0xbce2423a	-0.02761947
232	0xbd68417a	-0.05670307
233	0xbc12c447	-0.008957929
234	0xbda6e34a	-0.08148821
235	0xbe0d45ba	-0.1379613
236	0x3d8e9583	0.06962111
237	0xbd54076f	-0.0517649
238	0xbdc509c5	-0.09621004
239	0xbdaffb51	-0.08592857
240	0x3cd0eca3	0.025503462
241	0xbe140d2b	-0.14458148
242	0xbe3b5d19	-0.18297233
243	0xbe6d7cb9	-0.23192109
244	0x3d10e768	0.035376936
245	0x3c8011ac	0.015633427
246	0x3c8338d2	0.016018305
247	0xbd8dc0ac	-0.06921515
248	0xbe4d04e1	-0.20021392
249	0x3ba54327	0.0050434056
250	0xbbcb3819	-0.0062017557
251	0xbe0057b6	-0.12533459
252	0x3e2719e0	0.16318464
253	0xbcc8a932	-0.024494741
254	0x3d77992f	0.06044882
255	0xbdca411f	-0.09875702

conv2.bias f4 [16]
0	0xbe372dc0	-0.17888546
1	0xbd4238cd	-0.04741745
2	0xbd45c805	-0.048286457
3	0xbe334f32	-0.1751068
4	0xbdc99c17	-0.09844225
5	0xbdf8d9cd	-0.12150917
6	0xbdd6be6e	-0.1048554
7	0x3c656f8e	0.0140036475
8	0xbd625623	-0.055257928
9	0xbdd1d0e0	-0.10244918
10	0xbb32ff4b	-0.002731281
11	0xbd7070da	-0.058701374
12	0x3b7c8ed6	0.0038537285
13	0xbd3a6d8e	-0.045514636
14	0xbd4cb705	-0.04997923
15	0x3c5fcab7	0.013659171

fc1.weight f4 [120, 400]
0	0x3da6f1c1	0.0815158
1	0xbde03317	-0.109472446
2	0xbd3cd11b	-0.046097856
3	0xbd9a5939	-0.07536549
4	0xbc906ae6	-0.017629098
5	0x3d0605b2	0.032720275
6	0xbd99b4ff	-0.075052254
7	0x3d8e6ee4	0.069547445
8	0x3e090c85	0.13383682
9	0xbb9eb4fd	-0.004843353
10	0x3d42c1ec	0.04754822
11	0x3cda5036	0.026649576
12	0xbbf3d322	-0.0074409405
13	0xbda1ccbc	-0.07900378
14	0x3e03af7d	0.12859912
15	0xbc07c7fe	-0.008287428
16	0x3af46854	0.0018646815
17	0x3d1eaaba	0.038737036
18	0x3d149871	0.036278192
19	0x3d876d8a	0.0661269
20	0xbda835f9	-0.082134195
21	0x3dd0a246	0.10187201
22	0x3d05ea15	0.03269394
23	0x3bd17575	0.006392176
24	0x3dddb7e0	0.10826087
25	0x3da1def4	0.07903853
26	0x3da6bac3	0.08141091
27	0x3d143e60	0.036192298
28	0xbccac56a	-0.024752337
29	0xbd5c390a	-0.053765334
30	0xbafab817	-0.0019128349
31	0x3d24d329	0.04024044
32	0x3d063bac	0.03277175
33	0xbcb3a49e	-0.021929082
34	0xbd62a753	-0.055335354
35	0x3ac24911	0.0014822801
36	0x3c61b433	0.013775873
37	0x3c404cfa	0.011737103
38	0xbcbb1b08	-0.022840038
39	0xbcb2d8e7	-0.021831943
40	0x3d93926a	0.07205661
41	0x3d9078ac	0.07054266
42	0xbb927ec1	-0.0044706766
43	0x3d97c008	0.07409674
44	0x3cd55671	0.026042195
45	0x3c8e0104	0.017334469
46	0xbbb2c5c1	-0.005455703
47	0x3c394330	0.011307523
48	0x3d30ec7c	0.04319428
49	0xbb29f534	-0.0025933506
50	0x3c2ce26a	0.010552028
51	0x3d271373	0.040790033
52	0x3c9c556e	0.019083705
53	0xbbd26a00	-0.0064213276
54	0xbdc74617	-0.097301655
55	0x3d9224c4	0.07135919
56	0x3c385ed7	0.01125308
57	0xbc9f5feb	-0.019454917
58	0xbdf7f165	-0.12106589
59	0x3dc92256	0.09821002
60	0x3d0d7480	0.03453493
61	0xbb042b5c	-0.0020167446
62	0x3c4e0e4e	0.012576653
63	0xbdbd49fa	-0.092426255
64	0x3dc1c63f	0.094616406
65	0x3ca52e4b	0.020163676
66	0xbcc785dd	-0.024355823
67	0x3d758463	0.059940707
68	0xbccb4b4d	-0.02481618
69	0x3d440d48	0.04786423
70	0xbbaef108	-0.0053387918
71	0x3d4883b6	0.048953734
72	0x3c700ef9	0.014652007
73	0x3cefb8f6	0.029263001
74	0x3ca61e1e	0.020278033
75	0xbd83fb00	-0.06444359
76	0x3c43c07e	0.011947749
77	0xbbdf724f	-0.0068190466
78	0xbdaa4769	-0.08314402
79	0xbd3e199b	-0.046411138
80	0xbd156ab9	-0.03647873
81	0x3d4deb93	0.05027349
82	0xbc9fff71	-0.019530984
83	0xbdb16dbe	-0.0866351
84	0xbcc7a98d	-0.02437284
85	0x3d0560bc	0.032562956
86	0x3c7471ae	0.0149196815
87	0x3d16c2a5	0.03680672
88	0xbcf240af	-0.02957186
89	0xbd63c117	-0.055604067
90	0x3c14ff74	0.009094108
91	0xbcf0949d	-0.02936774
92	0x3c7de859	0.0154972905
93	0x3d046ae5	0.032328505
94	0x3d3176ab	0.04332606
95	0xbdbcd0a3	-0.09219482
96	0xbd537360	-0.051623702
97	0xbc4b1ce8	-0.0123970285
98	0xbd2791e6	-0.040910624
99	0xbd8805ad	-0.066417076
100	0xbc3450ab	-0.011005561
101	0x3c3584bb	0.011079009
102	0x3d1598fe	0.036522858
103	0x3d86b8d1	0.0657822
104	0x3c5a855b	0.0133374585
105	0x3d6fe2b2	0.058565803
106	0x3d8a7ac4	0.06761697
107	0x3d07c090	0.033142626
108	0x3d8555a4	0.06510475
109	0xbda0a5f1	-0.07844151
110	0x3d956eb5	0.07296506
111	0xbc25b085	-0.010112886
112	0xbb77efb5	-0.0037832086
113	0x3d5cfa99	0.053949926
114	0x3c017ebf	0.007903754
115	0x3d0e2e70	0.034712255
116	0xbccae50b	-0.02476742
117	0x3c5b409d	0.013382104
118	0x3cb5d1d3	0.022194779
119	0x3d932cac	0.07186255
120	0xbc3eb87b	-0.011640663
121	0x3d77c8ce	0.060494237
122	0x3bffc4cc	0.0078054424
123	0x3dae94d1	0.08524478
124	0x3d127d2b	0.0357639
125	0xbd95c013	-0.07312026
126	0x3ddd89e0	0.10817313
127	0x3cb786d3	0.022403156
128	0xbce97ecd	-0.028502846
129	0xbd02683c	-0.031837687
130	0x3d0c223d	0.03421234
131	0xbbc76d7f	-0.006086051
132	0x3d2ba74c	0.041907594
133	0xbdfab31e	-0.12241195
134	0xbde42782	-0.11140348
135	0xbca02127	-0.019547058
136	0x3d80d80e	0.06291209
137	0xbcc652bd	-0.024209375
138	0xbdb1f7f5	-0.08689872
139	0x3bb3dc72	0.0054889256
140	0xbc5344b9	-0.012894803
141	0xbd2acb08	-0.041697532
142	0x3be4218c	0.006962007
143	0x3baa01ed	0.005188218
144	0xbd8e3eaf	-0.0694555
145	0xbd683d48	-0.056699067
146	0x3d9b7d18	0.07592219
147	0xbb2a82fd	-0.0026018017
148	0xbdbd98e5	-0.09257678
149	0x3d5f8353	0.0545686
150	0x3da58d5d	0.080836035
151	0x3d20585e	0.039146774
152	0x3d4870c1	0.048935656
153	0x3cabeec9	0.020987885
154	0xbcc89293	-0.024483955
155	0x3d0133bb	0.031543475
156	0xbd866c1b	-0.06563588
157	0xbcef81f7	-0.029236777
158	0x3c845e85	0.016158352
159	0x3dc25045	0.094879664
160	0x3d9993c3	0.074988864
161	0xbd9d2794	-0.076735646
162	0xbd993a9c	-0.07481882
163	0xbda3686a	-0.079789
164	0xbd8bb4ba	-0.0682158
165	0xbb9cc2e0	-0.004783973
166	0xbcbbd897	-0.022930427
167	0xbca0fd7c	-0.01965212
168	0x3d31bdce	0.043393902
169	0x3d93f3bf	0.07224225
170	0xbbc2f59e	-0.00594969
171	0xbd35b602	-0.04436303
172	0x3ca97333	0.020684814
173	0x3e012d90	0.12615037
174	0x3dd712bf	0.105016224
175	0xbd5595a4	-0.05214466
176	0x3bae5477	0.0053201276
177	0xbd03d49c	-0.032185182
178	0xbdb9f4e2	-0.09079911
179	0x3c2d5e57	0.010581574
180	0xbcf60736	-0.030032735
181	0xbd4f9bd5	-0.050685722
182	0xbd06aeb9	-0.032881472
183	0x3a78e845	0.000949506
184	0x3d3e6620	0.046484113
185	0xbc2c37cc	-0.01051135
186	0xbdc34403	-0.095344566
187	0xbd09acd2	-0.03361208
188	0xbd94a076	-0.07257168
189	0xbcd0ed5e	-0.02550381
190	0x3ccb9586	0.024851572
191	0xbc98dac7	-0.018659009
192	0x3d363a34	0.0444891
193	0xbcba96d1	-0.022776993
194	0xbd9977db	-0.07493564
195	0xbc8b7cc3	-0.017027264
196	0xbd44fe3a	-0.04809401
197	0xbd034942	-0.032052286
198	0xbc87522b	-0.016518673
199	0x3d196f8c	0.037459895
200	0x3d46c39c	0.04852639
201	0xbc0072d4	-0.007839877
202	0x3dadeafe	0.08492087
203	0x3c353b08	0.011061437
204	0x3d4724e7	0.048619177
205	0x3da364f8	0.07978243
206	0xbc141811	-0.009038941
207	0x3cbdb66f	0.02315828
208	0xbc33280b	-0.01093484
209	0x3c97e4a7	0.018541647
210	0x3d9a8b9d	0.0754616
211	0x3d17fc6f	0.037105974
212	0x3cbd272b	0.023089966
213	0xbdb4d693	-0.08829989
214	0x3c68d5be	0.014211116
215	0x3d0b70f8	0.034043282
216	0x3d7000e6	0.058594607
217	0xbc271974	-0.01019894
218	0xbca50d3e	-0.020147916
219	0xbd472bda	-0.048625804
220	0x3af36e63	0.0018572327
221	0x3d36450e	0.04449945
222	0xbc041bb5	-0.0080632465
223	0x3c4e3e8e	0.012588156
224	0x3d3d212b	0.04617421
225	0x3cf923f6	0.030412655
226	0x3d46c646	0.048528932
227	0x3c857ce0	0.016294897
228	0x3d9bcfef	0.076080196
229	0xbb54e0e9	-0.003248269
230	0xbd768aa4	-0.06019081
231	0x3b934988	0.0044948496
232	0xbc2ac45b	-0.010422791
233	0x3d362f37	0.04447862
234	0xbb53a238	-0.0032292735
235	0x3cfa52e6	0.030557107
236	0x3d0863b1	0.033298198
237	0x3cc12428	0.023576811
238	0x3c6f3e62	0.014602276
239	0xbd908e15	-0.0705835
240	0xbd42b658	-0.047537178
241	0xbb9ea1ea	-0.004841079
242	0xbca34da0	-0.019934475
243	0xb9a0130d	-0.00030531772
244	0x3d160ede	0.036635272
245	0xbd14e020	-0.036346555
246	0xbd3388c6	-0.04383161
247	0x3d2094b5	0.039204318
248	0x3bdd2f70	0.0067500398
249	0x3b095aca	0.0020958656
250	0x3bcd4e18	0.006265413
251	0xbc01df0e	-0.007926716
252	0x3ca9130b	0.020638963
253	0x3bd9e5dc	0.006649716
254	0xbd5da01a	-0.054107763
255	0xbd566702	-0.05234433

fc1.bias f4 [120]
0	0x3c537171	0.0129054645
1	0xbccf318d	-0.025292182
2	0xbcc767aa	-0.024341423
3	0xbd055073	-0.032547425
4	0xbc022014	-0.007942218
5	0xbdccceb0	-0.1000036
6	0xbd7b9899	-0.061424825
7	0xbd234945	-0.039864797
8	0xbd645e95	-0.055754263
9	0xbd45c3eb	-0.048282545
10	0xbc9df36c	-0.019281112
11	0xbcd86517	-0.02641539
12	0xbc5b900b	-0.013401042
13	0xbd17aedd	-0.037031997
14	0xbd1457b5	-0.036216456
15	0xbd682265	-0.056673426
16	0xbd8465f1	-0.06464756
17	0xbd102c87	-0.035198715
18	0xbd95a98e	-0.073077306
19	0xbd5ed05d	-0.05439793
20	0xbd984c08	-0.07436377
21	0xbcd74339	-0.026277171
22	0xbd746d69	-0.059674654
23	0xbdb1eceb	-0.08687767
24	0xbd772973	-0.060342263
25	0xbd8b83bd	-0.068122365
26	0xbdcb85bc	-0.09937617
27	0xbd1f0af9	-0.038828824
28	0xbce99107	-0.028511537
29	0xbd399a88	-0.045313388
30	0xbd7c999a	-0.061669923
31	0xbd367e62	-0.04455412
32	0xbc5d1b9a	-0.01349535
33	0xbcdc8c77	-0.026922448
34	0xbd1989ea	-0.03748504
35	0xbc46950b	-0.012120496
36	0xbcfb8a5f	-0.030705629
37	0xbade24fe	-0.001694828
38	0xbc6c3525	-0.0144169675
39	0xbdc5de8f	-0.0966159
40	0xbc5ed84d	-0.013601375
41	0xbd1c359b	-0.03813706
42	0xbcdde419	-0.027086305
43	0xbd9b5c4b	-0.07585963
44	0xbcb20420	-0.021730483
45	0xbcf1236e	-0.02943584
46	0xbd8e9a23	-0.06962993
47	0xbd34441c	-0.044010267
48	0xbcd10fe7	-0.025520278
49	0xbd7bc2a5	-0.061464924
50	0x3d9a5c07	0.07537084
51	0xbc94df6b	-0.01817294
52	0xbd4115fb	-0.047140103
53	0xbdb6eaab	-0.08931478
54	0xbc451a33	-0.012030172
55	0xbca9c12a	-0.02072199
56	0xbda606f7	-0.08106797
57	0xbd19eab9	-0.037577365
58	0xbd9f413e	-0.07776116
59	0xbca082e2	-0.01959366
60	0xbcc4ffeb	-0.024047812
61	0xbda97d59	-0.08275861
62	0xbd8d5cc9	-0.06902463
63	0xbdb8d096	-0.090241596
64	0xbdbcc290	-0.09216797
65	0xbdad6f12	-0.084684506
66	0xbd50110f	-0.05079752
67	0xbd941802	-0.072311416
68	0xbd34a27d	-0.044100273
69	0xbab174d3	-0.0013538845
70	0xbd6c2b05	-0.057658214
71	0xbcf9aca7	-0.030477835
72	0xbc51b470	-0.012799367
73	0xbdcd34a4	-0.10019806
74	0xbcbed8b8	-0.023296699
75	0xbd14c11f	-0.036316987
76	0xbce15c24	-0.027509756
77	0xbdb5fedb	-0.088865004
78	0xbce40fcc	-0.027839564
79	0xbc97d312	-0.018533263
80	0xbd458a0e	-0.048227362
81	0xbd455c2f	-0.048183616
82	0xbcc03b94	-0.023465909
83	0xbc91d38d	-0.01780107
84	0xbd5194fd	-0.051167477
85	0xbd14ef24	-0.036360875
86	0xbcbd7cf2	-0.023130868
87	0xbcfee9f6	-0.03111742
88	0xbd600e47	-0.054701116
89	0xbd7232be	-0.059130423
90	0xbdbc5106	-0.091951415
91	0xbda49860	-0.08036876
92	0xbdd76c96	-0.10518758
93	0xbd7f8248	-0.062380105
94	0xbd17fec3	-0.037108194
95	0xbdbf7e0b	-0.09350213
96	0xbcfed89a	-0.031109143
97	0xbd61144d	-0.054951
98	0xbce91f04	-0.028457172
99	0xbcf40da5	-0.029791662
100	0xbd074dd1	-0.033033196
101	0xbd40bbb6	-0.047054015
102	0xbd1395fa	-0.0360317
103	0xbda088ba	-0.078385785
104	0xbd496cf8	-0.049176186
105	0xbc7cd2d7	-0.0154311275
106	0xbd2704dd	-0.040776122
107	0xbd1dd730	-0.038535297
108	0xbd3cd7cd	-0.04610424
109	0xbd8564f9	-0.065134
110	0xbc08ee76	-0.008357635
111	0xbd3e8e98	-0.046522707
112	0xbd609b3d	-0.054835547
113	0xbcfee194	-0.031113423
114	0xbd7d4abf	-0.06183886
115	0xbd719a58	-0.058985084
116	0xbd480550	-0.04883319
117	0xbda26da5	-0.07931069
118	0xbc892010	-0.016738921
119	0xbd9debca	-0.07710989

fc2.weight f4 [84, 120]
0	0xbdbbfdfc	-0.09179303
1	0x3d38d0de	0.045121066
2	0xbd668300	-0.056277275
3	0x3c4fb49f	0.012677341
4	0x3b6fbb92	0.0036580306
5	0xbd168b3b	-0.036753874
6	0x3c9c6b96	0.01909427
7	0xbcf63567	-0.030054761
8	0xbcd82e88	-0.026389375
9	0x3dab7734	0.083723456
10	0xbe144d57	-0.14482628
11	0xbd9ae434	-0.075630575
12	0xbe02d4b4	-0.12776452
13	0xbc5cf4b8	-0.01348608
14	0x3da86114	0.08221641
15	0x3c8bdfa6	0.017074417
16	0x3d63660a	0.055517234
17	0xbced6a71	-0.02898142
18	0xbce5e0b0	-0.02806124
19	0x3dfdd555	0.123942055
20	0x3d1fd7cc	0.03902416
21	0x3da55551	0.080729134
22	0x3b0a54a2	0.0021107574
23	0x3cfced69	0.030874925
24	0x3de68d1a	0.11257382
25	0xbd724dc6	-0.0591562
26	0xbe0fb4f0	-0.14033866
27	0x3d10366b	0.035208147
28	0xbc4ca21f	-0.012489825
29	0x3df1434f	0.11780416
30	0x3cda4cf4	0.026648022
31	0xbdfb543c	-0.12271926
32	0xbdc78b93	-0.097434185
33	0x3da2cd42	0.07949306
34	0xbdd001f7	-0.10156625
35	0xbdc71e3e	-0.09722565
36	0xbdb78c49	-0.08962304
37	0xbd938b5f	-0.07204317
38	0xbd055521	-0.03255189
39	0x3ac09f0c	0.0014695837
40	0x3b6ec5a7	0.0036433728
41	0xbd8d8fe9	-0.06912214
42	0x3d4f1b6a	0.050563253
43	0x3ce9be00	0.028532982
44	0xbdd3d44a	-0.10343225
45	0xbd7aa411	-0.061191622
46	0xbd96db19	-0.07366008
47	0xbd2ab678	-0.041677922
48	0xbc91fc8e	-0.017820623
49	0xbd98da98	-0.074635684
50	0x3cd30e6a	0.02576371
51	0xbd8ac8e6	-0.067765996
52	0xbdf9627d	-0.12176988
53	0x3c9d8689	0.01922919
54	0xbb43c92d	-0.0029874549
55	0xbdae08b9	-0.084977575
56	0x3ccf1df1	0.025282832
57	0xbc51afea	-0.012798289
58	0xbd4d4f46	-0.05012443
59	0x3d204fe5	0.039138693
60	0xbd3f4a98	-0.046701998
61	0x3deedc33	0.116630934
62	0x3d2a178b	0.04152636
63	0x3d141439	0.0361521
64	0x3c7d84b9	0.015473538
65	0x3d23c9b1	0.03998727
66	0xbdf441a7	-0.11926585
67	0xbcba611f	-0.02275139
68	0x3d43aa05	0.047769565
69	0xbd726a84	-0.059183612
70	0xbd809cbd	-0.062798955
71	0xbcc5fe4a	-0.024169106
72	0xbdc2e158	-0.09515637
73	0xbc66e6a3	-0.014093074
74	0x3cd3cc1d	0.025854165
75	0xbe0f51e4	-0.13996083
76	0x3cdb8c86	0.026800405
77	0xbd3d2280	-0.04617548
78	0xbc89cd12	-0.016821418
79	0xbbc3e057	-0.005977671
80	0x3b66ca77	0.0035215893
81	0x3bd11c29	0.006381531
82	0x3d97641c	0.07392141
83	0xbd8bbd7e	-0.06823252
84	0xbcc8962c	-0.02448567
85	0x3bdb4f4d	0.006692803
86	0x3df7e27f	0.121037476
87	0xbd7ddfe7	-0.061981108
88	0xbc9291e2	-0.017891828
89	0x3daed198	0.085360706
90	0xbc78302c	-0.015148204
91	0x3e03ac47	0.12858687
92	0x3d910f48	0.07082993
93	0x3d37db1e	0.0448867
94	0xbd9c374d	-0.07627735
95	0xbb91b70b	-0.0044468693
96	0x3b016e0e	0.0019749436
97	0x3d93861c	0.07203314
98	0x3c47b542	0.012189211
99	0xbdbb7d8b	-0.09154805
100	0xbd83e91e	-0.06440948
101	0xbd92860f	-0.07154476
102	0xbdf535a4	-0.11973122
103	0x3d3a9950	0.045556366
104	0xbbb0d011	-0.005395897
105	0x3bdc6656	0.0067260666
106	0xbcbc12db	-0.02295821
107	0x3db0843d	0.086189725
108	0x3dc43857	0.095810585
109	0xbd931a7a	-0.071827844
110	0x3cc0ff84	0.02355934
111	0x39ac7885	0.0003289619
112	0xbcf7b0de	-0.030235704
113	0x3da6316f	0.081148975
114	0xbdc27ac1	-0.0949607
115	0x3c058a04	0.008150581
116	0xbcc4df66	-0.024032306
117	0xbc904130	-0.017609209
118	0xbd5aec1a	-0.05344782
119	0xbb8fc340	-0.0043872893
120	0xbc548c5b	-0.0129729165
121	0xbcaf78c2	-0.021419886
122	0x3da33393	0.079688214
123	0x3da38fde	0.07986425
124	0x3d96f80e	0.073715314
125	0xbd30b9ee	-0.043146066
126	0x3c964ee7	0.01834817
127	0xbc945d3a	-0.01811086
128	0xbda69f97	-0.08135908
129	0xbd6e9dd7	-0.058255997
130	0xbcc60904	-0.02417422
131	0xbcccfe19	-0.025023507
132	0xbdb11cee	-0.08648096
133	0xbd8c0c1d	-0.06838248
134	0xbcde7a04	-0.027157791
135	0x3c2a4ad6	0.010393819
136	0x3d528ce3	0.05140389
137	0xbd790c89	-0.06080297
138	0x3c352378	0.01105582
139	0xbb547b9b	-0.0032422307
140	0xbd197ed6	-0.037474476
141	0x3d7bc9f7	0.061471906
142	0x3cb3af91	0.021934303
143	0x3d94a5ee	0.07258211
144	0x3d0086c4	0.031378523
145	0xbd3acecc	-0.045607373
146	0xbdb94a3a	-0.09047361
147	0xbc882878	-0.01662086
148	0xbd96def8	-0.07366747
149	0xbcb84a90	-0.022496492
150	0xbdb4abc3	-0.088218234
151	0x3c48ca1e	0.01225522
152	0xbcb73368	-0.02236338
153	0xbd8b3a10	-0.06798184
154	0xbd14af08	-0.036299735
155	0xbd61fb6a	-0.055171408
156	0xbd81acba	-0.06331773
157	0xb9d6fb29	-0.0004100439
158	0x3d87fe83	0.06640341
159	0x3c4c5ac3	0.012472811
160	0xbda9615d	-0.08270524
161	0xbcbdcbd4	-0.023168482
162	0x3da17fb5	0.07885686
163	0xbd6165d1	-0.05502874
164	0xbcf807b2	-0.030277107
165	0xbd2ad72b	-0.041709106
166	0x3d71950b	0.05898003
167	0xbcbcf4b6	-0.023065906
168	0xbcfaf7d5	-0.030635754
169	0x3d182946	0.037148736
170	0x3d83b06e	0.06430136
171	0xbd139e01	-0.036039356
172	0xba6ab0c8	-0.0008952734
173	0x3d5df6d3	0.054190468
174	0xbac2704b	-0.0014834491
175	0xbcb8aa29	-0.022542076
176	0x3d94553d	0.072428204
177	0xbdb83b05	-0.08995632
178	0xbcbb46ba	-0.022860873
179	0x3cb35fdf	0.0218963
180	0xbc7cb8f1	-0.015424953
181	0xbc51e1aa	-0.01281015
182	0x3c7969b5	0.015222956
183	0xbd172b82	-0.036906727
184	0x3d20ec76	0.039288007
185	0xbb70f5f9	-0.0036767705
186	0x3d2214bf	0.039570566
187	0xbced94d3	-0.029001629
188	0x3cf3750d	0.0297189
189	0xbd9c667c	-0.07636735
190	0x3d8a9db8	0.06768364
191	0x3d16302c	0.036667034
192	0xbd8a013a	-0.06738515
193	0x3ca2fd64	0.019896217
194	0xbd42ad3e	-0.047528498
195	0x3d98a884	0.07454017
196	0xbd78df59	-0.060759876
197	0x3d9d1b56	0.076712295
198	0xbd85e314	-0.06537452
199	0xbd4e3366	-0.050341986
200	0xbbad298f	-0.005284495
201	0x3d8d169f	0.0688908
202	0xbd3fb31e	-0.04680168
203	0xbc6673d6	-0.014065703
204	0xbd988b7b	-0.07448479
205	0x3d9873ce	0.07443963
206	0xbd41323a	-0.04716704
207	0x3d11ef81	0.0356288
208	0xbd3055b2	-0.043050475
209	0x3d925056	0.07144229
210	0x3c26e2f4	0.010185946
211	0x3d0e8d0b	0.034802478
212	0x3d8b82ff	0.06812095
213	0x3d4f7238	0.050646037
214	0x3d46aa3e	0.0485022
215	0x3d111548	0.035420686
216	0x3cbc8872	0.023014281
217	0xbd2a1566	-0.041524313
218	0xbd371210	-0.04469496
219	0xbd262302	-0.04056073
220	0xbd41f996	-0.047357164
221	0x3daa162e	0.08305012
222	0xbc2e81c2	-0.010651054
223	0xbd5d3278	-0.05400321
224	0xbd6778ed	-0.05651181
225	0xbda3634a	-0.07977922
226	0x3d5798cb	0.05263595
227	0x3dafa91c	0.08577177
228	0xbc224aac	-0.0099054985
229	0x3d455384	0.04817535
230	0x3cf6a08c	0.030105852
231	0xbdb6da18	-0.08928317
232	0x3d2e5902	0.042565353
233	0x3d17248f	0.0369001
234	0x3d2de308	0.042452842
235	0x3cdccbb6	0.026952606
236	0xbca05b5f	-0.01957482
237	0xbdaa0ed8	-0.083036125
238	0x3cd4f5dc	0.025996141
239	0x3d6b129e	0.0573908
240	0x3d988b80	0.074484825
241	0xbd0158a6	-0.031578682
242	0xbc767f87	-0.015045053
243	0xbcb14b94	-0.021642484
244	0x3c64da75	0.0139681
245	0x3c07b62e	0.008283181
246	0xbd5234bc	-0.051319823
247	0x3bd99f6b	0.0066413186
248	0xbca01162	-0.019539539
249	0xbd50d349	-0.050982747
250	0x3d484de6	0.048902415
251	0xbd999cfc	-0.075006455
252	0xbdae1bd0	-0.085013986
253	0xbc5f330e	-0.013623012
254	0xbda4a52f	-0.08039319
255	0xbd697b9d	-0.057002652

fc2.bias f4 [84]
0	0xbcd0d19b	-0.025490573
1	0xbc9f12ce	-0.019418146
2	0xbd7015cf	-0.05861455
3	0xbc738a3c	-0.014864501
4	0xbd0e9887	-0.03481343
5	0xbd1d8a4d	-0.038461972
6	0xbdd541fd	-0.10412977
7	0xbca528d9	-0.02016108
8	0xbdaab68f	-0.083356015
9	0xb9f9ff1b	-0.0004768305
10	0xbc4f70da	-0.012661183
11	0xbd020d6c	-0.03175108
12	0xbd1a7811	-0.03771216
13	0xbd900f77	-0.070342
14	0xbd8a72c6	-0.067601725
15	0xbd911800	-0.07084656
16	0xbc9a4953	-0.018833792
17	0xbc818323	-0.015809601
18	0xbd746e97	-0.05967578
19	0xbcd78a2a	-0.026310999
20	0xbd9c25f6	-0.07624428
21	0xbd7ea4e8	-0.062168986
22	0xbc879308	-0.016549602
23	0xbc272934	-0.010202695
24	0xbca2ec1f	-0.019887982
25	0xbd581d6b	-0.05276243
26	0xbcda9112	-0.026680503
27	0xbc670e21	-0.01410249
28	0xbcf85743	-0.030315047
29	0xbe041e90	-0.12902284
30	0xbda028b4	-0.078202635
31	0xbc941a69	-0.018079
32	0xbd53af59	-0.051680896
33	0xbdee5f6d	-0.11639295
34	0xbcfe6b4f	-0.031057028
35	0x3b38fa84	0.002822549
36	0xbd00605d	-0.0313419
37	0xbd454eba	-0.048170783
38	0x3b3f9195	0.002923106
39	0xbc94d0e0	-0.018166006
40	0x3c152a58	0.009104334
41	0xbdc052ef	-0.09390818
42	0xbd28bfde	-0.041198604
43	0xbdaca1ef	-0.08429324
44	0xbc3e557a	-0.011617059
45	0xbd2fd8ea	-0.042931475
46	0xbc838c7c	-0.0160582
47	0xbddde1b8	-0.10834068
48	0xbd39c58d	-0.045354415
49	0xbd022aba	-0.03177903
50	0xbd8d60c7	-0.069032244
51	0xbd91569b	-0.07096597
52	0xbcb152b1	-0.021645876
53	0xbcfbeb6b	-0.030751904
54	0xbd82ef82	-0.06393339
55	0xbd98319b	-0.074313365
56	0xbdb50629	-0.088390656
57	0xbd0f0659	-0.034918163
58	0xbdbf79e9	-0.093494244
59	0xbdbc72b4	-0.092015654
60	0xbd392457	-0.045200672
61	0xbda2cf7c	-0.07949731
62	0xbd8660aa	-0.06561406
63	0xbda0f1c0	-0.0785861
64	0xbe134694	-0.14382392
65	0xbcf8637e	-0.03032088
66	0xbb8ee7e9	-0.004361142
67	0xbdd27345	-0.10275892
68	0xbdcd6dfd	-0.10030744
69	0x3b7ce8ba	0.0038590864
70	0xbbebb102	-0.007192732
71	0xbd90d07b	-0.070710145
72	0xbd9f6cb9	-0.07784409
73	0xbd3febe9	-0.04685584
74	0xbcc02963	-0.023457235
75	0xbc53ff4e	-0.012939287
76	0xbd723ecb	-0.059141915
77	0x3af476ea	0.0018651162
78	0xbce2b17f	-0.027672527
79	0xbdb9f4e6	-0.09079914
80	0xbdc32b73	-0.09529772
81	0xbcf52451	-0.029924544
82	0xbcb1df92	-0.021713052
83	0xbda6395e	-0.08116411

fc3.weight f4 [10, 84]
0	0x3d803dd9	0.062617965
1	0xbd995126	-0.07486181
2	0x3d4791d4	0.048723057
3	0xbcfe7f04	-0.031066425
4	0x3d93ed73	0.07223024
5	0x3b3017f5	0.0026869748
6	0x3ca28a2b	0.019841274
7	0x3d43a22b	0.047762077
8	0xbd2e7ebe	-0.04260134
9	0x3c33330f	0.010937466
10	0x3b65d570	0.0035069846
11	0x3d731c69	0.059353266
12	0x3d79a1e8	0.06094542
13	0xbd91c9a8	-0.07118541
14	0x3ccdc7b2	0.025119636
15	0xbc4ff700	-0.012693167
16	0x3d897358	0.06711453
17	0x3d0a693d	0.03379177
18	0x3d619d22	0.055081494
19	0xbd3a56b1	-0.04549283
20	0x3d24e78c	0.040259883
21	0x3b11c47a	0.0022242353
22	0x3d854e0e	0.065090284
23	0x3caecab1	0.021336885
24	0x3dbc9a40	0.09209108
25	0x3c7e6903	0.015527966
26	0x3d4d8ea4	0.05018486
27	0xbdc4a2a5	-0.096013345
28	0x3c915175	0.017739037
29	0xbd8613d9	-0.065467544
30	0xbd485b50	-0.048915207
31	0xbb3f07b6	-0.0029148883
32	0xbbf55179	-0.007486519
33	0xbd832d8f	-0.06405174
34	0x3bc0db5d	0.005885525
35	0x3d815173	0.06314363
36	0xbe598bd1	-0.21244742
37	0xbbafbb52	-0.0053629065
38	0x3d04f61a	0.032461263
39	0xbd7d0405	-0.06177141
40	0x3d1ccace	0.038279347
41	0xbc2b8f71	-0.010471211
42	0xbd0f4aaa	-0.034983315
43	0xbd794dd6	-0.060865246
44	0xbd0112bf	-0.03151202
45	0x3ccb0cc2	0.024786357
46	0x3be5f1ab	0.0070173345
47	0x3d0a418d	0.03375392
48	0x3d624944	0.055245653
49	0x3bcb1f76	0.006198819
50	0xbd956a11	-0.07295621
51	0x3cac6c45	0.02104772
52	0xbba367d5	-0.004986743
53	0x3d912c8a	0.07088573
54	0x3ce55727	0.027995659
55	0x3d8c05b3	0.068370245
56	0xbd6917dc	-0.05690752
57	0xbdf037a0	-0.117293596
58	0x3d32a10d	0.04361062
59	0xbd8e520e	-0.069492444
60	0x3d04d48f	0.032429274
61	0xbe02850e	-0.12746069
62	0x3d0af084	0.03392078
63	0xbde04a6a	-0.10951693
64	0x3cb760bc	0.022384994
65	0x3daa8e9e	0.08327983
66	0x3d79af26	0.06095805
67	0x3da37e0d	0.07983027
68	0xbd2423d3	-0.040073227
69	0xbda13930	-0.07872236
70	0x3d847ec3	0.064694904
71	0xbbe1cb60	-0.0068906993
72	0x3d77c523	0.06049074
73	0xbdd2093b	-0.10255667
74	0x3bd196a4	0.0063961316
75	0x3d9b4326	0.07581167
76	0xbb99f942	-0.0046989033
77	0xbd6d5919	-0.0579463
78	0x3ce49915	0.027905026
79	0x3db9bfc4	0.090697795
80	0x3de05ee1	0.10955597
81	0x3d816bf4	0.063194185
82	0x3dc5ff42	0.09667827
83	0x3c0ef4fc	0.008725401
84	0x3d128693	0.03577287
85	0x3d20784c	0.039177224
86	0xbc405298	-0.011738442
87	0xbe04b919	-0.12961234
88	0xbddd015e	-0.107912764
89	0xbd97863d	-0.07398651
90	0xbe1e37cc	-0.15450972
91	0x3c66e83b	0.014093454
92	0x3d8b0fbf	0.06790113
93	0xbde93e56	-0.11388843
94	0xbdbd9446	-0.092567965
95	0xbe1c12c1	-0.15241529
96	0xbd0b6f68	-0.034041792
97	0xbd851dce	-0.064998254
98	0xbcfd2558	-0.030901596
99	0x3d562b9d	0.052287687
100	0x3d49f4d7	0.049305763
101	0xbd3e1c92	-0.046413966
102	0xbd4ec208	-0.05047801
103	0xbc4619e8	-0.0120911375
104	0x3cf2f9bc	0.029660098
105	0xbda708c9	-0.081559725
106	0xbbc8d43f	-0.0061288173
107	0x3d19bdaf	0.037534412
108	0xbe38dcb6	-0.18052945
109	0xbe0268b5	-0.12735255
110	0xbdd552c7	-0.10416179
111	0xbe139017	-0.14410435
112	0x3afd9152	0.0019345677
113	0xbe157ad4	-0.14597636
114	0x3d0e316e	0.03471511
115	0xbdbd125b	-0.09232017
116	0x3dc00a53	0.09376969
117	0xbe1386c6	-0.1440688
118	0xbd11e965	-0.035622973
119	0xbde75d3b	-0.11297079
120	0x3d7251a4	0.05915989
121	0xbd59fe9c	-0.05322133
122	0xbd44885a	-0.047981597
123	0xbe04f56a	-0.12984243
124	0xbdb48696	-0.08814733
125	0x3cbd6007	0.023117078
126	0x3b4a3816	0.0030856184
127	0xbd8ee1f9	-0.069766946
128	0xbdff8e6a	-0.12478335
129	0xbbbcba28	-0.0057594962
130	0xbdcd31ac	-0.1001924
131	0xbe1306d3	-0.14358072
132	0x3cd45f29	0.025924282
133	0x3d838084	0.06420997
134	0xbdd2c7f2	-0.10292043
135	0xbbf0686e	-0.0073366677
136	0xbe2846e2	-0.1643329
137	0x3cf85838	0.030315503
138	0x3c551984	0.013006572
139	0xbdcfdf99	-0.1015007
140	0xbdd5c0dc	-0.10437176
141	0xbd2bf31e	-0.0419799
142	0x3cc96ee6	0.024589013
143	0x3d0d6d00	0.03452778
144	0xbddab141	-0.1067834
145	0x3c94a43e	0.018144723
146	0xbdbe2a0a	-0.09285362
147	0xbdd68c8d	-0.10476027
148	0xbd0bb1ac	-0.034104988
149	0x3b891115	0.0041829445
150	0xbca13296	-0.019677442
151	0xbd3da620	-0.046301007
152	0x3db9d070	0.090729594
153	0xbd9d0d79	-0.07668585
154	0xbd654638	-0.05597517
155	0x3d36efda	0.044662334
156	0xbc6a3413	-0.014294642
157	0x3d068c27	0.032848503
158	0xbe00d1a9	-0.12579979
159	0x3c8aef41	0.016959788
160	0xbdb7cb0c	-0.08974275
161	0xbe30e26f	-0.17273878
162	0xbe078e20	-0.1323781
163	0xbcb31478	-0.021860346
164	0x3cc9fbfd	0.02465629
165	0xbcc12c70	-0.02358076
166	0xbd07cd12	-0.033154555
167	0xbc5783f1	-0.013154016
168	0x3d244d10	0.040112555
169	0x3ddcd27a	0.10782333
170	0xbdcfa0ff	-0.101381294
171	0xbde32781	-0.11091519
172	0xbdc205bc	-0.0947375
173	0xbd72dab0	-0.059290588
174	0xbe0a834e	-0.13526651
175	0xbd9322bc	-0.071843594
176	0xbb841dc9	-0.004031871
177	0xbd894221	-0.06702066
178	0xbd205f72	-0.039153524
179	0xbd85c51b	-0.065317355
180	0xbd773c96	-0.060360514
181	0xbdc64a24	-0.0968211
182	0xbc22326e	-0.009899719
183	0x3d636304	0.05551435
184	0xbd9f70cc	-0.07785186
185	0x3e220710	0.15823007
186	0x3c5d0444	0.013489787
187	0xbe076052	-0.13220337
188	0x3cacf0da	0.02111094
189	0x3d8206ff	0.06348991
190	0xbcf932b8	-0.030419692
191	0x3df705bc	0.120616406
192	0x3e73b22f	0.2379844
193	0x3b9cca86	0.004784885
194	0xbd0d9d9f	-0.034574147
195	0xbe00ac26	-0.1256567
196	0x3dc5ecb1	0.09664286
197	0x3af1b7c5	0.0018441608
198	0x3dc84bf3	0.09780111
199	0x3c8ee30e	0.017442252
200	0x3ddeb1cf	0.10873758
201	0x3d69ddea	0.0570964
202	0xbd1dcb22	-0.0385238
203	0xbcfe4a93	-0.03104142
204	0xbd2afecd	-0.041746903
205	0x3ca3b585	0.019984016
206	0xbddbef07	-0.1073895
207	0x3d654548	0.055974275
208	0xbd8bab93	-0.068198346
209	0xbd0a5f68	-0.033782393
210	0xbd99a79c	-0.07502672
211	0x3cd76919	0.026295232
212	0x3c54a007	0.012977607
213	0xbdd95566	-0.106119916
214	0xbdd639b7	-0.10460227
215	0xbdafca82	-0.08583547
216	0xbb945d1c	-0.004527701
217	0xbd99bd3d	-0.075067975
218	0xbdb449d4	-0.08803144
219	0x3d87d0ba	0.06631608
220	0x3c0380f5	0.008026351
221	0xbbac5b1f	-0.005259886
222	0xbd023f9d	-0.031798948
223	0x3d72348e	0.05913215
224	0xbd988da7	-0.07448893
225	0x3e2c9814	0.16854888
226	0xbc92f6bb	-0.017939916
227	0x3d112ee2	0.0354451
228	0xbcaabb14	-0.020841159
229	0x3d24429a	0.04010258
230	0xbc56a69f	-0.013101249
231	0xbdb64371	-0.08899582
232	0xbe00f8e5	-0.12594946
233	0xbd94a6ad	-0.072583534
234	0xbc788d0a	-0.015170345
235	0xbd6dd7c8	-0.058067113
236	0xbe211bbc	-0.15733236
237	0x3a97f8a1	0.0011594483
238	0x3d469b59	0.048487995
239	0xbd48e675	-0.049047906
240	0x3d6fe3fc	0.058567032
241	0x3cc5a454	0.02412621
242	0xbc65c3dd	-0.014023748
243	0xbd0f1355	-0.034930546
244	0x3cdab5d0	0.026698023
245	0xbd1bf130	-0.03807181
246	0xbe14128a	-0.14460197
247	0xbcd0648e	-0.025438573
248	0xbcc1e95c	-0.023670845
249	0xbe0f17e6	-0.1397396
250	0x3bdca007	0.006732944
251	0xbb21caf7	-0.0024687627
252	0xbdc8c776	-0.09803669
253	0x3c68ef34	0.014217187
254	0xbc9ce6d9	-0.019153045
255	0x3d8eddd7	0.06975906

fc3.bias f4 [10]
0	0xbdba1053	-0.09085145
1	0x3c51d872	0.012807952
2	0x3bab3f84	0.0052260775
3	0xbd18f4c1	-0.03734279
4	0xbdb17c9d	-0.08666346
5	0x3dfd916c	0.12381253
6	0xbc7d4c09	-0.015460023
7	0xbdb0940b	-0.08621987
8	0xbe1a11dc	-0.15045875
9	0xbcbd248e	-0.02308872

exp_avg f4 [6, 1, 3, 3]
0	0x80000004	-6e-45
1	0x00000004	6e-45
2	0x80000004	-6e-45
3	0x80000004	-6e-45
4	0x80000004	-6e-45
5	0x80000004	-6e-45
6	0x80000004	-6e-45
7	0x80000004	-6e-45
8	0x80000004	-6e-45
9	0x00000004	6e-45
10	0x00000004	6e-45
11	0x80000004	-6e-45
12	0x00000004	6e-45
13	0x80000004	-6e-45
14	0x80000004	-6e-45
15	0x00000004	6e-45
16	0x80000004	-6e-45
17	0x80000004	-6e-45
18	0x00000004	6e-45
19	0x00000004	6e-45
20	0x80000004	-6e-45
21	0x00000004	6e-45
22	0x00000004	6e-45
23	0x80000004	-6e-45
24	0x00000004	6e-45
25	0x80000004	-6e-45
26	0x80000004	-6e-45
27	0x00000004	6e-45
28	0x00000004	6e-45
29	0x00000004	6e-45
30	0x00000004	6e-45
31	0x00000004	6e-45
32	0x00000004	6e-45
33	0x00000004	6e-45
34	0x00000004	6e-45
35	0x00000004	6e-45
36	0x00000004	6e-45
37	0x00000004	6e-45
38	0x00000004	6e-45
39	0x00000004	6e-45
40	0x00000004	6e-45
41	0x00000004	6e-45
42	0x00000004	6e-45
43	0x00000004	6e-45
44	0x00000004	6e-45
45	0x80000004	-6e-45
46	0x00000004	6e-45
47	0x00000004	6e-45
48	0x00000004	6e-45
49	0x00000004	6e-45
50	0x00000004	6e-45
51	0x00000004	6e-45
52	0x00000004	6e-45
53	0x00000004	6e-45

exp_avg_sq f4 [6, 1, 3, 3]
0	0x2418e3b1	3.3152608e-17
1	0x246b9643	5.108478e-17
2	0x24600a9a	4.8581237e-17
3	0x2490c1cb	6.277834e-17
4	0x24c1398b	8.379789e-17
5	0x24c6e32a	8.625364e-17
6	0x249551ad	6.4756814e-17
7	0x24c83430	8.682458e-17
8	0x25007828	1.1142941e-16
9	0x23afde24	1.9067618e-17
10	0x23da58a6	2.3673151e-17
11	0x242ba980	3.7223286e-17
12	0x22d4d6d8	5.769019e-18
13	0x233ad0a6	1.0127263e-17
14	0x242d134b	3.7529737e-17
15	0x22302a32	2.3874786e-18
16	0x2289cc09	3.7349955e-18
17	0x23d99710	2.3591165e-17
18	0x2348ac80	1.087855e-17
19	0x22159b07	2.0275336e-18
20	0x2133211b	6.0691374e-19
21	0x228c5437	3.803624e-18
22	0x20a0d408	2.7245365e-19
23	0x21a18f67	1.0947743e-18
24	0x2187b326	9.195376e-19
25	0x2252a0a1	2.8545343e-18
26	0x22d275a6	5.704518e-18
27	0x26043950	4.5874373e-16
28	0x2618f399	5.306573e-16
29	0x261c5b46	5.424707e-16
30	0x2615be27	5.1952464e-16
31	0x261ea028	5.5034314e-16
32	0x25f74f63	4.2901464e-16
33	0x2605d70e	4.64351e-16
34	0x25e6a180	4.0008077e-16
35	0x25a47af0	2.853277e-16
36	0x239bb949	1.6883605e-17
37	0x233e1aee	1.0305623e-17
38	0x214316ae	6.6098586e-19
39	0x241aa089	3.3529405e-17
40	0x23731fcd	1.31797905e-17
41	0x2134792a	6.114673e-19
42	0x24251073	3.5792605e-17
43	0x2348b800	1.0880985e-17
44	0x220e7e27	1.9311373e-18
45	0x24b476ec	7.826402e-17
46	0x24bfb465	8.3138646e-17
47	0x248ad867	6.021456e-17
48	0x25035373	1.1390712e-16
49	0x25048d51	1.1497055e-16
50	0x24946345	6.435294e-17
51	0x25096fbe	1.1920716e-16
52	0x24e309f6	9.846243e-17
53	0x24568b12	4.652165e-17

exp_avg f4 [6]
0	0x80000004	-6e-45
1	0x80000004	-6e-45
2	0x00000004	6e-45
3	0x00000004	6e-45
4	0x00000004	6e-45
5	0x80000004	-6e-45

exp_avg_sq f4 [6]
0	0x25da282e	3.7844199e-16
1	0x27556a29	2.9617238e-15
2	0x243a0b50	4.0341903e-17
3	0x26d2cc16	1.4626995e-15
4	0x2486d517	5.8474225e-17
5	0x2587551f	2.3476447e-16

exp_avg f4 [16, 6, 3, 3]
0	0x00000004	6e-45
1	0x00000004	6e-45
2	0x00000004	6e-45
3	0x00000004	6e-45
4	0x00000004	6e-45
5	0x00000004	6e-45
6	0x00000004	6e-45
7	0x00000004	6e-45
8	0x00000004	6e-45
9	0x00000004	6e-45
10	0x00000004	6e-45
11	0x00000004	6e-45
12	0x00000004	6e-45
13	0x00000004	6e-45
14	0x00000004	6e-45
15	0x00000004	6e-45
16	0x00000004	6e-45
17	0x00000004	6e-45
18	0x00000004	6e-45
19	0x00000004	6e-45
20	0x00000004	6e-45
21	0x80000004	-6e-45
22	0x80000004	-6e-45
23	0x00000004	6e-45
24	0x00000004	6e-45
25	0x00000004	6e-45
26	0x00000004	6e-45
27	0x00000004	6e-45
28	0x00000004	6e-45
29	0x00000004	6e-45
30	0x00000004	6e-45
31	0x00000004	6e-45
32	0x00000004	6e-45
33	0x00000004	6e-45
34	0x00000004	6e-45
35	0x00000004	6e-45
36	0x80000004	-6e-45
37	0x80000004	-6e-45
38	0x80000004	-6e-45
39	0x00000004	6e-45
40	0x00000004	6e-45
41	0x80000004	-6e-45
42	0x00000004	6e-45
43	0x80000004	-6e-45
44	0x80000004	-6e-45
45	0x80000004	-6e-45
46	0x00000004	6e-45
47	0x00000004	6e-45
48	0x00000004	6e-45
49	0x00000004	6e-45
50	0x00000004	6e-45
51	0x00000004	6e-45
52	0x00000004	6e-45
53	0x00000004	6e-45
54	0x00000004	6e-45
55	0x00000004	6e-45
56	0x00000004	6e-45
57	0x00000004	6e-45
58	0x00000004	6e-45
59	0x00000004	6e-45
60	0x00000004	6e-45
61	0x00000004	6e-45
62	0x00000004	6e-45
63	0x00000004	6e-45
64	0x00000004	6e-45
65	0x00000004	6e-45
66	0x00000004	6e-45
67	0x00000004	6e-45
68	0x00000004	6e-45
69	0x00000004	6e-45
70	0x00000004	6e-45
71	0x00000004	6e-45
72	0x00000004	6e-45
73	0x00000004	6e-45
74	0x00000004	6e-45
75	0x00000004	6e-45
76	0x00000004	6e-45
77	0x00000004	6e-45
78	0x00000004	6e-45
79	0x00000004	6e-45
80	0x00000004	6e-45
81	0x00000004	6e-45
82	0x00000004	6e-45
83	0x00000004	6e-45
84	0x00000004	6e-45
85	0x00000004	6e-45
86	0x00000004	6e-45
87	0x00000004	6e-45
88	0x00000004	6e-45
89	0x00000004	6e-45
90	0x80000004	-6e-45
91	0x00000004	6e-45
92	0x00000004	6e-45
93	0x00000004	6e-45
94	0x00000004	6e-45
95	0x00000004	6e-45
96	0x00000004	6e-45
97	0x00000004	6e-45
98	0x00000004	6e-45
99	0x00000004	6e-45
100	0x00000004	6e-45
101	0x00000004	6e-45
102	0x00000004	6e-45
103	0x00000004	6e-45
104	0x00000004	6e-45
105	0x00000004	6e-45
106	0x00000004	6e-45
107	0x00000004	6e-45
108	0x00000004	6e-45
109	0x00000004	6e-45
110	0x00000004	6e-45
111	0x00000004	6e-45
112	0x00000004	6e-45
113	0x00000004	6e-45
114	0x00000004	6e-45
115	0x00000004	6e-45
116	0x00000004	6e-45
117	0x00000004	6e-45
118	0x00000004	6e-45
119	0x00000004	6e-45
120	0x00000004	6e-45
121	0x00000004	6e-45
122	0x00000004	6e-45
123	0x00000004	6e-45
124	0x00000004	6e-45
125	0x00000004	6e-45
126	0x80000004	-6e-45
127	0x00000004	6e-45
128	0x00000004	6e-45
129	0x00000004	6e-45
130	0x00000004	6e-45
131	0x80000004	-6e-45
132	0x00000004	6e-45
133	0x00000004	6e-45
134	0x00000004	6e-45
135	0x00000004	6e-45
136	0x00000004	6e-45
137	0x00000004	6e-45
138	0x00000004	6e-45
139	0x00000004	6e-45
140	0x00000004	6e-45
141	0x00000004	6e-45
142	0x00000004	6e-45
143	0x00000004	6e-45
144	0x00000004	6e-45
145	0x00000004	6e-45
146	0x00000004	6e-45
147	0x00000004	6e-45
148	0x00000004	6e-45
149	0x80000004	-6e-45
150	0x00000004	6e-45
151	0x00000004	6e-45
152	0x00000004	6e-45
153	0x00000004	6e-45
154	0x00000004	6e-45
155	0x00000004	6e-45
156	0x00000004	6e-45
157	0x00000004	6e-45
158	0x00000004	6e-45
159	0x00000004	6e-45
160	0x00000004	6e-45
161	0x00000004	6e-45
162	0x00000004	6e-45
163	0x00000004	6e-45
164	0x00000004	6e-45
165	0x00000004	6e-45
166	0x00000004	6e-45
167	0x00000004	6e-45
168	0x00000004	6e-45
169	0x00000004	6e-45
170	0x00000004	6e-45
171	0x00000004	6e-45
172	0x00000004	6e-45
173	0x00000004	6e-45
174	0x00000004	6e-45
175	0x00000004	6e-45
176	0x00000004	6e-45
177	0x00000004	6e-45
178	0x00000004	6e-45
179	0x00000004	6e-45
180	0x80000004	-6e-45
181	0x80000004	-6e-45
182	0x00000004	6e-45
183	0x00000004	6e-45
184	0x00000004	6e-45
185	0x00000004	6e-45
186	0x00000004	6e-45
187	0x00000004	6e-45
188	0x00000004	6e-45
189	0x00000004	6e-45
190	0x00000004	6e-45
191	0x00000004	6e-45
192	0x00000004	6e-45
193	0x00000004	6e-45
194	0x00000004	6e-45
195	0x00000004	6e-45
196	0x00000004	6e-45
197	0x00000004	6e-45
198	0x00000004	6e-45
199	0x80000004	-6e-45
200	0x80000004	-6e-45
201	0x00000004	6e-45
202	0x00000004	6e-45
203	0x80000004	-6e-45
204	0x00000004	6e-45
205	0x00000004	6e-45
206	0x00000004	6e-45
207	0x00000004	6e-45
208	0x00000004	6e-45
209	0x00000004	6e-45
210	0x00000004	6e-45
211	0x00000004	6e-45
212	0x00000004	6e-45
213	0x00000004	6e-45
214	0x00000004	6e-45
215	0x00000004	6e-45
216	0x00000004	6e-45
217	0x00000004	6e-45
218	0x00000004	6e-45
219	0x00000004	6e-45
220	0x00000004	6e-45
221	0x00000004	6e-45
222	0x00000004	6e-45
223	0x00000004	6e-45
224	0x00000004	6e-45
225	0x00000004	6e-45
226	0x00000004	6e-45
227	0x00000004	6e-45
228	0x00000004	6e-45
229	0x00000004	6e-45
230	0x00000004	6e-45
231	0x00000004	6e-45
232	0x00000004	6e-45
233	0x00000004	6e-45
234	0x00000004	6e-45
235	0x00000004	6e-45
236	0x00000004	6e-45
237	0x00000004	6e-45
238	0x00000004	6e-45
239	0x00000004	6e-45
240	0x00000004	6e-45
241	0x00000004	6e-45
242	0x00000004	6e-45
243	0x00000004	6e-45
244	0x00000004	6e-45
245	0x00000004	6e-45
246	0x00000004	6e-45
247	0x00000004	6e-45
248	0x00000004	6e-45
249	0x00000004	6e-45
250	0x00000004	6e-45
251	0x00000004	6e-45
252	0x80000004	-6e-45
253	0x00000004	6e-45
254	0x00000004	6e-45
255	0x80000004	-6e-45
