checkpoint/model_epoch50.pth (torch, 730109 bytes, 30 tensors)

conv1.weight f4 [6, 1, 3, 3]
0	0xbd42c200	-0.047548294
1	0xbe402249	-0.18763079
2	0xbe93368c	-0.28752553
3	0xbdfefa2e	-0.12450062
4	0xbe4cb558	-0.19991052
5	0x3e2d7383	0.16938595
6	0x3e842ceb	0.2581552
7	0x3e986474	0.2976414
8	0xbc7c1761	-0.015386433
9	0x3d1c6547	0.038182523
10	0xbc5d9eea	-0.013526658
11	0x3dd57bd7	0.10424011
12	0xbdf0e3fe	-0.11762236
13	0xbb9fd031	-0.0048771133
14	0x3e8c2b80	0.27376938
15	0xbb800cb8	-0.003907766
16	0x3c50821d	0.012726334
17	0xbd81e4d6	-0.06342475
18	0x3e3da994	0.1852172
19	0xbeb04edc	-0.34435165
20	0x3e895b80	0.2682762
21	0xbd6d4128	-0.057923466
22	0xbe147bc0	-0.14500332
23	0xbe8170d7	-0.25281402
24	0x3b664a76	0.0035139597
25	0x3d5a6907	0.053322818
26	0xbe5979b7	-0.21237837
27	0x3ca7a151	0.020462664
28	0xbd7033c5	-0.05864312
29	0x3d9d5873	0.07682886
30	0xbe38aa21	-0.18033649
31	0xb99a4e10	-0.0002943133
32	0x3dc7c401	0.09754182
33	0xbd06a5d7	-0.032873
34	0xbe360ad1	-0.17777564
35	0xbd90e5a6	-0.07075052
36	0x3e44b830	0.19210887
37	0x3da1b1de	0.078952536
38	0x3ce29d31	0.027662845
39	0xbeb077c1	-0.34466365
40	0xbe926964	-0.28596032
41	0xbd4f73f4	-0.05064769
42	0xbef95fde	-0.48705953
43	0xbeb413fe	-0.35171503
44	0x3db7dd99	0.08977813
45	0x3e3a103e	0.18170258
46	0x3dcf1d15	0.10112969
47	0x3e66622e	0.2249839
48	0x3e6b6e73	0.22991352
49	0x3d50649d	0.050877202
50	0xbe312b8f	-0.17301773
51	0x3e728bbd	0.23686118
52	0x3e08ddc0	0.13365841
53	0x3e5f3ea5	0.2180124

conv1.bias f4 [6]
0	0xbeb3802d	-0.35058728
1	0x3e89aada	0.26888162
2	0x3de6d1c2	0.11270477
3	0xbdce04b5	-0.100594915
4	0xbcf8d6ae	-0.030375805
5	0x3cea1db2	0.028578613

conv2.weight f4 [16, 6, 3, 3]
0	0xbde6a16c	-0.112612575
1	0xbe1e6a90	-0.15470338
2	0x3c37da68	0.011221506
3	0xbdfac240	-0.122440815
4	0xbdf2f067	-0.11862259
5	0xbddc2277	-0.10748761
6	0x3cee462c	0.029086195
7	0xbdc01f3e	-0.09380959
8	0xbdc0a0cc	-0.094056696
9	0xbdc2b373	-0.095068835
10	0x3c2e0ff3	0.01062392
11	0xbe3672b8	-0.17817199
12	0xbe05c15f	-0.13062046
13	0xbcf7da01	-0.03025532
14	0xbda062f5	-0.078313746
15	0xbdb218b3	-0.08696117
16	0xbe28ed20	-0.16496706
17	0x3d40f5df	0.04710948
18	0xbdeb9a04	-0.115039855
19	0xbc98d148	-0.01865448
20	0xbe50d612	-0.20394161
21	0xbda74fd4	-0.08169523
22	0xbe205ede	-0.15661189
23	0xbdf46dc9	-0.11935002
24	0x3d9af7f4	0.075668246
25	0x3d04dd14	0.0324374
26	0x3d9c0811	0.07618726
27	0xbddac8dc	-0.10682842
28	0xbdb1c1e6	-0.08679561
29	0x3e17b3dc	0.14814705
30	0xbe3b54c5	-0.18294056
31	0xbd2b5f2a	-0.041838802
32	0xbdaeab40	-0.08528757
33	0xbd9b3c15	-0.07579819
34	0xbd1e85cf	-0.03870183
35	0xbd158588	-0.0365043
36	0x3d03007e	0.03198289
37	0xbe250003	-0.16113286
38	0xbe2613e2	-0.16218522
39	0x3d8e76b3	0.06956234
40	0x3d8e7100	0.06955147
41	0xbe0e1878	-0.13876522
42	0xbe12fb73	-0.14353733
43	0xbc9ca2ff	-0.019120691
44	0xbdf02821	-0.11726404
45	0xbe1cc06f	-0.15307783
46	0xbd958289	-0.07300288
47	0xbdf733ad	-0.12070403
48	0xbc7ce836	-0.015436223
49	0x3bbc4601	0.00574565
50	0xbdc3e96c	-0.09566006
51	0x3d98ac12	0.07454695
52	0x3da405a2	0.08008887
53	0xbda282cb	-0.07935103
54	0x3d544fb5	0.051833827
55	0xbd58eb5a	-0.052958824
56	0x3b196c60	0.0023410544
57	0xbe026ac6	-0.12736043
58	0x3db4320b	0.087986074
59	0xbd856b06	-0.06514554
60	0x3d2fb373	0.042895745
61	0x3d073895	0.033012945
62	0x3c96b4a6	0.018396687
63	0x3d8220b8	0.06353897
64	0x3da510d4	0.0805985
65	0xbdfa339b	-0.12216874
66	0xbdb9a1e7	-0.090640835
67	0x3d1a085e	0.037605636
68	0xbd19c7da	-0.03754411
69	0x3be87854	0.0070944224
70	0xbdb0a4be	-0.08625172
71	0xbe149dbc	-0.14513296
72	0xbd3d2bb6	-0.046184264
73	0x3c3b3f8e	0.011428727
74	0x3bc3f9ff	0.0059807296
75	0xbe05a62a	-0.13051668
76	0x3d994ddf	0.07485556
77	0x3d702f9b	0.05863915
78	0xbde7ba91	-0.113148816
79	0x3d5829d1	0.052774254
80	0xbe2c4d54	-0.16826373
81	0x3c1dad46	0.009623831
82	0xbddcb605	-0.10776905
83	0x3dc7da9a	0.09758492
84	0x3dad0398	0.08447951
85	0xbaaa0842	-0.0012972432
86	0x3c839aba	0.01606499
87	0xbcb10372	-0.021608088
88	0xbae41fdd	-0.0017404516
89	0xbdd9869d	-0.106213786
90	0xbd536ca4	-0.05161728
91	0xbae7731b	-0.0017658205
92	0x3de0f64a	0.10984476
93	0x3bb26372	0.0054439837
94	0x3c27acee	0.010234101
95	0xbd4ce6b4	-0.050024703
96	0xbdc12651	-0.094311364
97	0x3da4b4e8	0.08042318
98	0x3c91a4ee	0.01777884
99	0x3da96adf	0.08272337
100	0x3cb9a283	0.0226605
101	0xbd5a4749	-0.05329064
102	0xbdaa2930	-0.08308637
103	0xbe086ee8	-0.13323557
104	0x3c5b7e75	0.013396849
105	0x3d11b1e2	0.035570033
106	0xbb8e7624	-0.0043475796
107	0x3d471ec7	0.048613336
108	0x3c837306	0.016046058
109	0xbd39029f	-0.045168515
110	0xbdcaf59c	-0.099101275
111	0x3e136441	0.14393713
112	0x3cb68a14	0.022282638
113	0xbe58ecba	-0.21184054
114	0xbe202134	-0.15637666
115	0x3d0b296e	0.033975057
116	0x3c9a31c1	0.018822553
117	0xbcd6f79e	-0.02624112
118	0xbe433d7a	-0.1906642
119	0xbdaa28c0	-0.08308554
120	0xbe335ce4	-0.17515904
121	0x3d1d4348	0.038394243
122	0xbd30dd22	-0.04317964
123	0x3d4c642c	0.04990022
124	0xbda8708c	-0.082245916
125	0xbe0e79e0	-0.13913679
126	0xbd5f1a99	-0.054468725
127	0xba8950f7	-0.00104764
128	0xbcaf9dad	-0.02143749
129	0x3a3469ea	0.00068822375
130	0x3cae115f	0.021248518
131	0xbc20fa9b	-0.009825374
132	0xbc8bba2b	-0.017056545
133	0xbd86113e	-0.065462574
134	0xbda435bd	-0.08018062
135	0x3bad4bfa	0.005288598
136	0x3d854ed1	0.06509174
137	0xbca6e443	-0.020372516
138	0xbe01f455	-0.12690862
139	0xbcfbb77e	-0.030727144
140	0xbca348fd	-0.019932264
141	0xbdf1b93c	-0.11802909
142	0xbe28bd9e	-0.16478583
143	0xbe3e6db9	-0.18596543
144	0xbc2ecf6f	-0.010669573
145	0x3d44244a	0.04788617
146	0xbe0d38c7	-0.1379119
147	0xb9916450	-0.00027731294
148	0xbd270564	-0.040776625
149	0xbd283e80	-0.04107523
150	0x3d3a4942	0.04548002
151	0xbdecd49b	-0.11563989
152	0xbe5dcd8f	-0.21660446
153	0x3d5580d6	0.05212482
154	0x3c950b92	0.018193994
155	0x3c88bae6	0.016690683
156	0xbd8756a3	-0.066083215
157	0xbe194101	-0.14966203
158	0xbdfc093c	-0.12306449
159	0xbddabfb1	-0.106810935
160	0x3d51bb58	0.051204056
161	0xbe37a4a3	-0.17933898
162	0xbe382023	-0.17981009
163	0x3db240bd	0.08703754
164	0xbd3bfec9	-0.04589728
165	0xb9b98fe9	-0.0003539317
166	0xbb648e3a	-0.0034874813
167	0x3e394102	0.18091205
168	0xbc396cb7	-0.011317424
169	0x3ad9ec50	0.0016626213
170	0xbde98f20	-0.11404252
171	0xbdfa03d8	-0.122077644
172	0xbe3cf0d6	-0.18451247
173	0xbc89145a	-0.016733337
174	0xbe135e99	-0.14391555
175	0xbe1d4dd8	-0.15361726
176	0xbe1e8aaf	-0.15482591
177	0xbde38100	-0.11108589
178	0xbc6182cb	-0.013764094
179	0xbd3ea603	-0.04654504
180	0x3d3ea5f7	0.046544995
181	0x3c81e3c7	0.015855683
182	0xbe3d0915	-0.18460496
183	0xbe410ced	-0.18852587
184	0xbe52cfb3	-0.20587043
185	0xbde25ed9	-0.11053247
186	0x3d00bfb8	0.031432837
187	0xbd0ed494	-0.0348707
188	0xbe4ee02f	-0.20202707
189	0xbdc64c93	-0.09682574
190	0xbe04695a	-0.12930813
191	0x3d33d243	0.043901693
192	0x3d02f3b4	0.031970695
193	0xbe493d90	-0.1965239
194	0xbd7fb82f	-0.06243151
195	0xbd6ad928	-0.057336003
196	0xbcf8b797	-0.03036098
197	0xbdf4abdd	-0.11946843
198	0xbdd55e31	-0.10418356
199	0xbdb8b18f	-0.090182416
200	0xbdf0f2da	-0.1176507
201	0xbe451d33	-0.1924942
202	0xbe023f69	-0.12719502
203	0xbbed1e56	-0.0072362823
204	0xbdb7de4b	-0.08977946
205	0xbe36b2bb	-0.17841618
206	0xbc9e1718	-0.019298121
207	0x3d4b47bd	0.04962896
208	0xbdeefeda	-0.11669703
209	0xbd6ca6f6	-0.057776414
210	0xbdea65df	-0.114452116
211	0xbce9aa06	-0.028523456
212	0xbde4a678	-0.11164564
213	0xbc534b20	-0.012896329
214	0xbd0fc29a	-0.035097696
215	0x3cad282f	0.021137325
216	0xbb97f52d	-0.0046373815
217	0x3e17a903	0.14810567
218	0x3c63846f	0.013886555
219	0xbd29ec0e	-0.041484885
220	0xbe9d508e	-0.3072552
221	0xbe764b2a	-0.2405211
222	0xbd8c3989	-0.068469115
223	0xbe15b2ef	-0.14619039
224	0xbe13801d	-0.1440434
225	0xbe839881	-0.2570229
226	0xbe5f96ad	-0.21834822
227	0xbd57408a	-0.052551784
228	0xbe71cb5c	-0.23612732
229	0xbe4e66b1	-0.20156361
230	0xbe75c50d	-0.2400095
231	0x3c63d801	0.01390648
232	0x3b25c1cc	0.0025292514
233	0xbc9a1f78	-0.018813834
234	0x3d6f5e15	0.058439333
235	0xbd2c6182	-0.04208518
236	0xbdf5f117	-0.12008875
237	0x3d401c77	0.046902146
238	0xbdecf67d	-0.115704514
239	0xbd49593a	-0.04915736
240	0xbe635ba1	-0.22202922
241	0xbda6ca54	-0.0814406
242	0xbe3d3812	-0.1847842
243	0xbdc2ad93	-0.09505763
244	0x3d04fc00	0.03246689
245	0xbde5729e	-0.11203502
246	0x3dcd2574	0.10016909
247	0x3df60569	0.12012751
248	0xbcfd472e	-0.03091773
249	0x3bd8d38e	0.006617016
250	0xbcca45d6	-0.024691503
251	0x3d70be3f	0.058775183
252	0xbe53df05	-0.20690544
253	0xbd01173a	-0.03151629
254	0xbdf549ff	-0.11977004
255	0x3bdde5ce	0.0067717796

conv2.bias f4 [16]
0	0xbe2ae883	-0.16690259
1	0xbe1e4bcb	-0.154586
2	0x3b30f620	0.002700217
3	0x3b9c9012	0.0047779167
4	0xbdfa18ce	-0.12211762
5	0xbd1a22a2	-0.037630685
6	0xbe1cea99	-0.15323867
7	0x3ba868fd	0.0051394687
8	0xbd49bad7	-0.04925045
9	0xbd7d3bd3	-0.06182463
10	0xbd71a338	-0.05899355
11	0xbde447b6	-0.1114649
12	0xbcdef2a7	-0.027215315
13	0xbca5f5b0	-0.020258754
14	0xbde82187	-0.1133452
15	0xbe1f604f	-0.15564083

fc1.weight f4 [120, 400]
0	0xbbeba733	-0.0071915626
1	0x3d057f6d	0.032592226
2	0x3cf8968d	0.030345226
3	0x3c63d453	0.0139056025
4	0x3cde295a	0.027119327
5	0xbd2b76fd	-0.041861523
6	0xbb00a133	-0.0019627332
7	0x3c1ca807	0.009561545
8	0x3c3afd4d	0.011412931
9	0x3d14b160	0.03630197
10	0xbd300ee3	-0.042982947
11	0xbd0cc0ba	-0.034363486
12	0x3ce4740a	0.027887363
13	0xbcb7737a	-0.02239393
14	0xbd3ef113	-0.046616625
15	0x3caea127	0.021317078
16	0x3d3e3e40	0.046446085
17	0xbc1de07a	-0.009636039
18	0x3d3d5ee5	0.046233077
19	0xbca64487	-0.020296348
20	0x3d481387	0.048846748
21	0xbd45a582	-0.048253544
22	0x3cd5f743	0.02611888
23	0x3cfc245a	0.030779053
24	0x3d310d12	0.043225355
25	0x3d1f98dd	0.03896414
26	0x3beac1c0	0.00716421
27	0x3c52bee7	0.0128628975
28	0xbcc1280d	-0.023578668
29	0xbcb930f0	-0.022606343
30	0xbd238eb0	-0.039931
31	0xbc1b84c7	-0.009492106
32	0xbb6ac633	-0.0035823702
33	0x3acb46cd	0.0015508771
34	0x3b997300	0.0046828985
35	0x3c7f7153	0.015590983
36	0xbc2adaa0	-0.010428101
37	0xbcd19b2d	-0.025586689
38	0xbd44ca30	-0.048044384
39	0xbd162857	-0.036659565
40	0x3c83a790	0.016071111
41	0xbd261e37	-0.04055616
42	0x3d08f813	0.033439707
43	0x3c3e2ea7	0.0116078025
44	0xbcc1f32a	-0.02367552
45	0xbc9cec27	-0.019155575
46	0xbcdb66d7	-0.026782436
47	0xbd01d99f	-0.03170168
48	0x3cbf0667	0.023318483
49	0x3cbf2dda	0.023337293
50	0xbc1e57e0	-0.009664506
51	0x3c800217	0.015625997
52	0xbd147138	-0.036240786
53	0xbd06d31a	-0.032916166
54	0xbca550ca	-0.020180125
55	0x3cf75dcd	0.030196095
56	0x3c955dea	0.018233258
57	0xbcd21f13	-0.025649583
58	0xbcab9d87	-0.020949138
59	0xbc96a56a	-0.018389422
60	0xbd495640	-0.04915452
61	0xbd0ad3a8	-0.033893257
62	0x3b94edb3	0.0045449375
63	0xbd160ff8	-0.036636323
64	0xbb018833	-0.001976502
65	0xbd4addea	-0.04952804
66	0xbceee790	-0.029163152
67	0x3bcee340	0.0063137114
68	0xbbb71533	-0.005587244
69	0x3c0797d3	0.008275944
70	0xbce7ec53	-0.02831093
71	0xbbec9aa7	-0.0072205844
72	0x3d2ddb62	0.042445548
73	0x3cc19f97	0.023635669
74	0xbcfcfc7d	-0.030882115
75	0x3c098520	0.008393556
76	0xbcf2fd83	-0.0296619
77	0x3cc557b7	0.024089677
78	0x3c8d08f0	0.017216176
79	0xbc2cc1cd	-0.010544253
80	0xbbe4e8c0	-0.006985754
81	0x3c808b27	0.015691353
82	0xbba0919a	-0.0049001696
83	0xbc83b7c3	-0.016078835
84	0xbd26a827	-0.040687706
85	0xbcda3af0	-0.026639432
86	0x3d41edcf	0.047345933
87	0x3d166517	0.0367175
88	0x3a8a70cd	0.0010562182
89	0xbd22f4da	-0.03978429
90	0x3c92c390	0.017915517
91	0x3c1f2893	0.0097142635
92	0x3afa5667	0.0019099236
93	0x3c419f07	0.0118177
94	0xbd301adb	-0.04299436
95	0xbd048fb0	-0.032363594
96	0xbc2cc833	-0.010545778
97	0x3d3768bf	0.044777628
98	0x3bd6f4f3	0.006559962
99	0x3c8514ca	0.016245265
100	0x3d0cfa15	0.034418184
101	0x3cc2d4b3	0.023783064
102	0x3ce45777	0.027873738
103	0xbd24cb1b	-0.04023276
104	0xbce27920	-0.027645648
105	0xbca605b3	-0.02026639
106	0x3d044498	0.03229198
107	0xbcb50397	-0.022096438
108	0xbd18e7df	-0.037330505
109	0xbc924cc0	-0.017858863
110	0xbd286325	-0.041110177
111	0xbcc37abd	-0.023862237
112	0x3cbaeeba	0.022818912
113	0xbc599a13	-0.013281363
114	0x3cc33bb7	0.023832185
115	0xbc9faa27	-0.019490315
116	0xbcf0d943	-0.029400473
117	0x3d4b4982	0.04963065
118	0xbca96aaa	-0.020680744
119	0x3d347d2d	0.04406469
120	0xbcfdd56a	-0.030985553
121	0xbd2a24b7	-0.04153892
122	0x3b1db6e7	0.0024065317
123	0xbcc3018d	-0.02380445
124	0xbd28b240	-0.041185617
125	0xbceb1330	-0.028695673
126	0x3c80a73d	0.015704745
127	0x3ca40ab3	0.020024633
128	0xbb25a880	-0.0025277436
129	0x3c23f807	0.010007865
130	0xbd4c66e0	-0.049902797
131	0x3c726067	0.014793492
132	0xbc82573d	-0.01591074
133	0x3c0208b3	0.007936644
134	0x3cb6ddf3	0.02232263
135	0x3cad40b7	0.021149023
136	0xbd2a8fc7	-0.041641023
137	0xbcce459a	-0.025179673
138	0x3d39f5ba	0.04540036
139	0x3d20573a	0.039145686
140	0x3c93d49a	0.018045712
141	0xbc465b60	-0.012106746
142	0xbcb82b47	-0.022481574
143	0x3bcc2c00	0.006230831
144	0xbd2099d7	-0.039209213
145	0xbba90d1a	-0.0051590325
146	0xbc1f2a87	-0.009714729
147	0xbcf12f33	-0.029441452
148	0xbbf1705a	-0.0073681297
149	0x3c233633	0.009961653
150	0x3caf8840	0.021427274
151	0xbb598f80	-0.0033197105
152	0xbd1e1302	-0.038592346
153	0x39ae2333	0.00033214092
154	0x3cc0c4cd	0.023531342
155	0x3bfeddda	0.0077779116
156	0x3cfe8d9a	0.03107338
157	0xbc0ae367	-0.0084770685
158	0xbb38cb4d	-0.0028197349
159	0xbd0f259a	-0.03494797
160	0xbd367140	-0.044541597
161	0xbd151e75	-0.036406
162	0x3c784713	0.015153664
163	0x3a5f3867	0.00085151795
164	0x3ca3d280	0.019997835
165	0x3c0ef6b3	0.00872581
166	0xbcdca807	-0.02693559
167	0x3c06169a	0.0081841
168	0x3bc752da	0.0060828747
169	0xbc0984e0	-0.008393496
170	0x3cf2d8d0	0.0296444
171	0xbc1fffe0	-0.009765595
172	0xbbb406f3	-0.0054939925
173	0xbc7d2f67	-0.015453196
174	0xbcca903a	-0.024726976
175	0xbca9076d	-0.020633424
176	0xbbdcc98d	-0.006737894
177	0xbd20edb2	-0.039289184
178	0x3d05d56b	0.032674234
179	0xbbde6280	-0.0067866445
180	0xbd4543c8	-0.048160344
181	0xbbf6cf1a	-0.0075320126
182	0xbcdcb74a	-0.026942868
183	0xbd4b288f	-0.049599227
184	0xbcd3c79d	-0.025852019
185	0xbd0d16e0	-0.034445643
186	0xbcbfd263	-0.02341575
187	0x3b98399a	0.0046455385
188	0x3d1a1428	0.03761688
189	0xbc9e3433	-0.019312
190	0x3cc9ab43	0.024617797
191	0xbd39d9ea	-0.045373835
192	0x3d31b188	0.043382198
193	0x3d250e33	0.040296745
194	0xbc1866d3	-0.009301859
195	0x3d27d48d	0.04097419
196	0x3d17b158	0.037034363
197	0xbc754ff3	-0.014972675
198	0xbd2d180f	-0.042259272
199	0x3c55ce00	0.0130496025
200	0xbba76600	-0.005108595
201	0xbcdb31bd	-0.026757115
202	0x3cc5f530	0.024164766
203	0xbb62e033	-0.0034618496
204	0xbc62ea07	-0.013849742
205	0xbcbfad20	-0.023397982
206	0x3b013e00	0.0019720793
207	0x3cb64603	0.022250181
208	0x3c8fabbd	0.017537946
209	0xbbf7a3e7	-0.0075573805
210	0x3c595a1a	0.013266111
211	0xbd439efb	-0.047759037
212	0x3c605f73	0.013694632
213	0x3d4941c3	0.04913498
214	0xbc69a1b3	-0.0142597435
215	0x3ca13c73	0.019682145
216	0xbcc18670	-0.023623675
217	0x3b2c2800	0.002626896
218	0x3d1050c2	0.035233267
219	0x38ce1000	9.825826e-05
220	0x3d04da38	0.032434672
221	0xbcd29a8d	-0.025708461
222	0xbd384443	-0.044986974
223	0xbc11c6ed	-0.008897525
224	0xbd3e9e8d	-0.046537925
225	0x3c3f372d	0.01167087
226	0xbcfa76ba	-0.030574191
227	0xbd2bb24d	-0.041918088
228	0xbcf1c5e0	-0.0295133
229	0x3c9eabe7	0.019369079
230	0x3cacac7a	0.021078337
231	0xbce8aa8d	-0.028401637
232	0x3b49dbb3	0.0030801117
233	0x3c095027	0.008380926
234	0x3c3019cd	0.010748339
235	0x398a9ccd	0.00026438237
236	0xbd3b4f52	-0.045729943
237	0xbc8b68e0	-0.017017782
238	0xbccce413	-0.025011098
239	0x3d444752	0.04791958
240	0x3c68fc73	0.014220345
241	0xbd3d7467	-0.046253588
242	0x3d39eb6f	0.045390543
243	0xbce2e13d	-0.027695293
244	0xbcb6fe5a	-0.022338081
245	0xbd33f7f7	-0.04393765
246	0xbc465d6d	-0.012107235
247	0xbd0050cf	-0.031327065
248	0xbcc06e2a	-0.02349003
249	0x3d349d48	0.044095308
250	0x3cbc1697	0.02295999
251	0xbd4921d8	-0.04910454
252	0xbbc5f0b3	-0.0060406565
253	0x3c567ae0	0.013090819
254	0xbc80f2fa	-0.01574086
255	0x3c8705d7	0.016482277

fc1.bias f4 [120]
0	0xbd32132d	-0.04347532
1	0xbce9c4c9	-0.028536217
2	0xbd8245a1	-0.06360937
3	0xbd907e03	-0.07055285
4	0xbd26a3c1	-0.04068351
5	0xbd641ae3	-0.055689704
6	0xbd3f9976	-0.04677721
7	0xbda8f585	-0.08249954
8	0xbd3da626	-0.04630103
9	0xbd42ca6a	-0.04755632
10	0xbd2b2a04	-0.041788116
11	0xbd4cb63a	-0.049978472
12	0xbd48c409	-0.04901508
13	0xbd3e614d	-0.046479512
14	0xbd09d3ac	-0.03364913
15	0xbd4eba4b	-0.05047063
16	0xbcceba48	-0.02523531
17	0xbd4222e5	-0.04739656
18	0xbdb056f9	-0.08610339
19	0xbda8d089	-0.082429
20	0xbd95887d	-0.07301424
21	0xbd590d05	-0.052990932
22	0xbd1f63be	-0.03891348
23	0xbd2f6185	-0.04281761
24	0xbcb7b380	-0.02242446
25	0xbe03fa77	-0.12888514
26	0xbd5431f1	-0.05180544
27	0xbd408abf	-0.04700732
28	0xbda1869d	-0.078870036
29	0xbd8cfc95	-0.06884114
30	0xbd7f9809	-0.06240085
31	0xbd3b1be0	-0.04568088
32	0xbd1f6c31	-0.03892154
33	0xbdb20d33	-0.08693924
34	0xbcc34312	-0.023835693
35	0xbe098acf	-0.13431858
36	0xbd09151c	-0.033467397
37	0xbd43fe87	-0.047850158
38	0xbd3fdf6a	-0.046843924
39	0xbd63296a	-0.055459417
40	0xbcbf2dc6	-0.023337256
41	0xbd02120f	-0.031755503
42	0xbd704599	-0.058660123
43	0xbd527376	-0.051379643
44	0xbd83ccd4	-0.06435552
45	0xbd5f200f	-0.054473933
46	0xbd5ede7b	-0.054411393
47	0xbd9228d2	-0.07136692
48	0xbcfcee9e	-0.0308755
49	0xbcbc5cb4	-0.022993423
50	0xbdc0c341	-0.09412242
51	0xbd4fe370	-0.05075401
52	0xbdd38427	-0.103279404
53	0xbca952e4	-0.020669408
54	0xbd3a4905	-0.045479793
55	0xbd9e49cb	-0.07728919
56	0xbd943805	-0.072372474
57	0xbca6f596	-0.020380776
58	0xbd7a229e	-0.06106817
59	0xbd14eab8	-0.036356658
60	0xbd42c00a	-0.047546424
61	0xbcf2aafa	-0.029622544
62	0xbcf925b8	-0.030413494
63	0xbd30dced	-0.04317944
64	0xbd80093f	-0.062517636
65	0x3e0f8950	0.14017224
66	0xbd24e768	-0.04025975
67	0x3ce4b12b	0.027916512
68	0xbc5f27d2	-0.013620334
69	0xbd97894a	-0.07399233
70	0xbd8b4eaf	-0.06802117
71	0xbd65d37b	-0.056109887
72	0xbd57b98a	-0.05266718
73	0xbd43ac9f	-0.047772046
74	0xbd2d0569	-0.042241488
75	0xbd2c3581	-0.042043213
76	0x3dc75356	0.09732692
77	0xbd65d499	-0.056110952
78	0xbe036543	-0.12831597
79	0xbcbc90ee	-0.023018327
80	0xbd5aa06e	-0.053375654
81	0xbcad238a	-0.02113511
82	0xbd26a65d	-0.040686
83	0xbd9caa4f	-0.07649671
84	0xbd878f9f	-0.066191904
85	0xbdba54ec	-0.09098229
86	0xbcff1f48	-0.031142846
87	0xbcc897e1	-0.024486484
88	0xbc7561b7	-0.01497691
89	0xbcb8622d	-0.022507751
90	0xbc75d1e1	-0.015003652
91	0xbdad47fc	-0.084609956
92	0xbce86b4f	-0.028371481
93	0xbddfb537	-0.10923236
94	0xbdc16d88	-0.094447196
95	0xbd8aca74	-0.06776896
96	0xbd228ef1	-0.0396871
97	0xbda95f08	-0.08270079
98	0xbdac3081	-0.08407689
99	0xbb92fa22	-0.0044853846
100	0xbcef8e14	-0.029242553
101	0xbd502d12	-0.050824232
102	0xbd842c35	-0.06453744
103	0xbd6fcd6b	-0.05854551
104	0xbd91f0a0	-0.07125974
105	0xbc2e2632	-0.010629224
106	0xbc6e5369	-0.014546254
107	0xbd2e06e0	-0.042487025
108	0xbd05873d	-0.032599676
109	0xbdbd1837	-0.09233134
110	0xbce73e77	-0.028228028
111	0xbcd850d8	-0.026405737
112	0xbd66b66b	-0.05632631
113	0xbdc26002	-0.09490968
114	0xbd451f29	-0.04812542
115	0xbd035276	-0.032061063
116	0xbd1ca417	-0.038242426
117	0xbcfef8ff	-0.03112459
118	0xbd9b53b8	-0.075843275
119	0xbceef19c	-0.029167943

fc2.weight f4 [84, 120]
0	0x3dab9257	0.083775215
1	0x3ccfb10b	0.025352975
2	0xbe191902	-0.14950946
3	0xbd36e69a	-0.044653513
4	0x3c8b33aa	0.016992409
5	0xbdeef5c3	-0.11667969
6	0xbd853b99	-0.06505508
7	0xbd47c8f2	-0.04877562
8	0xbd726db9	-0.05918667
9	0xbda5535e	-0.08072542
10	0xba5d4af7	-0.00084416516
11	0xbcf97911	-0.030453237
12	0xbc7699f3	-0.015051353
13	0x3d2874ed	0.041127134
14	0x3dfed9fc	0.12443921
15	0xbd8c021b	-0.06836339
16	0xbcb90e84	-0.02258993
17	0xbd3e64b3	-0.046482753
18	0x3c3c76ee	0.011502964
19	0xbb90accd	-0.0044151307
20	0xbd9dcde4	-0.07705286
21	0x3cf81e95	0.03028802
22	0xbd115020	-0.035476804
23	0xbd3159e0	-0.043298602
24	0x3dd70859	0.10499639
25	0x3d3d8648	0.04627064
26	0xbdae2727	-0.085035615
27	0xbd849d9e	-0.064753756
28	0xbca6712b	-0.020317635
29	0x3e188d5f	0.14897679
30	0xbdcffd38	-0.101557195
31	0x3bdfd1ce	0.0068304306
32	0xbd7809b8	-0.060556144
33	0x3c1e37fe	0.009656904
34	0xbdf22881	-0.11824132
35	0x3d4f4e3b	0.050611716
36	0xbcc8a7c8	-0.024494067
37	0x3b67e3a2	0.0035383482
38	0xbe048e46	-0.12944898
39	0x3d6164f3	0.055027913
40	0xbdd8f235	-0.10593072
41	0xbcb7f612	-0.022456203
42	0xbe159580	-0.14607811
43	0xbd423098	-0.047409624
44	0xbda7b46f	-0.08188712
45	0xbdcc0e6b	-0.099636875
46	0xbdea5df2	-0.114437
47	0xbe16ea53	-0.14737825
48	0x3be3ba6a	0.0069497125
49	0x3d4866c0	0.048926115
50	0xbda9115e	-0.08255266
51	0x3dc0aaa5	0.09407548
52	0x3d19e0b5	0.037567813
53	0x3cff4132	0.031159017
54	0xbdd194c0	-0.1023345
55	0xbce3e317	-0.027818246
56	0x3d022b1b	0.03177939
57	0x3db9a397	0.090644054
58	0x3e17da38	0.14829338
59	0x3c1ceb40	0.009577572
60	0x3de3af13	0.11117377
61	0xbe0af7f9	-0.13571157
62	0x39734b79	0.00023202402
63	0x3c1115a6	0.008855259
64	0x3c52c974	0.012865413
65	0xbdbfb07b	-0.09359833
66	0x3cdc7e31	0.026915642
67	0x3cde66e4	0.027148671
68	0x3e035f9f	0.12829445
69	0x3cb59695	0.02216653
70	0x3e0c08e1	0.13675262
71	0x3c533baa	0.012892643
72	0xbca8a479	-0.02058624
73	0x3b25f031	0.0025320167
74	0xbd817885	-0.063218154
75	0xbda96431	-0.08271063
76	0x3cf81faa	0.030288536
77	0x3d1a5ed4	0.03768809
78	0xbc80825f	-0.015687166
79	0xbcdba948	-0.026814118
80	0x3cf3d744	0.029765733
81	0x3dbbc987	0.09169298
82	0xbc04a0c3	-0.008094969
83	0x3dfb6de3	0.122768186
84	0xbd550dd1	-0.05201513
85	0xbd8bae2d	-0.06820331
86	0xbd8c1945	-0.06840757
87	0xbc581982	-0.013189675
88	0xbd410b7e	-0.0471301
89	0x3caed781	0.021342995
90	0xbdc4bee6	-0.096067235
91	0xbd8a3ea8	-0.06750232
92	0xbcba6587	-0.02275349
93	0x3d890d2e	0.06691967
94	0xbd101531	-0.03517646
95	0x3e11770d	0.1420557
96	0xbb934d50	-0.0044953004
97	0xbca5296d	-0.020161355
98	0xbd11df5c	-0.035613403
99	0x3ba79498	0.0051141493
100	0xbd898e20	-0.06716561
101	0xbe11e23c	-0.14246458
102	0xbc0d9c1f	-0.008643179
103	0x3c85773f	0.016292213
104	0x3c3133ab	0.010815541
105	0xb9e67895	-0.0004395886
106	0xbd1ac80a	-0.03778843
107	0xbd62fa2f	-0.055414375
108	0xbd9f31cd	-0.077731706
109	0xbe070311	-0.13184763
110	0x3dae4886	0.085099265
111	0xbe086b22	-0.13322118
112	0xbe0683f5	-0.13136275
113	0xbd02eb9e	-0.031962983
114	0xbcfa9351	-0.030587824
115	0x3d85bc07	0.06530004
116	0xbdba796a	-0.09105189
117	0x3e199b99	0.15000762
118	0x3ba06484	0.004894795
119	0x3cb4be9d	0.022063548
120	0xbd5a47d7	-0.053291168
121	0x3b67a923	0.0035348616
122	0xbe0eb06e	-0.1393449
123	0xbdc33d3b	-0.09533163
124	0xbc19def2	-0.009391533
125	0xbde2d8a5	-0.11076478
126	0xbdf70712	-0.120618954
127	0xbe15cd2a	-0.14629045
128	0xbdf9edfc	-0.12203595
129	0xbdf6048a	-0.120125845
130	0xbc40cc78	-0.011767499
131	0x3da51990	0.08061516
132	0xbc85d88b	-0.016338607
133	0xbd8ede78	-0.06976026
134	0x3da50723	0.08058002
135	0x3d92228c	0.071354955
136	0xbe0eee82	-0.13958171
137	0x3d1757e6	0.03694906
138	0x3d995425	0.074867524
139	0xbd970826	-0.07374601
140	0x3d8bfbb8	0.06835121
141	0x397f4711	0.0002434517
142	0x3d334b9a	0.04377327
143	0xbd82359a	-0.0635788
144	0xbc1786af	-0.00924842
145	0xbc1a39e1	-0.0094132135
146	0xbd1b5a99	-0.037928198
147	0xbb14fd06	-0.0022733822
148	0xbe08915d	-0.13336702
149	0x3e07a04f	0.13244747
150	0xbcd83e8c	-0.026397012
151	0x3d4f42ec	0.05060093
152	0x3c81ad8c	0.015829824
153	0x3d1ad16b	0.037797373
154	0x3e11c57e	0.14235494
155	0xbd928fe3	-0.071563505
156	0xbe0b3daf	-0.13597749
157	0xbdb04cf0	-0.08608425
158	0xbbd9b00c	-0.006643301
159	0x3d5bae20	0.053632855
160	0x3df8f97d	0.12156961
161	0xbd515825	-0.05110945
162	0xbdec1557	-0.11527508
163	0xbd825f0b	-0.06365784
164	0x3e0d45b6	0.13796124
165	0xbdc7bcce	-0.097528085
166	0x3d807a06	0.06273274
167	0x3d7abde5	0.061216254
168	0x3d10d0d2	0.035355397
169	0xbca7d069	-0.02048512
170	0x3d5ddd30	0.05416602
171	0x3b85e4bb	0.0040861047
172	0x3d8e84cd	0.069589235
173	0x3e166e6c	0.1469056
174	0xbd5bfe02	-0.053709038
175	0xbdf23621	-0.118267305
176	0xbda3e069	-0.08001787
177	0x3ccacf2d	0.024756992
178	0x3df74ce1	0.1207521
179	0x3dad89b1	0.08473528
180	0xbd4840c8	-0.048889905
181	0xbe07fef0	-0.13280845
182	0x3d853a87	0.06505304
183	0xbc4f61cc	-0.012657594
184	0x3cae7a57	0.02129857
185	0x3d79eeb9	0.06101868
186	0xbdf5a150	-0.119936585
187	0xbd92400e	-0.07141124
188	0x3dfad5f6	0.12247841
189	0xbdf03b3c	-0.11730048
190	0xb988d522	-0.00026098738
191	0xbe03b1ff	-0.12860869
192	0x3d8f0739	0.069837995
193	0x3d2ea554	0.042638138
194	0xbd3d321a	-0.04619036
195	0x3cf605c0	0.030032039
196	0xbda63c17	-0.0811693
197	0x3cce028a	0.025147695
198	0x3d6e6b09	0.058207545
199	0x3c635782	0.013875844
200	0x3d9a91a3	0.07547309
201	0x3d6b90ca	0.05751113
202	0xbde1be19	-0.110225864
203	0x3c86bceb	0.016447505
204	0xbb292fc3	-0.0025815822
205	0xbb9b8b5a	-0.0047468366
206	0xbde91479	-0.11380858
207	0x3c1ff407	0.0097627705
208	0x3e07827f	0.13233374
209	0xbd13fdcb	-0.036130708
210	0xbe0a77f5	-0.13522322
211	0xbdd54180	-0.10412884
212	0x3de51388	0.11185366
213	0x3d5052a3	0.05086006
214	0x3cc47227	0.023980213
215	0x3d8853a9	0.06656582
216	0x3c097f80	0.008392215
217	0x3d4289d9	0.047494743
218	0x3d0b959b	0.03407822
219	0xbdbe2680	-0.09284687
220	0xbe1e7a76	-0.15476403
221	0xbd2bf701	-0.04198361
222	0x3b8a66b6	0.00422367
223	0xbd842f50	-0.06454337
224	0xbd2230d5	-0.03959735
225	0x3b005412	0.001958136
226	0xbd75565d	-0.059896816
227	0xbc5064dc	-0.012719359
228	0xbc8a410c	-0.01687672
229	0xbd6853ce	-0.056720547
230	0x3c89c7b8	0.016818866
231	0x3cf2605a	0.02958696
232	0xbb6463a8	-0.0034849439
233	0xbcaa85bb	-0.02081572
234	0x3cea088d	0.02856853
235	0xbdbe16c7	-0.09281688
236	0xbbf66e53	-0.007520476
237	0x3d7656a9	0.06014124
238	0xba6bf252	-0.0009000647
239	0xbd17453e	-0.03693127
240	0x3d51fdd1	0.05126745
241	0xbdaffeaa	-0.08593495
242	0xbd86f27c	-0.06589219
243	0x3d4ee338	0.05050966
244	0x3dfd6dec	0.123744816
245	0xbd894ed5	-0.06704489
246	0xbdd1d517	-0.10245722
247	0x3c3f11ad	0.011661929
248	0xbe186da2	-0.14885572
249	0x3bc3701f	0.0059642936
250	0xbe034cda	-0.12822285
251	0xbb390d12	-0.002823655
252	0xbe0b10b5	-0.13580592
253	0x3d157679	0.036489937
254	0xbb6529d9	-0.003496757
255	0xbd0ec55b	-0.03485618

fc2.bias f4 [84]
0	0xbd5fae7b	-0.054609757
1	0xbcda4d8d	-0.026648307
2	0xbdb19601	-0.08671189
3	0xbd9bd282	-0.076085106
4	0xbdbc9cc8	-0.09209591
5	0xbd674d74	-0.05647035
6	0xbc854ff0	-0.016273469
7	0x3c58ec21	0.013239891
8	0xbcee205b	-0.029068163
9	0xbc9ec1a1	-0.019379439
10	0xbd80a409	-0.06281287
11	0x3c24becd	0.010055256
12	0xbd23c1b5	-0.039979655
13	0xbd2cfa9a	-0.04223118
14	0x3ba637aa	0.0050725536
15	0xbd521970	-0.05129379
16	0xbe15074d	-0.14553566
17	0xbd50db2c	-0.05099027
18	0xbd97d3e9	-0.074134655
19	0xbdb592ca	-0.088658884
20	0xbc42994a	-0.011877367
21	0xbd8a3216	-0.067478344
22	0xbafa99a6	-0.0019119277
23	0xbc5937db	-0.013257946
24	0xbc1a2bad	-0.009409827
25	0xbb74fffe	-0.0037384029
26	0xbd2cca4a	-0.042185105
27	0xbc94c57e	-0.018160578
28	0xbd0a92ec	-0.033831522
29	0xbc005721	-0.007833273
30	0xbd8dbb80	-0.069205284
31	0xbca5419e	-0.02017289
32	0xbd00ec06	-0.03147509
33	0xbdf8e4e9	-0.12153036
34	0xbd29c864	-0.041450873
35	0xbd1e5694	-0.038656786
36	0xbc96a430	-0.018388838
37	0xbcc565a2	-0.024096314
38	0xbd9f24bc	-0.077706784
39	0xbcce26a3	-0.025164908
40	0xbd81d7bc	-0.06339976
41	0xbd93abae	-0.0721048
42	0xbc39df1a	-0.011344695
43	0xbd6f72e1	-0.058459166
44	0xbcc67388	-0.024225011
45	0xbd6b2f27	-0.057418015
46	0xbd509954	-0.050927475
47	0xbd40b59e	-0.047048204
48	0xbcd442b7	-0.025910718
49	0xbd857db9	-0.0651812
50	0xbdd09b18	-0.10185832
51	0xbd0c0eed	-0.03419392
52	0xbc8bb83a	-0.01705562
53	0xbd405636	-0.046957217
54	0xbdd4f83f	-0.10398912
55	0xbd0c78ca	-0.03429488
56	0xbdec5aa4	-0.11540726
57	0xbd7f9733	-0.062400054
58	0xbda7f415	-0.08200852
59	0xbd80d72f	-0.06291043
60	0xbd35dd57	-0.04440054
61	0xbd9d98b8	-0.076951444
62	0xbd954101	-0.07287789
63	0xbd8ae3eb	-0.06781753
64	0xbd12dfd8	-0.035858005
65	0xbc24ad8f	-0.010051145
66	0xbd526f63	-0.051375758
67	0xbd623434	-0.055225566
68	0xbda1ad00	-0.07894325
69	0xbbc6f991	-0.006072231
70	0xbdf22609	-0.11823661
71	0xbd4861d0	-0.048921406
72	0xbdf4b45c	-0.11948463
73	0xbdb8e127	-0.090273194
74	0xbe075579	-0.13216199
75	0xbd5240fa	-0.051331498
76	0xbcd08d53	-0.025458014
77	0xbdca2e0d	-0.09872065
78	0x3ab6b44e	0.0013939233
79	0xbd8acdb3	-0.06777515
80	0xbde55700	-0.111982346
81	0xbd19988b	-0.037498992
82	0xbd1e9003	-0.03871156
83	0xbc8aebcd	-0.016958142

fc3.weight f4 [10, 84]
0	0xbdb81f73	-0.089903735
1	0x3d214553	0.039372753
2	0x3c5a3fed	0.013320905
3	0xbd49dfe0	-0.04928577
4	0x3cc63403	0.024194723
5	0x3dc5371c	0.09629652
6	0x3d15c15d	0.03656136
7	0xbdc2f458	-0.09519261
8	0x3b8f725d	0.004377647
9	0xbd7d92e3	-0.06190766
10	0xbd70bcb0	-0.058773696
11	0xbbeb1301	-0.0071738963
12	0xbda2fff2	-0.07958974
13	0x3c9a7c87	0.018858207
14	0xbce37eb7	-0.027770383
15	0x3c77cf63	0.015125128
16	0x3d052d56	0.03251394
17	0xbd8d7b3c	-0.06908271
18	0xbd2756f2	-0.040854402
19	0x3dc64c5d	0.09682534
20	0x3c206772	0.009790288
21	0xbdfbb468	-0.12290269
22	0xbe0b540a	-0.13606277
23	0x3cfad329	0.030618267
24	0xbe230a18	-0.15921819
25	0xbd73d735	-0.05953141
26	0xbdf10683	-0.1176882
27	0x3c9a74f3	0.018854594
28	0x3d9e28e9	0.07722647
29	0x3de9ef4a	0.11422594
30	0xbd35d919	-0.044396494
31	0xbd3b9876	-0.045799695
32	0x3910797f	0.00013778171
33	0xbd2d9369	-0.04237691
34	0xbd595eff	-0.05306911
35	0x3d36792c	0.044549152
36	0xbe0659ef	-0.13120244
37	0xbdf09463	-0.117470525
38	0xba1d09d9	-0.0005990542
39	0xbdfda73d	-0.12385414
40	0xbdd876d0	-0.10569537
41	0x3d8c9563	0.06864431
42	0xbcbe3a93	-0.02322129
43	0x3d81cc76	0.06337826
44	0xbd763317	-0.060107317
45	0xbdaad6ed	-0.08341775
46	0x3d2e7962	0.04259623
47	0xbd935e17	-0.071956806
48	0xbd871e9c	-0.06597635
49	0xbdca3200	-0.09872818
50	0x3d3ad8d1	0.04561693
51	0x3d20af96	0.03922995
52	0x3cbb3de7	0.022856666
53	0xbd7b0464	-0.061283484
54	0x3c964ee3	0.018348163
55	0xbccec3f9	-0.025239931
56	0x3da0232a	0.07819207
57	0x3dda5864	0.106613904
58	0x3d7bb66c	0.061453268
59	0xbc3d8543	-0.011567417
60	0xbd23f946	-0.040032648
61	0x3ba30bab	0.004975756
62	0x38c72cbd	9.4973926e-05
63	0xbc9472bf	-0.018121121
64	0xbd1a8845	-0.037727613
65	0xbc912cc0	-0.017721534
66	0xbc7a17d4	-0.01526447
67	0x3d439537	0.047749724
68	0xbe1fe9af	-0.15616487
69	0x3ace2cc4	0.0015729894
70	0x3c91114e	0.017708447
71	0xbd88b2a4	-0.06674698
72	0xbc94f6bb	-0.018184057
73	0xbe22dac7	-0.1590377
74	0xbe0b7a2d	-0.13620825
75	0xbd8feaee	-0.07027231
76	0x3d9e9a18	0.07744235
77	0x3c3d4e91	0.011554376
78	0xbdb3d2f5	-0.08780471
79	0x3d902077	0.07037442
80	0xbd866e66	-0.065640256
81	0xbd700835	-0.058601577
82	0xbd847943	-0.06468441
83	0xbb92da48	-0.0044815876
84	0xbe1928c0	-0.14956951
85	0x3be049be	0.0068447283
86	0xbd2c13c4	-0.042011037
87	0x3bdfb5a6	0.006827074
88	0xbe1b2114	-0.15149337
89	0xbd406c0f	-0.046978053
90	0xbd96550e	-0.07340442
91	0x3d98d4dc	0.07462475
92	0x3cf99823	0.030468052
93	0x3d8f42ef	0.069951884
94	0x3dc3fa63	0.09569242
95	0xbc8a2113	-0.016861474
96	0xbd6cc2eb	-0.057803076
97	0x3dcb55f1	0.099285014
98	0xbd77a443	-0.060459387
99	0xbe093c61	-0.13401939
100	0x3d2b410c	0.04181008
101	0x3dcc87da	0.09986849
102	0xbd02260f	-0.031774577
103	0xbd593759	-0.0530313
104	0xbdac9d44	-0.084284335
105	0x3ddb01a8	0.10693675
106	0xbda6a241	-0.08136416
107	0xbe094133	-0.13403778
108	0xbc225f11	-0.009910361
109	0x3db644d8	0.0889985
110	0xbc180675	-0.009278883
111	0x3ca5985d	0.020214254
112	0xbdea5af0	-0.11443126
113	0xbe4a7caa	-0.19774118
114	0x3c80eb2f	0.015737144
115	0xbdb20f92	-0.08694376
116	0xbd88ca25	-0.06679181
117	0xbd72f87a	-0.059318997
118	0xbdc861b4	-0.097842604
119	0x3cbe3e36	0.023223024
120	0xbd30e7eb	-0.043189924
121	0x3d115f29	0.035491142
122	0xbc0415f4	-0.008061875
123	0x3dd271ce	0.10275613
124	0xbd81e82b	-0.06343111
125	0xbd556343	-0.052096616
126	0xbdf974f0	-0.12180507
127	0x3bd5361a	0.0065066935
128	0xbdcd1877	-0.10014432
129	0xbd5b785a	-0.053581573
130	0x3c89882d	0.016788566
131	0x3d3c714b	0.046006482
132	0xbd5d3e17	-0.05401429
133	0xbc5caa9d	-0.013468412
134	0xbde7a062	-0.113098875
135	0xbe0f593f	-0.13998888
136	0x3c215e3f	0.00984913
137	0xbde9960d	-0.11405573
138	0xbdca8b7b	-0.09889885
139	0xbe0d9265	-0.13825376
140	0x3d8dd308	0.06925017
141	0xbc3cb876	-0.011518588
142	0xbdb87f0c	-0.09008607
143	0x3d13ceef	0.03608602
144	0x3c419c60	0.011817068
145	0x3d176d55	0.0369695
146	0x3cd16b47	0.02556385
147	0xbdebb04c	-0.11508235
148	0x3d042b40	0.03226781
149	0xbb40b491	-0.00294045
150	0xbdfbae3c	-0.12289092
151	0x3d023550	0.031789124
152	0x3ce4575a	0.027873684
153	0x3cba6481	0.022753002
154	0x3baacab3	0.005212152
155	0x3d2ebb54	0.04265912
156	0xbcf121da	-0.029435087
157	0xbda2e3c0	-0.07953596
158	0x3d3393b6	0.04384204
159	0xbd081c26	-0.03322997
160	0x3d191945	0.037377615
161	0x3d3e1f96	0.04641684
162	0x3b57714f	0.0032873934
163	0xbdd9c404	-0.1063309
164	0xbd2da2f0	-0.042391717
165	0x3ddf18ad	0.108933784
166	0xbd983e5b	-0.07433768
167	0x3d2bfd82	0.04198981
168	0x3d5162ab	0.051119488
169	0xbca26bd5	-0.019826809
170	0xbd2fabb8	-0.042888373
171	0xbd103d94	-0.035214975
172	0x3b5c83f7	0.0033647993
173	0xbc2d8de3	-0.01059291
174	0xbcb8e503	-0.022570139
175	0xbcd94a03	-0.02652455
176	0x3c5b14f2	0.013371693
177	0x3d324ea8	0.043532044
178	0x3d70ee80	0.0588212
179	0xbdb39867	-0.08769303
180	0xbd882592	-0.06647791
181	0xbd9b6d3d	-0.07589195
182	0x3d714661	0.05890501
183	0x3e05af98	0.13055265
184	0x3d0797e5	0.033103842
185	0xbdf61627	-0.12015944
186	0xbd87ca0a	-0.06630333
187	0xbd6a11d1	-0.057145897
188	0x3c2b6bd8	0.010462724
189	0xbd1f1bc0	-0.038844824
190	0xbdcb9de2	-0.09942223
191	0xbdc9ef76	-0.09860127
192	0x3d8ae5e8	0.067821324
193	0xbdf89e68	-0.121395886
194	0xbb83a9cb	-0.0040180436
195	0x3e0daefd	0.13836284
196	0x3cbacf20	0.022803843
197	0x3c97607a	0.01847862
198	0xbc3054b8	-0.010762386
199	0xbd911dac	-0.070857376
200	0x3d69f8c2	0.057122
201	0x3a4fdcaa	0.0007929305
202	0xbda7914c	-0.0818201
203	0x3c902390	0.017595083
204	0xbd9e46ac	-0.07728323
205	0xbc39aa48	-0.011332102
206	0x3d92efc8	0.07174641
207	0x3d9edd34	0.07757035
208	0xbdaae599	-0.083445735
209	0xbd16947e	-0.036762707
210	0x3d7d9533	0.061909866
211	0x3cea6e47	0.028617037
212	0xb9c2d729	-0.0003716287
213	0x3d49d4ae	0.049275093
214	0xbc2513a4	-0.0100754835
215	0xbdbe5cce	-0.09295045
216	0x3d282c48	0.041057855
217	0x3d5a93a0	0.053363442
218	0xbc98b2ca	-0.01863994
219	0xbcea7cfd	-0.028624052
220	0x3cf85b10	0.03031686
221	0x3d2e82b3	0.042605113
222	0x3b630dc6	0.003464566
223	0x3c726b2d	0.0147960605
224	0xbe452a50	-0.19254422
225	0x3d8e8a65	0.069599904
226	0x3d0c584f	0.034263905
227	0x3bc144a7	0.0058980766
228	0x3de4ee66	0.111782834
229	0xbe1d54ca	-0.15364376
230	0x3d19be41	0.037534956
231	0x3cfe34f3	0.031031108
232	0x3d5bfb27	0.053706314
233	0x3d9f8412	0.07788862
234	0xbd415f58	-0.047210068
235	0xbcefe8a1	-0.02928573
236	0xbe1f980c	-0.15585345
237	0x3beb1962	0.0071746567
238	0x3ca6a809	0.020343797
239	0x3cf92995	0.030415336
240	0xbe104d42	-0.14091972
241	0x399cb692	0.00029890664
242	0xbe243592	-0.1603606
243	0xbd1893ea	-0.037250437
244	0xbcf9e1c9	-0.03050317
245	0xbdb3af8d	-0.08773718
246	0x3c6fd16f	0.014637335
247	0xbddb1f35	-0.10699312
248	0xbe08a7fc	-0.13345331
249	0xbd50df2a	-0.050994076
250	0xbd6289ce	-0.055307202
251	0x3c2e0bfd	0.010622975
252	0xbbb02953	-0.00537602
253	0xbdf55c14	-0.11980453
254	0xbe158a18	-0.1460346
255	0xbd007127	-0.03135791

fc3.bias f4 [10]
0	0xbda5c5f0	-0.08094394
1	0xbb3f4750	-0.0029186793
2	0x3d7cc6ea	0.061713137
3	0xbc7622a6	-0.015022909
4	0xbd6bf0d7	-0.05760273
5	0x3de75e08	0.11297232
6	0x3c5cb2b2	0.013470339
7	0xbdc14429	-0.09436829
8	0xbe12be96	-0.14330515
9	0xbd8e679c	-0.06953356

exp_avg f4 [6, 1, 3, 3]
0	0x00000004	6e-45
1	0x00000004	6e-45
2	0x00000004	6e-45
3	0x00000004	6e-45
4	0x00000004	6e-45
5	0x00000004	6e-45
6	0x00000004	6e-45
7	0x00000004	6e-45
8	0x00000004	6e-45
9	0x80000004	-6e-45
10	0x80000004	-6e-45
11	0x80000004	-6e-45
12	0x80000004	-6e-45
13	0x80000004	-6e-45
14	0x80000004	-6e-45
15	0x80000004	-6e-45
16	0x80000004	-6e-45
17	0x80000004	-6e-45
18	0x80000004	-6e-45
19	0x80000004	-6e-45
20	0x80000004	-6e-45
21	0x80000004	-6e-45
22	0x80000004	-6e-45
23	0x80000004	-6e-45
24	0x00000004	6e-45
25	0x00000004	6e-45
26	0x80000004	-6e-45
27	0x00000004	6e-45
28	0x00000004	6e-45
29	0x00000004	6e-45
30	0x00000004	6e-45
31	0x00000004	6e-45
32	0x00000004	6e-45
33	0x00000004	6e-45
34	0x00000004	6e-45
35	0x00000004	6e-45
36	0x00000004	6e-45
37	0x00000004	6e-45
38	0x00000004	6e-45
39	0x00000004	6e-45
40	0x00000004	6e-45
41	0x00000004	6e-45
42	0x00000004	6e-45
43	0x00000004	6e-45
44	0x00000004	6e-45
45	0x80000004	-6e-45
46	0x80000004	-6e-45
47	0x80000004	-6e-45
48	0x80000004	-6e-45
49	0x80000004	-6e-45
50	0x80000004	-6e-45
51	0x80000004	-6e-45
52	0x80000004	-6e-45
53	0x80000004	-6e-45

exp_avg_sq f4 [6, 1, 3, 3]
0	0x2d1c0d90	8.870585e-12
1	0x2d297048	9.631469e-12
2	0x2d3e92b4	1.0832824e-11
3	0x2dd4a145	2.4173228e-11
4	0x2deffac2	2.7282513e-11
5	0x2dd98be9	2.4732176e-11
6	0x2e247722	3.7395094e-11
7	0x2e255b6c	3.7597855e-11
8	0x2df01a70	2.7296582e-11
9	0x2d49dac7	1.14741055e-11
10	0x2cc65117	5.6365012e-12
11	0x2d2688fd	9.466425e-12
12	0x2d365e66	1.0366463e-11
13	0x2c9fa137	4.5369502e-12
14	0x2d3ce2e7	1.0736945e-11
15	0x2d237364	9.291099e-12
16	0x2c739e71	3.462033e-12
17	0x2d192685	8.705596e-12
18	0x2b47c448	7.0971397e-13
19	0x29e91135	1.03502635e-13
20	0x2a85fa9d	2.3799444e-13
21	0x2a1cc087	1.392238e-13
22	0x28e32df5	2.5221993e-14
23	0x2950005e	4.6185596e-14
24	0x2a6cff57	2.10496e-13
25	0x2a256663	1.4690466e-13
26	0x295b22dd	4.8658008e-14
27	0x2cdcdaf2	6.277084e-12
28	0x2d3a464e	1.0588487e-11
29	0x2d7b8b2d	1.4298601e-11
30	0x2cd314ad	5.999276e-12
31	0x2d4bf47b	1.15935e-11
32	0x2d66f6c3	1.31287784e-11
33	0x2ce9814f	6.6366144e-12
34	0x2d1c4345	8.88251e-12
35	0x2d190119	8.697287e-12
36	0x2dce47af	2.3451322e-11
37	0x2daed6fa	1.9876979e-11
38	0x2db463c8	2.0507943e-11
39	0x2cba14ae	5.288734e-12
40	0x2cc30f4b	5.543931e-12
41	0x2d5d30d4	1.2573238e-11
42	0x2b5e2459	7.8920686e-13
43	0x2bc3a7a4	1.3902113e-12
44	0x2d85813e	1.5177744e-11
45	0x2e30252c	4.0050782e-11
46	0x2e6e1828	5.413639e-11
47	0x2e0e5271	3.2360285e-11
48	0x2e823a9d	5.9221274e-11
49	0x2e8afabe	6.320054e-11
50	0x2e0066f1	2.919526e-11
51	0x2e87eb7e	6.180921e-11
52	0x2e8042e4	5.832648e-11
53	0x2db09a75	2.0077476e-11

exp_avg f4 [6]
0	0x00000004	6e-45
1	0x80000004	-6e-45
2	0x80000004	-6e-45
3	0x00000004	6e-45
4	0x00000004	6e-45
5	0x80000004	-6e-45

exp_avg_sq f4 [6]
0	0x2ea56034	7.5204204e-11
1	0x2e452dc5	4.4833266e-11
2	0x2db6da50	2.0787955e-11
3	0x2e0f5ab1	3.2594986e-11
4	0x2f62fa94	2.0643603e-10
5	0x2e40f6ea	4.387505e-11

exp_avg f4 [16, 6, 3, 3]
0	0x00000004	6e-45
1	0x00000004	6e-45
2	0x00000004	6e-45
3	0x00000004	6e-45
4	0x00000004	6e-45
5	0x00000004	6e-45
6	0x80000004	-6e-45
7	0x00000004	6e-45
8	0x00000004	6e-45
9	0x00000004	6e-45
10	0x00000004	6e-45
11	0x00000004	6e-45
12	0x00000004	6e-45
13	0x00000004	6e-45
14	0x00000004	6e-45
15	0x00000004	6e-45
16	0x00000004	6e-45
17	0x00000004	6e-45
18	0x00000004	6e-45
19	0x00000004	6e-45
20	0x00000004	6e-45
21	0x00000004	6e-45
22	0x00000004	6e-45
23	0x00000004	6e-45
24	0x00000004	6e-45
25	0x00000004	6e-45
26	0x00000004	6e-45
27	0x00000004	6e-45
28	0x80000004	-6e-45
29	0x00000004	6e-45
30	0x00000004	6e-45
31	0x00000004	6e-45
32	0x00000004	6e-45
33	0x00000004	6e-45
34	0x00000004	6e-45
35	0x00000004	6e-45
36	0x00000004	6e-45
37	0x00000004	6e-45
38	0x00000004	6e-45
39	0x00000004	6e-45
40	0x00000004	6e-45
41	0x00000004	6e-45
42	0x00000004	6e-45
43	0x00000004	6e-45
44	0x00000004	6e-45
45	0x00000004	6e-45
46	0x00000004	6e-45
47	0x00000004	6e-45
48	0x00000004	6e-45
49	0x00000004	6e-45
50	0x00000004	6e-45
51	0x00000004	6e-45
52	0x00000004	6e-45
53	0x00000004	6e-45
54	0x00000004	6e-45
55	0x80000004	-6e-45
56	0x00000004	6e-45
57	0x00000004	6e-45
58	0x00000004	6e-45
59	0x00000004	6e-45
60	0x00000004	6e-45
61	0x00000004	6e-45
62	0x00000004	6e-45
63	0x00000004	6e-45
64	0x00000004	6e-45
65	0x00000004	6e-45
66	0x00000004	6e-45
67	0x00000004	6e-45
68	0x00000004	6e-45
69	0x00000004	6e-45
70	0x00000004	6e-45
71	0x00000004	6e-45
72	0x00000004	6e-45
73	0x00000004	6e-45
74	0x00000004	6e-45
75	0x00000004	6e-45
76	0x00000004	6e-45
77	0x00000004	6e-45
78	0x00000004	6e-45
79	0x00000004	6e-45
80	0x00000004	6e-45
81	0x00000004	6e-45
82	0x00000004	6e-45
83	0x00000004	6e-45
84	0x00000004	6e-45
85	0x00000004	6e-45
86	0x00000004	6e-45
87	0x00000004	6e-45
88	0x00000004	6e-45
89	0x00000004	6e-45
90	0x00000004	6e-45
91	0x00000004	6e-45
92	0x00000004	6e-45
93	0x00000004	6e-45
94	0x00000004	6e-45
95	0x00000004	6e-45
96	0x00000004	6e-45
97	0x00000004	6e-45
98	0x00000004	6e-45
99	0x00000004	6e-45
100	0x00000004	6e-45
101	0x00000004	6e-45
102	0x00000004	6e-45
103	0x00000004	6e-45
104	0x00000004	6e-45
105	0x00000004	6e-45
106	0x00000004	6e-45
107	0x00000004	6e-45
108	0x00000004	6e-45
109	0x80000004	-6e-45
110	0x00000004	6e-45
111	0x80000004	-6e-45
112	0x00000004	6e-45
113	0x00000004	6e-45
114	0x00000004	6e-45
115	0x00000004	6e-45
116	0x00000004	6e-45
117	0x00000004	6e-45
118	0x00000004	6e-45
119	0x00000004	6e-45
120	0x00000004	6e-45
121	0x00000004	6e-45
122	0x00000004	6e-45
123	0x00000004	6e-45
124	0x00000004	6e-45
125	0x00000004	6e-45
126	0x00000004	6e-45
127	0x00000004	6e-45
128	0x00000004	6e-45
129	0x00000004	6e-45
130	0x00000004	6e-45
131	0x00000004	6e-45
132	0x00000004	6e-45
133	0x00000004	6e-45
134	0x00000004	6e-45
135	0x00000004	6e-45
136	0x00000004	6e-45
137	0x00000004	6e-45
138	0x00000004	6e-45
139	0x00000004	6e-45
140	0x00000004	6e-45
141	0x00000004	6e-45
142	0x00000004	6e-45
143	0x00000004	6e-45
144	0x00000004	6e-45
145	0x00000004	6e-45
146	0x00000004	6e-45
147	0x00000004	6e-45
148	0x00000004	6e-45
149	0x00000004	6e-45
150	0x00000004	6e-45
151	0x00000004	6e-45
152	0x00000004	6e-45
153	0x00000004	6e-45
154	0x00000004	6e-45
155	0x00000004	6e-45
156	0x00000004	6e-45
157	0x00000004	6e-45
158	0x00000004	6e-45
159	0x00000004	6e-45
160	0x00000004	6e-45
161	0x00000004	6e-45
162	0x00000004	6e-45
163	0x00000004	6e-45
164	0x00000004	6e-45
165	0x00000004	6e-45
166	0x00000004	6e-45
167	0x80000004	-6e-45
168	0x80000004	-6e-45
169	0x00000004	6e-45
170	0x00000004	6e-45
171	0x00000004	6e-45
172	0x00000004	6e-45
173	0x00000004	6e-45
174	0x00000004	6e-45
175	0x00000004	6e-45
176	0x00000004	6e-45
177	0x00000004	6e-45
178	0x00000004	6e-45
179	0x00000004	6e-45
180	0x00000004	6e-45
181	0x00000004	6e-45
182	0x00000004	6e-45
183	0x00000004	6e-45
184	0x00000004	6e-45
185	0x00000004	6e-45
186	0x00000004	6e-45
187	0x00000004	6e-45
188	0x00000004	6e-45
189	0x00000004	6e-45
190	0x00000004	6e-45
191	0x00000004	6e-45
192	0x00000004	6e-45
193	0x00000004	6e-45
194	0x00000004	6e-45
195	0x00000004	6e-45
196	0x00000004	6e-45
197	0x00000004	6e-45
198	0x00000004	6e-45
199	0x00000004	6e-45
200	0x00000004	6e-45
201	0x00000004	6e-45
202	0x00000004	6e-45
203	0x00000004	6e-45
204	0x00000004	6e-45
205	0x00000004	6e-45
206	0x00000004	6e-45
207	0x00000004	6e-45
208	0x00000004	6e-45
209	0x00000004	6e-45
210	0x00000004	6e-45
211	0x00000004	6e-45
212	0x00000004	6e-45
213	0x00000004	6e-45
214	0x00000004	6e-45
215	0x00000004	6e-45
216	0x00000004	6e-45
217	0x00000004	6e-45
218	0x00000004	6e-45
219	0x00000004	6e-45
220	0x00000004	6e-45
221	0x00000004	6e-45
222	0x00000004	6e-45
223	0x00000004	6e-45
224	0x00000004	6e-45
225	0x00000004	6e-45
226	0x00000004	6e-45
227	0x00000004	6e-45
228	0x00000004	6e-45
229	0x00000004	6e-45
230	0x00000004	6e-45
231	0x00000004	6e-45
232	0x00000004	6e-45
233	0x00000004	6e-45
234	0x00000004	6e-45
235	0x00000004	6e-45
236	0x00000004	6e-45
237	0x00000004	6e-45
238	0x00000004	6e-45
239	0x00000004	6e-45
240	0x00000004	6e-45
241	0x00000004	6e-45
242	0x00000004	6e-45
243	0x80000004	-6e-45
244	0x00000004	6e-45
245	0x00000004	6e-45
246	0x80000004	-6e-45
247	0x00000004	6e-45
248	0x00000004	6e-45
249	0x00000004	6e-45
250	0x00000004	6e-45
251	0x00000004	6e-45
252	0x00000004	6e-45
253	0x00000004	6e-45
254	0x00000004	6e-45
255	0x00000004	6e-45
