checkpoint/model_epoch40_200826_스코어0.73.pth (torch, 730109 bytes, 30 tensors)

conv1.weight f4 [6, 1, 3, 3]
000000 f1 45 92 bd af d0 d5 3e a6 b1 24 bd 51 f9 2f bc
       -0.071422465 0.41760775 -0.04020848 -0.010740594
000010 55 f3 d9 3e 6b 26 e1 3e 72 ed 4e be c1 af 72 3e
       0.4256846 0.43974623 -0.20207766 0.23699857
000020 b0 82 4e be 1a 85 aa be d3 11 61 be 86 4c c2 3d
       -0.20167041 -0.33304673 -0.21979456 0.09487252
000030 bb 2e f7 bd b0 ee da bd 9e f0 3e be 40 be fd 3d
       -0.1206946 -0.10690057 -0.18646476 0.12389803
000040 2c bf a0 be 8b e4 16 3d a1 8e 14 be 6b ea b4 be
       -0.31395853 0.03683905 -0.14507534 -0.35335097
000050 23 58 86 3d 37 48 90 3e 69 87 bf 3e 87 8d b3 3e
       0.065597795 0.28180096 0.37407997 0.35068914
000060 47 5f 51 3e 37 ba 74 3e af 88 90 3e e0 5d bc be
       0.20446502 0.2389916 0.2822928 -0.3679037
000070 f9 d5 ca 3e 39 a4 0e 3e 78 10 38 be af 82 dd 3e
       0.39616373 0.13929833 -0.17975032 0.43263766
000080 9e a0 f6 3e c4 c2 8b bd eb 0e 8a 3e 53 ee 87 3d
       0.48169416 -0.06824258 0.26964507 0.066372536
000090 f3 ab 3e 3e 0c ba d1 3e 22 56 ab 3e e2 2f 8b be
       0.18620281 0.40962255 0.33464152 -0.2718497
0000a0 85 7d 60 bd 7b 49 8c 3d 43 8a 80 3d d1 fd 99 be
       -0.054807205 0.06849953 0.06276371 -0.3007646
0000b0 15 3a 9b 3e ba f6 ec 3e 7f 08 1d 3e 4c 7b ab be
       0.3031775 0.46281987 0.15335272 -0.33492506
0000c0 06 37 dc bf ca df a3 be 5f cc 66 3e 06 64 db bf
       -1.7204292 -0.32006675 0.22538899 -1.71399
0000d0 b6 dc 39 3f 9d 39 0c be
       0.72602403 -0.13693853

conv1.bias f4 [6]
000000 e0 75 f7 be 84 99 9e be 88 4d 0c bf 48 f4 11 bc
       -0.4833212 -0.30976498 -0.54805803 -0.008908339
000010 31 4f 79 be 59 ab fd 3d
       -0.24346615 0.123861976

conv2.weight f4 [16, 6, 3, 3]
000000 28 71 cb bc ac 9a 3d bc 24 a0 80 bd a0 cd 6f 3d
       -0.02483423 -0.011572521 -0.062805444 0.05854571
000010 27 eb 89 3e a0 f7 69 3d 9a 97 ac 3e d2 dc 16 3f
       0.2693722 0.05712092 0.33709413 0.58930695
000020 81 23 a4 3d c0 fb ee 3c c0 bd e7 bd f0 62 ae bd
       0.08014584 0.029172778 -0.11315489 -0.085149646
000030 d6 bc ac bd d1 1f f1 bd 15 08 21 bd 80 68 93 3c
       -0.08434455 -0.117736466 -0.03931435 0.017994165
000040 1a 4a d0 3d bc e8 03 3d 44 52 d4 bd 5e 97 fe 3d
       0.10170384 0.032204375 -0.103672534 0.12431215
000050 58 b3 c9 3d 5d 57 59 3d 14 1b c3 3d 2e 39 4d be
       0.0984866 0.05306183 0.09526649 -0.20041344
000060 c0 54 6c bd c3 dd 3a 3e 1c 26 f0 3c a4 bb 9e bd
       -0.05769801 0.18248658 0.029315047 -0.07750633
000070 01 03 d8 bd 90 b7 c3 3d 7e 0f 70 3d 10 97 e5 bd
       -0.10547448 0.09556496 0.058608525 -0.112104535
000080 12 05 03 be 34 cf 07 3e 91 54 48 3e 15 0d c5 bc
       -0.12794903 0.13262635 0.1956351 -0.02405409
000090 78 09 76 3e d2 96 78 3e 4c fe e7 bd 10 59 6d bc
       0.2402705 0.24276283 -0.113278 -0.014486566
0000a0 14 65 c4 3d 71 3f 62 3e 97 51 40 3e 4f 48 94 3e
       0.095895916 0.22094513 0.18781124 0.28961417
0000b0 fa f2 25 bd 03 fc b7 bd 07 e0 52 3c 95 95 90 3d
       -0.040514924 -0.08983614 0.012870795 0.070597805
0000c0 51 48 48 be d0 5a e0 3e ef 51 0d 3f 75 6f 33 be
       -0.19558837 0.43819284 0.55203146 -0.17522986
0000d0 ef cd 75 3e a4 1b 35 3f 35 f8 ec be a5 e5 05 bf
       0.24004339 0.707453 -0.46283117 -0.52303535
0000e0 f6 58 e2 be d6 72 09 bf ee 0a 8a bf 3a 1f 87 be
       -0.44208497 -0.5369085 -1.0784585 -0.2639101
0000f0 67 7a 34 bf e3 9b 18 bf b6 27 04 3e e3 54 19 bd
       -0.7049927 -0.59612864 0.12905774 -0.03743447
000100 cc 7d 93 3d b8 7c 89 3c 2f df db bd 16 fe ce 3d
       0.07201728 0.016783103 -0.10735928 0.10107057
000110 ee 33 0a 3e 59 7b 3d bd 8a e4 fb 3d b3 17 e6 bd
       0.13496372 -0.04626021 0.1229945 -0.11234989
000120 cb 3f df be 98 d2 df be 30 51 6f be 6f fd a9 bd
       -0.43603358 -0.43715358 -0.23370814 -0.08300292
000130 ea e6 0d be ed 27 f5 3d 85 50 b0 be c8 a0 7f be
       -0.13857618 0.11970506 -0.34436432 -0.24963677
000140 a4 16 14 3e 91 05 5b 3e c4 0a 4e 3e f4 d1 5d 3e
       0.14461762 0.21388842 0.20121294 0.21662122
000150 3e 25 03 3f 6c fb 93 3e ae 47 af 3c a7 63 a8 3e
       0.512287 0.28902757 0.021396484 0.3288853
000160 98 bd 0e 3c e8 a1 57 3d a9 a5 af bd ec e5 b2 be
       0.008712195 0.05264464 -0.08576519 -0.3494104
000170 ec 90 2e bd 95 87 40 be b7 11 25 bf 26 0f 42 bd
       -0.042618677 -0.1880172 -0.64480156 -0.047377728
000180 6d 9e d5 bd a2 7e 79 be 0a b9 1b 3e 66 de da 3d
       -0.10430608 -0.24364713 0.15207306 0.106869504
000190 fc 2a 93 be 16 27 93 be 26 e7 0c be c5 1c 2f bf
       -0.28743732 -0.28740758 -0.13760051 -0.68403274
0001a0 d7 ce 6d be 82 8b 04 be fa 06 ec bd 83 0d a0 bd
       -0.23223434 -0.12943843 -0.11524768 -0.07815077
0001b0 e2 76 6a 3e 22 49 c1 3e e6 dd 60 3e 52 44 e4 bd
       0.22896913 0.37751108 0.21959648 -0.111458436
0001c0 a7 c2 00 be 76 d0 de be 51 23 97 3e 28 df 85 3e
       -0.12574254 -0.43518418 0.29519132 0.26146817
0001d0 47 63 41 3e 03 1f b3 3d f5 ee d4 3d c4 e2 f0 bd
       0.18885528 0.087461494 0.1039714 -0.11762002
0001e0 f8 e7 7a bd f0 b7 7e 3c 0d 99 58 bd fd ce fd bd
       -0.06125638 0.015546784 -0.052880336 -0.123929955
0001f0 15 7c c2 bd a6 ae 6c 3c 02 4d 52 3d 57 98 bb bc
       -0.09496323 0.014445936 0.05134297 -0.02289979
000200 cd 4b 7b bd 5a 9e 08 be cc e5 c2 3d fb 3e 89 bd
       -0.061351586 -0.13341656 0.095164865 -0.06701466
000210 0a a6 03 3e 4b a5 12 3e 9e 43 29 3e fa a1 52 be
       0.12856308 0.14320867 0.165297 -0.20569602
000220 bc 9e 36 be 04 fe 35 be 86 b0 35 be 1a dd 4e be
       -0.1783399 -0.1777268 -0.1774312 -0.20201531
000230 2e 39 94 be e7 82 b4 bd e4 16 51 be e7 bb b1 bd
       -0.28949875 -0.0881403 -0.20418888 -0.08678418
000240 0a ff 2d 3e b4 da 9e 3e 57 69 0e 3d fd a1 90 3e
       0.16991821 0.31026232 0.03476843 0.28248587
000250 14 35 a0 3e 75 3c 0e be f1 fb 11 be db 8a 40 3e
       0.31290495 -0.1389025 -0.14256264 0.18802969
000260 68 65 d5 3d 9f 40 6d bc 5a b3 ab 3d 0e a2 b6 3e
       0.10419732 -0.014480739 0.08383818 0.35670513
000270 b9 e0 fc 3b 3b 0a 9c 3f fa af e5 3e d9 b4 64 3f
       0.0077172187 1.2190622 0.44860822 0.8933845
000280 6f 98 19 3f f1 99 66 3f 8c 7e 1b 3d 76 87 aa 3e
       0.5999822 0.90078646 0.03796248 0.33306473
000290 e9 06 e6 3d 3a 69 bb 3d 37 e2 67 3e b6 e1 56 be
       0.11231787 0.0915093 0.22644888 -0.2098454
0002a0 3f 8c 99 3e f3 1c 81 3d fd 92 40 3e f8 b6 10 bc
       0.29989812 0.0630435 0.18806072 -0.008832686
0002b0 c7 6f 01 3e e3 d2 6a 3d 43 09 ad bd f8 13 9f 3d
       0.12640296 0.057330023 -0.08449032 0.077674806
0002c0 f3 7e b9 bd 0b 3a e9 3c cd 08 37 bd 69 68 ce bd
       -0.09057417 0.02847006 -0.044686127 -0.100785084
0002d0 02 c6 cc bc c6 31 1c 3c df b7 05 be 2c f2 a0 3d
       -0.024996761 0.009533351 -0.13058423 0.078586906
0002e0 c4 56 e5 bd ca b7 9f 3c 95 91 3f 3e 8a 92 d5 3a
       -0.1119819 0.019496817 0.18707879 0.0016294282
0002f0 fd 6c 99 3e 05 29 2e be 56 52 96 3d ee 1d 05 3c
       0.29965964 -0.17007835 0.07339923 0.008124812
000300 f8 0c 7b bd 1e 5c 4e 3c 4e 06 2f be e6 4f 5b 3d
       -0.061291665 0.012595205 -0.17092249 0.053542994
000310 d3 02 8d bd 8b ce a8 bd 63 d3 28 3e 07 fc 23 3d
       -0.06885304 -0.0824252 0.16486888 0.040035274
000320 0d 54 c8 3d 28 c0 de 3c f1 2f 37 3e b8 66 db 3c
       0.097816564 0.027191237 0.17889382 0.026782379
000330 c2 dc aa 3d c7 33 84 3e 5c ad c5 3e 50 d4 5d be
       0.083428875 0.25820753 0.38608825 -0.21663022
000340 e9 13 88 3e a6 11 98 3d 52 14 38 3e ef fb 6f 3f
       0.2657769 0.07425241 0.17976502 0.93743795
000350 ca 66 d3 3e 46 b7 0f 3d da 8d 24 3f cf b2 36 3f
       0.4128936 0.035086893 0.6427895 0.7136659
000360 66 50 cb be 6d 12 2d 3e b5 b8 44 3e 20 44 bc bd
       -0.39709777 0.1690156 0.19211085 -0.09192681
000370 27 d0 26 3f b6 e2 61 3e b6 3c 8e 3e 7d 39 f5 3e
       0.65161365 0.2205914 0.27780694 0.47895423
000380 6b 64 63 3d c0 77 a5 3d 28 32 05 3d 4d b7 08 be
       0.055515688 0.08079481 0.032518536 -0.13351174
000390 f1 ed 83 3d 7a 5e bf bb 80 be e4 bd a1 e8 dd 3d
       0.06441868 -0.00584012 -0.111691475 0.10835386
0003a0 3f 93 07 be 9c f7 9c ba 4e 9a d9 bd 92 d5 8d 3e
       -0.13239764 -0.0011975649 -0.106251344 0.27702004
0003b0 1e f8 f1 3d 3f 96 a1 3c b2 ff a2 3e ee fa ed 3c
       0.11814903 0.019724963 0.31835705 0.029050317
0003c0 f5 fe b3 3e 9c 64 55 3d 7c 04 59 be ba b1 4c be
       0.35155454 0.0520979 -0.21193117 -0.19989672
0003d0 eb 0c 9f bd ee fb 19 be 67 e8 0a 3d 9a 74 28 3e
       -0.07766136 -0.1503751 0.033913042 0.1645073
0003e0 ba 6f ed bd 60 2c 09 3e 9c dc 1c 3e 97 1e c2 bd
       -0.11593576 0.13395834 0.15318531 -0.09478491
0003f0 57 d1 33 3d b0 44 19 be e3 c2 2b 3e f7 8c 09 bd
       0.043900814 -0.14967608 0.16773562 -0.0335817

conv2.bias f4 [16]
000000 de 59 95 be 40 c3 42 3e 37 6a 21 bd c2 2d a4 be
       -0.29170126 0.19019794 -0.039407935 -0.3206616
000010 4d 21 81 be cf c7 ed bd 63 cd 9a be 97 cb 05 be
       -0.2522072 -0.11610376 -0.30234823 -0.13065945
000020 ce 8a b4 be c6 20 24 be 7f 7c a1 be 7c 51 7e be
       -0.3526215 -0.16028127 -0.31540295 -0.24835771
000030 ac 68 08 3d 95 9e 66 be 7c 20 af bc 37 8e 4a be
       0.033302948 -0.22521432 -0.021377794 -0.19780813

fc1.weight f4 [120, 400]
000000 0b 58 41 3d 12 6f 61 bd fb d6 03 3e c1 01 12 bd
       0.047203105 -0.055037566 0.12874977 -0.035646204
000010 3c 59 81 3d d0 0b 49 bd 92 eb 96 be f8 2c 9b 3c
       0.06315848 -0.04908353 -0.294766 0.018942341
000020 83 3e be bd 0d 97 45 bd a9 a8 ad 3c c9 34 83 bd
       -0.09289267 -0.048239756 0.021198587 -0.06406552
000030 f0 d5 4b bd 31 f7 ef bd 37 04 1c be 2d fb 3b 3e
       -0.049764574 -0.1171707 -0.15235983 0.18357535
000040 3b 42 22 bd 31 9b 9f bd 64 40 fa 3d d2 7b 7b 3d
       -0.039613944 -0.07793272 0.12219313 0.06139738
000050 4a a0 18 bc ed 4d 86 bd db 69 09 be 3d ea 61 bc
       -0.00931556 -0.06557832 -0.13419287 -0.013788757
000060 88 d6 25 3e 98 cb 8e bc ee 37 e8 3d 96 74 c3 3e
       0.16195118 -0.017431065 0.11338793 0.38174886
000070 d0 94 04 3f 5a 91 01 3f d5 58 8e 3e f5 4f 8f 3e
       0.5178957 0.50612414 0.27802148 0.2799069
000080 9f 5b a4 3e 22 a1 58 3e bb e3 9b 3e 17 8f b6 3e
       0.3210115 0.21155217 0.30447182 0.35656044
000090 ba 1d 82 3e 03 57 da 3d a7 22 1e 3e b8 dc d0 3e
       0.25413305 0.106611274 0.15442906 0.40793395
0000a0 88 17 b3 3d 12 f5 b0 3d 48 70 ed 3d af 45 84 3d
       0.087447226 0.086404935 0.115936816 0.064586036
0000b0 16 49 a6 3e ef b4 c4 3c 5f 9e 88 3d c6 1b e6 3d
       0.32477635 0.024012057 0.06670832 0.11235766
0000c0 34 b0 6e bc 58 b2 b2 3d a3 31 2f 3e ca 7b 10 3e
       -0.014568377 0.087254226 0.17108779 0.14109722
0000d0 04 10 65 be 55 94 ce 3d 96 11 c6 bd 5e 2c 2d 3e
       -0.2236939 0.10086886 -0.09671323 0.16911456
0000e0 6d 71 c3 be 72 7f 33 be 63 76 1f 3e d7 0c 74 be
       -0.38172475 -0.17529085 0.15572505 -0.23833023
0000f0 4e 82 2a be 1d d2 56 be e2 f4 7e 3d b6 05 1d bd
       -0.1665127 -0.2097859 0.062245257 -0.038335524
000100 90 36 b2 bd 19 bc 4c bd 73 12 95 3d 6f 1b c2 3d
       -0.08701813 -0.04998407 0.072789095 0.09477889
000110 33 b6 e3 bd cb ac 81 be af 9b ef 3d 28 7f f7 3d
       -0.11118736 -0.25327143 0.11699616 0.120848
000120 c5 7e 61 3e bd 92 39 3e 4a d8 bc 3c a4 2f eb 3d
       0.22021015 0.18122382 0.023052353 0.11483696
000130 f4 01 6c bd e3 84 04 be 42 48 be 3b f4 bb 4f be
       -0.05761905 -0.12941317 0.0058069536 -0.20286542
000140 40 b3 56 3e 2c ea 99 be b2 02 5a bd 41 6c 9a 3d
       0.20966816 -0.3006147 -0.053225227 0.07540179
000150 cd e4 71 bd c1 51 02 be 24 31 98 be 86 08 23 3d
       -0.059056092 -0.12726499 -0.2972499 0.03980305
000160 2d a8 c0 bc 92 e8 f0 bd bd fe 98 3d 36 7f ff bd
       -0.023517692 -0.11763109 0.074704625 -0.124754354
000170 00 57 34 be 03 66 e2 bd 5a ea 63 be 6e 64 9a 3e
       -0.17611313 -0.110546134 -0.22257367 0.30154747
000180 32 4b 39 3c a5 52 0e be b3 ff 12 3e fa 77 1f 3e
       0.011309432 -0.13898714 0.14355354 0.15573111
000190 e6 1f e8 3c b8 3d 92 bd 86 8d eb 3d f5 97 8d 3d
       0.028335523 -0.07140678 0.11501603 0.06913749
0001a0 14 bd 92 3c ea 25 7a bc 29 e3 34 be 68 f9 dc bc
       0.017912425 -0.0152678285 -0.1766478 -0.026974395
0001b0 0d 4f a3 bd dc fb 45 3d 3e 53 2f 3e 2a cb 9f 3d
       -0.07974062 0.048335895 0.17121598 0.07802422
0001c0 14 21 79 be 4c 9b 3d be 6f 3d 7d bd 38 94 44 3e
       -0.24329025 -0.18516272 -0.061826166 0.19197166
0001d0 96 fd e8 bd c7 6e db 3a 48 5d c4 3d 2d 6e d2 3c
       -0.11376493 0.0016741388 0.095881045 0.025687302
0001e0 94 db 81 bd 86 69 04 be a0 e8 df bd a6 12 be bc
       -0.06340709 -0.12930879 -0.109330416 -0.023202252
0001f0 64 4b 3f 3e f0 f8 84 bd ba ab 8f 3e ac 3b e3 bd
       0.18681103 -0.064927936 0.28060704 -0.11095366
000200 04 6f e4 be 6f 97 ee be b2 c8 44 be f2 eb 13 be
       -0.44615948 -0.4659991 -0.19217184 -0.14445475
000210 65 82 5f bd 66 4d 73 3e c9 44 c7 3e 9e 84 f9 3c
       -0.054567713 0.23759994 0.38919666 0.030458745
000220 c0 c7 10 3e 73 bc 7d be 63 ac 09 bd 52 fa 81 3e
       0.14138699 -0.24778919 -0.033611666 0.25386292
000230 f6 75 5e 3e 8e 33 3f 3d 7a a5 5f 3d fc 2a 97 3d
       0.21724686 0.046680026 0.05460117 0.073812455
000240 4d 8c 8a be 03 12 24 3d 2c 2f ae 3d ca f1 89 bd
       -0.27060166 0.04005624 0.08505091 -0.06735571
000250 88 d6 90 3d d4 e1 17 3e db 66 45 be 84 da 35 3d
       0.070721686 0.1483224 -0.19277517 0.044397846
000260 5f 01 1d 3d 14 27 8a bd 12 86 54 be 23 2a 46 3d
       0.038331386 -0.06745735 -0.20754269 0.04838003
000270 47 75 e3 be cf ef a5 bd 59 7d d4 bd 88 5f d5 3d
       -0.44425413 -0.081023805 -0.10375471 0.10418612
000280 00 22 c0 3d 85 a8 eb bc c4 63 f5 bd 50 e6 a6 be
       0.09381485 -0.02876688 -0.119819194 -0.3259759
000290 bd 36 3f bd 9e 4e 46 3e 26 a4 2e bd 2a 57 43 bd
       -0.046683062 0.19365928 -0.042637013 -0.047690548
0002a0 8b 05 cf 3d 1a f2 22 bd 31 94 58 3d 2a e8 22 be
       0.10108479 -0.039781667 0.0528757 -0.15908876
0002b0 a7 2b 41 be 65 e1 71 bb f4 31 2b 3e 1a a0 67 bd
       -0.18864308 -0.0036908027 0.16718274 -0.05654917
0002c0 5e 2e e9 ba 57 22 e2 bd c5 e6 e3 bd 83 34 4b be
       -0.0017790308 -0.11041706 -0.11128 -0.1984425
0002d0 bd 6c f9 3c 6c 8b aa be fc 09 be 3c 56 1a ae 3c
       0.030447358 -0.33309495 0.02319812 0.021252792
0002e0 22 5f 56 be 2a 11 b3 3d fb 16 08 3d c6 23 9b 3d
       -0.20934728 0.08743508 0.03322504 0.075751826
0002f0 d8 c5 ab bd 40 2a 97 bd 39 03 c3 bc f7 bf b7 bd
       -0.08387345 -0.073811054 -0.023805248 -0.08972161
000300 9d 32 38 bc 2f 3c 78 3d 63 7a 0e bc 57 6d fe 3d
       -0.011242536 0.06060427 -0.008696171 0.12423199
000310 97 4e 1f be 11 44 82 bd d8 7a 26 3e bb 80 6c 3d
       -0.15557323 -0.06360639 0.16257799 0.057739954
000320 20 35 35 be cf 70 21 3e 21 93 6d bd d6 76 1a b9
       -0.17696047 0.1576569 -0.05800164 -0.00014730854
000330 32 c9 b6 bd c4 51 50 3c 1d 84 8e be 56 f7 4f be
       -0.08925094 0.012714807 -0.2783517 -0.20309195
000340 88 98 66 3d 8e a0 7f 3e 83 e5 23 3e 47 9c a4 bd
       0.05629781 0.2496359 0.1600552 -0.0803762
000350 67 d9 df bd 42 73 96 bd d1 00 a0 3d 93 b0 07 3e
       -0.10930138 -0.073462024 0.07812656 0.13250951
000360 22 06 18 3d 39 d6 37 3e 4b 37 f1 3d d1 1c bf 3e
       0.037115224 0.17952813 0.117781244 0.37326673
000370 bc a3 03 be 3b 61 87 be df 04 ca bd eb 34 7e 3d
       -0.12855428 -0.26441368 -0.0986421 0.062062185
000380 c2 d2 d1 3e 53 b2 5b 3d 21 a0 49 bd b0 49 06 bd
       0.40981108 0.05363686 -0.049224976 -0.032785118
000390 62 44 ee bd 8e 87 f6 3d e3 a6 78 3d 2d c8 a1 be
       -0.11634137 0.12037574 0.06070603 -0.31598035
0003a0 57 e8 67 be 3f 94 87 be 1f f1 dd bd ad 0b 7e be
       -0.22647224 -0.2648029 -0.10837006 -0.24809141
0003b0 83 52 d0 bd 2b bc 20 3d 61 a0 a7 bd ea bb 83 be
       -0.10171988 0.03924195 -0.08184887 -0.25729305
0003c0 b2 d4 d6 3d 15 2d 9c 3d 88 c8 81 3c db 56 69 3d
       0.10489787 0.07625786 0.015842691 0.056967597
0003d0 c9 db 06 3c 17 14 dc 3d 47 14 e4 3c 16 59 29 be
       0.008231112 0.10746019 0.0278417 -0.1653789
0003e0 c8 b0 ac bd 1a b3 00 3d ea d7 19 3e 1a 0a 22 bd
       -0.08432156 0.031420805 0.15023771 -0.039560415
0003f0 13 c8 0c 3d 6c 03 d5 3d 5e 56 8b bd dd 05 79 3e
       0.034370493 0.10401043 -0.068035826 0.24318643

fc1.bias f4 [120]
000000 aa 21 a7 3d 66 ec f2 bc 8c 60 24 3c 29 56 d0 3d
       0.08160718 -0.02965374 0.010032784 0.10172684
000010 c2 6b 5d bd 4c da 80 bb 0f bb a2 3d 7f 6e 48 bd
       -0.054057844 -0.003932273 0.07945835 -0.048933502
000020 a9 76 bb bc bd 5c f0 3c ef 2f 50 bc 6a 7b 2b bd
       -0.02288373 0.029341096 -0.012706741 -0.041865744
000030 df 24 52 3c cf 29 59 bd 20 0a 19 3c 76 58 04 bd
       0.012826174 -0.053018387 0.009340793 -0.032310925
000040 32 f8 e8 3b ba 91 8c 3d 22 6a 3d 3d 26 f0 b8 3d
       0.0071096653 0.06863733 0.046243794 0.0903018
000050 c8 1d d7 3d 93 8b 58 bc 45 e0 e9 3c 5a ff 28 3d
       0.10503727 -0.013216871 0.028549323 0.041259147
000060 0c 81 90 3c 3c 17 35 bd 90 d7 02 bd f4 64 8a bd
       0.01763966 -0.04421161 -0.031943858 -0.067575365
000070 ca 86 a2 bb 0f 6f 7a 3c 8f 26 0f bd 13 1e 89 bc
       -0.0049599158 0.0152852675 -0.03494888 -0.016737973
000080 7d e6 e0 bb 49 12 97 bc 02 0e 60 bd 40 d1 a2 bc
       -0.006863414 -0.018441336 -0.05470086 -0.019875169
000090 45 a6 04 3d cb 04 42 bb 26 bb 6e 3d 93 a5 03 bd
       0.03238513 -0.0029604908 0.058283947 -0.032140326
0000a0 99 01 8a 3d ea 6b b2 3d 73 87 92 3d b1 a3 2f bc
       0.06738586 0.08711989 0.07154741 -0.010720179
0000b0 7c 2d 26 3d ee e8 b7 3c 2b 1b 20 bd fc 84 ae 3d
       0.04057072 0.022449937 -0.03908841 0.085214585
0000c0 ae 97 dc 39 e3 f1 af 3d 4f 94 70 bd 0b 90 c8 bc
       0.0004207468 0.08591058 -0.058735188 -0.024482748
0000d0 4c 7e 09 3d 52 09 3b bd f5 a9 c1 bc 16 73 47 3d
       0.03356771 -0.045663185 -0.023640612 0.04869374
0000e0 cb a5 b8 3c 21 57 37 3c 18 10 32 bd 9a 66 4c bd
       0.022539994 0.011190207 -0.04347238 -0.049902536
0000f0 60 9c 0d bd fc 71 da bc 51 12 22 bc 25 68 8c bc
       -0.03457296 -0.02666568 -0.009892062 -0.017139504
000100 30 d1 ed bc c6 1e 30 bd 64 c3 88 3d 74 fa aa bd
       -0.029030412 -0.042998098 0.06677893 -0.083485514
000110 60 1d 8b 3d d0 20 1f 3d f9 81 0f 3c e4 a7 5b 3d
       0.06792712 0.03884965 0.008759015 0.05362691
000120 ec 76 f7 3d 92 f8 3d 3d ef 3d 46 3d 75 aa 3b 3c
       0.120832294 0.046379633 0.04839891 0.011454214
000130 fb e4 73 bd 51 eb 3d 3c 2e 1e 24 bd d8 44 5b bd
       -0.059544545 0.011591748 -0.040067844 -0.05353245
000140 c9 6b cb 3c e4 94 45 3d 98 8d 8c bc 40 5d bf 3c
       0.02483167 0.048237696 -0.01715736 0.023359895
000150 d2 a5 85 bc 77 bb 0a bd d8 45 50 3c bf cd 6a bd
       -0.01631442 -0.033870187 0.012711965 -0.05732512
000160 60 a2 80 3b 1d 00 2c b8 bc c8 4d 3d 53 48 53 bd
       0.0039256066 -4.10081e-05 0.050240263 -0.051582646
000170 6e 59 a9 bc df ec 5f bd f7 cc 3a 3b bd 60 33 bd
       -0.020672526 -0.054669257 0.0028503516 -0.04379343
000180 52 fe e5 3d 73 26 1d bd dc a4 34 3d 1b 0b 45 3c
       0.112301484 -0.038366746 0.044102535 0.0120265735
000190 d4 d7 fa ba bf 83 25 3d 9e d3 9f 3a d4 ba 11 3d
       -0.0019137808 0.040408846 0.0012193804 0.035578564
0001a0 9c 28 38 bd 66 28 11 3d 4b 81 c0 3c f7 28 81 bc
       -0.044960603 0.035438918 0.023499152 -0.015766604
0001b0 33 69 b5 3c 13 ee 40 3d 8c 1e 6e bc 4a 2c fc bc
       0.02214489 0.047102045 -0.01453365 -0.030782837
0001c0 bf 7b 13 bd bd 60 75 3d 64 1d 36 bd f2 5e 97 3b
       -0.036006685 0.05990671 -0.044461623 0.0046194727
0001d0 95 c8 99 3d 71 88 f3 3b 9c a8 29 3e 7f 1a f4 3d
       0.07508961 0.0074320366 0.16568226 0.11919116

fc2.weight f4 [84, 120]
000000 5c 1a 2a 3e 72 f1 38 3d 81 26 ed 3c 90 6f 55 bd
       0.16611618 0.045152135 0.028949024 -0.052108347
000010 b0 d9 97 bd a1 ae 97 3c f6 77 84 bd 47 c0 1e be
       -0.074145675 0.018515887 -0.06468193 -0.15503035
000020 4b f3 8a 39 b2 72 f3 bd 64 1b ca 3d ed 66 4e 3b
       0.00026502679 -0.11887111 0.098685056 0.0031494454
000030 7d ae 97 bd 8a 50 ec bd 4f 6d e8 bb 64 f6 a8 3c
       -0.07406328 -0.11538799 -0.0070931087 0.0206253
000040 7c 5f 5a 3b e4 54 51 3e 40 24 e6 3c df 1c d6 3d
       0.0033321073 0.2044254 0.028093457 0.104547255
000050 2a b8 7d 3d c8 76 1d 3d d1 a9 8f bd e1 03 46 be
       0.06194321 0.038443357 -0.07014812 -0.19337417
000060 e7 3a 87 bd d4 06 c0 3a 8e c9 19 be ac 81 8c bc
       -0.066030316 0.0014650472 -0.15018293 -0.017151676
000070 a7 6a 78 be 6e ff a1 3c 49 f8 b8 3d d8 7e b2 3d
       -0.24259435 0.019775119 0.09031732 0.087156
000080 d9 5d 2e 3e 33 b7 fd bc db d3 2a 3c 2c c2 ee bd
       0.17027988 -0.030971145 0.010426487 -0.11658129
000090 14 61 24 be 97 06 10 be a4 2d bd 3b 37 d3 82 3d
       -0.16052657 -0.14065014 0.005773263 0.06387942
0000a0 9a 4b ec bd 34 96 3d 3c 39 8f d1 3d 4f c2 97 bd
       -0.11537857 0.011571456 0.10232396 -0.07410108
0000b0 e7 f8 31 3d 70 18 8d 3d 44 89 a2 3d 87 37 0f be
       0.043450262 0.06889427 0.079363376 -0.13986026
0000c0 6f 8f c9 3c 3d 74 00 bd 98 1d ee bb 55 bb 60 bd
       0.024604527 -0.031360853 -0.0072667114 -0.054866154
0000d0 17 3d 01 3d 1d 18 91 bd 1c 3f 72 bd 24 e0 cc 3d
       0.0315524 -0.07084677 -0.059142217 0.10003689
0000e0 37 8f b2 3c d0 fc 7f bc 1d 89 5e 3d bb 95 97 bc
       0.021796806 -0.01562424 0.05432998 -0.018504014
0000f0 2b 02 2f 3e 66 a1 03 be ed fd de bb 08 a2 c8 3c
       0.17090671 -0.12854537 -0.0068051727 0.024491325
000100 56 db 8e bd 67 d3 15 be 9a 14 bb 3b 47 84 b8 3d
       -0.06975429 -0.14631425 0.005709243 0.09009605
000110 a1 e9 14 bc 08 bd 9e bc cc bd 25 bd db ab 43 be
       -0.009088905 -0.019377246 -0.040464208 -0.19108526
000120 08 58 12 3d 4a d2 da bd 9c 1c b2 3d f8 59 1c bd
       0.035728484 -0.10684641 0.08696863 -0.03817174
000130 61 cc d0 3c db 41 ff bc ee 92 31 3d bc d2 8e 3d
       0.02548808 -0.031159332 0.043353014 0.06973788
000140 0a 61 88 3d a3 80 b1 3d 02 1c 3d be 4d 49 10 3d
       0.06659134 0.08667114 -0.18467715 0.035226155
000150 e0 5c 27 be 7a 07 90 bd 76 d3 aa bd 8c e1 2c 3d
       -0.16344023 -0.07032676 -0.08341114 0.042207286
000160 f4 3d 01 3e 78 45 14 bd 69 4a e5 3c dd f1 65 bd
       0.1262129 -0.036199063 0.027989583 -0.056138862
000170 42 39 4b bd 19 c5 b3 bd 93 a6 c1 3c 4f 8f 9e be
       -0.049615152 -0.08777828 0.023639 -0.3096871
000180 8a ae 60 bd f7 60 81 3c f4 b2 6a be 72 b1 20 3e
       -0.054853953 0.015793307 -0.22919828 0.1569269
000190 c9 04 47 bc e3 90 64 bd 63 7c 64 3b 6a a1 dc bd
       -0.012147137 -0.055802237 0.003486418 -0.10772975
0001a0 4c cc 3a 3d ba 3c f0 3c d4 36 a0 3d d8 69 b8 3d
       0.04560499 0.029325832 0.07822958 0.09004563
0001b0 9f bc ac 3d 27 21 c8 3c a4 5c 46 bd d3 c1 50 3d
       0.08434414 0.02442987 -0.048428193 0.050966095
0001c0 11 b5 a7 3d 70 4a f0 3d 13 88 b0 bd 86 81 40 be
       0.081888326 0.11732948 -0.08619704 -0.1879941
0001d0 e2 73 99 bd 97 41 b4 3d 08 c6 42 3e 2d 00 5b bd
       -0.07492806 0.08801573 0.19020855 -0.053466965
0001e0 d5 9a 80 be 44 6d 36 bd d9 e1 9f 3d ea f9 5f be
       -0.25118127 -0.044537798 0.07806749 -0.21872678
0001f0 14 cf 10 bd f4 cb 95 bc 00 94 94 be 70 f9 12 3e
       -0.035353735 -0.018285729 -0.29019165 0.14352965
000200 85 1a 9e 3d 33 2b a7 3d 1e b1 47 3d 63 85 c9 bd
       0.07719902 0.081625365 0.048752896 -0.098398946
000210 6b 39 47 be b8 8a 9f 3d be ab 07 be be f7 c8 3e
       -0.19455497 0.077901304 -0.13249108 0.39251512
000220 0b 80 11 3d e4 49 66 3e fa 0a 13 3c 81 97 cb 3e
       0.035522502 0.22489125 0.008974785 0.39764026
000230 9e 6c 34 3e 6e ae 75 bd df dd 07 bd 14 0b 5d be
       0.17619559 -0.059980802 -0.033170577 -0.21586257
000240 01 7e 67 3d 99 2a 8a bd 3f fc 5f 3d 24 c7 90 3d
       0.05651665 -0.06746406 0.05468392 0.07069233
000250 c0 67 44 bd bb 2b 30 3c a6 67 73 bc 78 84 8d 3d
       -0.047950506 0.010752614 -0.014856255 0.06910032
000260 0f de a1 3e 5e 79 73 bb 82 0c 81 bd 5d b3 52 be
       0.3161473 -0.0037151198 -0.06301214 -0.20576234
000270 40 cb 1e 3e c2 86 5d bd 46 09 8a 3e b1 25 fe bc
       0.15507221 -0.054083593 0.269602 -0.031023832
000280 93 51 f8 3d b7 2f d2 3d ba 6e da 3d 71 25 fd bd
       0.12124934 0.10263007 0.10665651 -0.12360657
000290 9e 6b 02 3e 30 46 2f 3d ba 5d aa bd b9 18 76 3e
       0.12736365 0.042791545 -0.08318658 0.24032868
0002a0 86 a3 a9 bc d1 8b 2e be e1 44 2c bd 38 59 a7 3d
       -0.020707857 -0.17045523 -0.042057876 0.08171314
0002b0 02 8e 0c 3e b7 28 39 bd 20 84 f6 3d d9 33 27 be
       0.13726047 -0.045204844 0.120369196 -0.16328372
0002c0 2a 68 1a be d2 ce 87 3d 43 69 80 bd 90 ac 8f bd
       -0.15078798 0.06631245 -0.06270077 -0.070153356
0002d0 1b 76 0b bd 6c af d1 bb b3 b3 90 bd e8 20 2c 3e
       -0.03404818 -0.0063990857 -0.07065525 0.16809428
0002e0 f8 20 d2 3c 40 7e 76 3e a4 6a 4b bc 52 80 40 3d
       0.025650486 0.24071598 -0.012415562 0.046997376
0002f0 dd 76 a5 3e e7 09 34 3e 6d fc 95 3c f6 e3 a4 3e
       0.32317248 0.17581902 0.018308843 0.3220517
000300 3a fe 96 3d 46 d3 9c 3e d0 5e 4d 3c 1a 17 78 be
       0.073727086 0.3062994 0.012534812 -0.24227563
000310 66 a2 a2 bd cf 4b 1f be 30 5a a9 3d 05 5f 18 bd
       -0.07941131 -0.15556262 0.08269155 -0.037199993
000320 1c 62 86 3c 31 16 f1 3c d1 49 27 3e 2b 3d ce 3b
       0.016404204 0.029429527 0.16336752 0.006293913
000330 cc b2 17 3e 01 38 89 3c 12 54 85 bd f6 33 1e bd
       0.148143 0.016750338 -0.06510176 -0.038623773
000340 3c 47 a8 be 84 29 c7 3c 33 c5 c1 bd 6a 63 70 bd
       -0.32866848 0.024311788 -0.09461441 -0.05868856
000350 e6 9e f3 3d e2 18 16 3e cf 4f a8 39 49 cd 66 3d
       0.11895542 0.1465793 0.0003210292 0.05634812
000360 4c 05 47 3e 4f 1b 04 bd ac 2e c7 bc 24 50 f3 3d
       0.19435614 -0.032252606 -0.024314247 0.1188052
000370 5b 4d af bc 85 3e 03 3e 85 39 f6 3c 6f b0 39 be
       -0.02139919 0.12816818 0.030056724 -0.1813371
000380 02 a6 aa bd cd d9 35 3e 70 d5 55 bb 56 8f f4 bc
       -0.08332445 0.17758866 -0.003262844 -0.029853504
000390 de 34 05 3e 9c 7c 41 be f6 da 79 3d ba c2 34 be
       0.13008448 -0.18895191 0.060999833 -0.17652407
0003a0 eb e0 bb 3c c9 2a 53 3e c6 06 7b 3c c7 b3 81 3e
       0.022934398 0.2062179 0.015321439 0.25332472
0003b0 ca fd 94 3d f5 90 8f 3d 01 82 f6 3d 5f 92 e6 3d
       0.07274969 0.0701007 0.12036515 0.11258387
0003c0 97 c6 3d 3e 4f 5d a8 3d db 33 16 bd 9b ac 6c 3e
       0.18532787 0.08220922 -0.036670547 0.23112719
0003d0 94 e6 f2 bb f0 54 0c 3d 22 db a9 3d f5 de 50 bd
       -0.007412741 0.03426069 0.082937494 -0.05099388
0003e0 9f c9 b6 3d 63 20 5d be ac d0 13 be 22 74 8e be
       0.08925175 -0.21594386 -0.14435071 -0.27822977
0003f0 e8 8e 12 3e 0c 51 d3 bb a6 a8 1e be 38 cf b0 bc
       0.14312327 -0.0064488705 -0.15494022 -0.021583185

fc2.bias f4 [84]
000000 f0 73 a5 3c b1 70 b1 bc db 3c 01 bd 90 eb f3 bd
       0.020196885 -0.02166018 -0.031552177 -0.11910164
000010 c4 8f 86 bd 0a 11 b5 3d 04 1d e2 bd 0d ca 06 bd
       -0.0657039 0.088411406 -0.110406905 -0.032907534
000020 2e 8a d4 bc a9 36 4c bc 0e 4d 01 3d c1 bc c2 3c
       -0.025944795 -0.012464204 0.031567626 0.023771646
000030 2f b6 0c 3c 1c 7b d7 3d d4 23 3c bd 95 b4 90 bd
       0.008588358 0.10521528 -0.045932606 -0.07065693
000040 b2 24 97 bd 02 b1 ff 3d eb 7f d3 3d d9 ea f6 bc
       -0.07380046 0.124849334 0.10327133 -0.030141281
000050 8a ce 80 bd 00 08 92 bc 91 ca b9 3d 5c 70 80 3d
       -0.06289394 -0.01782608 0.090718396 0.06271431
000060 2a e9 b1 3d 29 cc ab 3d 52 7a 21 bd 1f 8c c0 bd
       0.08687051 0.0838855 -0.039423294 -0.09401726
000070 f1 89 b5 bb 4a 10 11 bc 43 43 a5 3d ff e4 d9 3d
       -0.0055401255 -0.008853981 0.0806947 0.10639381
000080 fd ff 2a 3c 37 7c 86 3c 6f d1 32 3d 4c 7d 36 bd
       0.010437009 0.016416652 0.043656763 -0.044553086
000090 b7 7b f2 3d 6d ef dc bd 2f a6 10 bd ea 0a c1 bd
       0.11840003 -0.10787854 -0.035314735 -0.0942591
0000a0 9a 25 0a 3d 51 5c 0f bd f1 c1 5e 3d 9d 64 9b 3c
       0.033727266 -0.03500015 0.054384176 0.018968875
0000b0 f0 99 a5 bd f4 29 96 bd 87 5d 44 3d 00 72 bc 3d
       -0.08086002 -0.07332221 0.047940757 0.09201431
0000c0 01 d5 47 bc 72 63 b1 3d 3c 53 18 3e 26 c0 8c 3d
       -0.01219678 0.08661546 0.14875501 0.06872587
0000d0 d0 19 f5 bd ca 5b 03 3d a5 2d 64 bd e7 a9 25 3e
       -0.11967814 0.03206996 -0.055707593 0.16178094
0000e0 c0 b2 ea bd 64 9e 39 3d c2 f2 08 3e 81 dd b2 3d
       -0.11459875 0.04531707 0.13373855 0.08733655
0000f0 cb d9 02 3e 67 5f 8c 3d ae 5e b2 3d 1a f2 ee 3d
       0.12778394 0.06854134 0.08709465 0.11667271
000100 e3 ce 5c bc d7 c8 b2 3b 1d 62 d8 bd 7a 8b d7 3c
       -0.01347706 0.005456071 -0.105655886 0.026311625
000110 da 01 57 3d 60 64 1d bb a5 9b 78 bd c8 53 b5 3d
       0.052492 -0.0024016127 -0.06069531 0.08853871
000120 88 94 10 bd 1d a7 1a bd b3 77 cf 3d 4a 21 e7 3c
       -0.0352979 -0.037757028 0.10130253 0.028214116
000130 45 b0 9a 3c 44 3a ce 3d d8 08 dd 3d 57 f7 0f 3d
       0.01888288 0.10069707 0.107927024 0.03514799
000140 c6 fd 35 bd 00 7b 83 3d 6f a9 dc 3d 27 0d ee 3d
       -0.04443147 0.06419945 0.107745044 0.11623602

fc3.weight f4 [10, 84]
000000 b6 66 5c be b9 93 8c be 31 34 93 bd 86 c5 1a 3c
       -0.21523556 -0.27456453 -0.07187689 0.009446507
000010 76 f0 46 bd 4c 02 e3 3d c5 f5 85 3d ff 67 40 be
       -0.048569165 0.110844225 0.065410174 -0.18789671
000020 12 76 28 3e c0 fd e9 3b 85 20 3d bd 01 b3 74 3e
       0.1645129 0.007140845 -0.04617359 0.2389641
000030 4f 70 f3 bb 09 cc e2 3d 4e 4c 0a 3e d4 1f 1f 3e
       -0.0074291597 0.11074073 0.1350567 0.15539485
000040 97 91 d6 bd 90 d2 41 3e 46 7c 3c 3e 22 f2 02 be
       -0.10476988 0.1892798 0.18406782 -0.12787679
000050 b7 18 f4 bd 17 48 65 3e 18 39 84 be bb 51 07 be
       -0.119187765 0.22390781 -0.2582481 -0.13214771
000060 fd a6 64 be ac a2 db bd f3 c1 a8 bb 2d d1 a0 bd
       -0.22329326 -0.107243866 -0.0051500737 -0.07852397
000070 52 35 2f 3e 67 0e 0e be b8 b8 e9 be 9c 56 9f bd
       0.17110184 -0.13872682 -0.45648742 -0.07780191
000080 ef 67 86 be 64 78 e9 bd 54 da e6 bd 6e c6 cd bd
       -0.2625117 -0.11399916 -0.112721115 -0.10047613
000090 a6 7a 5e bb 69 58 23 bc 24 d6 e3 bd 1b a4 7f bd
       -0.0033947616 -0.009969809 -0.111248285 -0.062412363
0000a0 96 f1 03 3e 80 47 2f 3d a8 6f bb be 6e 12 6d 3e
       0.12885126 0.042792797 -0.36608624 0.23151562
0000b0 f5 d4 67 3d ac 38 5c bd 98 65 72 3e ee d6 db be
       0.056599576 -0.053764984 0.23671567 -0.42937416
0000c0 7e 4a c5 be c6 e1 4f 3d dd 3e aa be 60 55 2c 3e
       -0.38533396 0.050752424 -0.33251086 0.16829443
0000d0 f2 ac 28 bd f7 37 df bd 07 f8 86 3e b7 dd d0 3d
       -0.04118056 -0.10899346 0.26361105 0.10198539
0000e0 26 d1 47 bb 79 fe fd 3d 01 01 0c be c3 22 b4 be
       -0.0030489652 0.124020524 -0.13672258 -0.3518277
0000f0 18 2c c5 bd 17 2d e2 bd a1 be 5b 3e c5 2d 2c 3d
       -0.09627551 -0.110437565 0.21459438 0.042035837
000100 95 69 40 3c 49 48 83 be 98 49 b0 bd be 45 69 3e
       0.011743923 -0.25641087 -0.08607787 0.22780511
000110 da aa c6 bd f9 50 aa 3d 1b e5 10 bd a2 22 68 3e
       -0.09700556 0.083162256 -0.035374742 0.22669461
000120 30 e6 fd bd 29 04 be bd bb 99 6b be db 34 0c be
       -0.123974204 -0.09278137 -0.23007862 -0.13692038
000130 47 bd b4 bd 10 45 2d bd 2b 15 83 3d ff e8 05 be
       -0.08825164 -0.04230219 0.06400522 -0.13077162
000140 04 f2 e9 3d 8f 26 0c be e9 e4 54 be 36 66 e9 be
       0.11423114 -0.13686584 -0.20790447 -0.45585793
000150 b0 23 88 bc da 64 44 3e e4 a0 0c bf 2a 08 a9 bd
       -0.01661858 0.19179097 -0.54933 -0.0825351
000160 80 d3 cb ba 39 5b 95 ba 37 53 34 bd 2b b9 e6 3d
       -0.0015550703 -0.0011394984 -0.044024672 0.11265787
000170 df 65 61 bd 19 8c cb bd 06 36 ea 3c 94 83 aa be
       -0.055028792 -0.09938831 0.028590214 -0.3330351
000180 9e 69 b0 bd 74 6a 54 3e a7 26 3f be ad 60 e0 3d
       -0.08613895 0.20743734 -0.18667088 0.109559394
000190 71 af c6 bd 1e f1 47 3e b2 28 b5 3e 29 31 ab 3d
       -0.097014315 0.19525573 0.3538261 0.08358986
0001a0 9f b7 54 be 66 d4 88 bd cc 56 3d be bd 96 fe bd
       -0.20773171 -0.06681137 -0.18490142 -0.12431095
0001b0 98 94 ab be e2 1b 73 be ad 5b 8b 3d 13 04 82 3d
       -0.33511806 -0.23741105 0.06804595 0.06348433
0001c0 fc 87 93 3e 21 b1 3f bb 1b 2b 31 3e 81 ca 32 bd
       0.28814685 -0.0029249864 0.173016 -0.043650154
0001d0 2c bb c8 be fc dc 01 bf c6 ea b8 3d cf 88 e1 3b
       -0.392053 -0.5072782 0.090291545 0.006882764
0001e0 d1 e4 02 be 87 3d bc bd ae 35 4d bd df 17 0e 3d
       -0.12782599 -0.09191423 -0.05010002 0.034690734
0001f0 fa 92 4c be ad 59 3d bd 71 db 86 3e 79 25 00 bf
       -0.19977942 -0.0462281 0.26339296 -0.5005718
000200 5f 39 72 bd 16 2f 9b 3d 82 6a cf be 07 9f 77 3e
       -0.059136745 0.0757734 -0.40510947 0.24181758
000210 75 69 6d be 3a ca e2 be bb 6d 87 3e f0 3c c3 be
       -0.2318476 -0.44294912 0.26450905 -0.3813243
000220 4b ed b8 bc f6 70 45 3e 1f a1 d6 3d 9d 49 e6 be
       -0.022574088 0.19281372 0.1047995 -0.44978037
000230 e0 8a 2b bd 7a 1b 8e be 1f a9 86 3e 23 60 a9 bd
       -0.04188049 -0.27755338 0.26300904 -0.0827029
000240 91 be ca 3d 23 09 5c be 1d fc 02 bf 44 36 e7 bd
       0.09899629 -0.2148786 -0.51165944 -0.11289647
000250 63 aa 3d be 48 a6 51 3d 82 69 aa bd 91 a9 e2 3d
       -0.18522029 0.05118397 -0.08320905 0.110674985
000260 da 63 61 be 3c be 26 be 9e da 97 bd 0c 8c 90 be
       -0.22010747 -0.16283506 -0.07414745 -0.28231847
000270 56 96 0c 3e 46 21 b6 bd 3b d2 62 be a6 84 c3 3d
       0.13729224 -0.08893065 -0.22150509 0.09546785
000280 65 97 17 be ab 59 99 be e2 d7 ab be e8 f8 f0 bd
       -0.14803846 -0.29951224 -0.33563143 -0.11766225
000290 98 07 9e bd ab 22 09 3e 96 43 44 3e 73 3e 89 3e
       -0.07716292 0.13392131 0.19166407 0.26805457
0002a0 e7 77 17 3d 23 a5 6d 3e 4d ed 9a bc 89 72 b0 bd
       0.036979582 0.23207526 -0.018911982 -0.08615596
0002b0 69 7a 6f bd 1c 96 dd 3d ae 0c e3 bd dd ea d1 bd
       -0.05846635 0.10819647 -0.11086403 -0.10249875
0002c0 09 ce cc 3c 43 4d 21 3e 68 77 c7 bd a3 ab 59 3d
       0.025000589 0.1575213 -0.09739572 0.0531422
0002d0 50 3b 24 be b0 d1 b4 be fb 8f 59 3e 38 90 21 3d
       -0.16038251 -0.3531623 0.2124633 0.03944418
0002e0 d7 b0 50 3e 98 be 8f be ab 12 27 bd 76 83 81 3e
       0.20379959 -0.280751 -0.040789288 0.2529561
0002f0 65 ed 9c bd 57 10 b7 be a6 a0 9b be a3 43 44 be
       -0.07662467 -0.35754654 -0.30396003 -0.19166426
000300 76 93 59 3d 21 0f ba be c2 c3 82 bd da c0 27 3d
       0.053119145 -0.36339667 -0.06384994 0.040955402
000310 bc b0 c2 3d db 2c 15 3e db e4 51 3d 85 d2 c0 be
       0.09506366 0.14567892 0.051243644 -0.37660614
000320 f4 8b 1e 3e 23 11 33 3e 0f 02 97 be f8 9b 2e 3d
       0.15483075 0.17487006 -0.29493758 0.042629212
000330 67 39 44 3e 2a 4f 2a bd 86 74 49 3e 32 a3 00 bd
       0.19162522 -0.041579403 0.19673356 -0.031405635
000340 27 79 d3 bd b1 08 a0 bd 1c ee 9b bd 7a fd 80 be
       -0.10325842 -0.07814158 -0.07613775 -0.25193387
000350 20 33 81 3d 32 ad 69 3c a6 a4 25 bf 7a ac 6c 3d
       0.063085794 0.014262484 -0.6470436 0.057781674
000360 87 ef ff be eb d4 22 bd 4b d3 ca be af 17 b6 bd
       -0.49987432 -0.039753836 -0.3961433 -0.08891236
000370 cd a6 95 3c 1e 1c 60 bd 43 18 53 3e 31 e2 9f be
       0.018268013 -0.054714315 0.20614724 -0.31227258
000380 aa 8c 60 bb 7d 57 5a 3e bc 32 2a be 13 a9 7c 3d
       -0.003426353 0.21322437 -0.16620916 0.06168468
000390 5b ec 6e be f8 13 c7 3d 33 06 00 bd 4f 56 da 3c
       -0.2333235 0.097206056 -0.031255912 0.026652483
0003a0 96 94 13 3d a1 ce ea be ad a8 10 3b 1d 85 81 3d
       0.036030374 -0.4586077 0.0022073195 0.063242175
0003b0 0c f9 2c 3e 03 6f b4 3d 85 6c 51 bd e9 b1 56 3e
       0.16891879 0.08810236 -0.051128883 0.20966305
0003c0 e0 0c e3 3d e0 09 83 3c dd 9b 53 3e 9b f2 96 be
       0.1108644 0.01599592 0.20664926 -0.29481968
0003d0 fe 18 a2 be 00 b4 12 3e 62 11 48 3e 0b d6 20 3e
       -0.31659693 0.14326477 0.19537881 0.15706651
0003e0 32 0b 74 be de c9 85 bc 19 5c dc 3d 6a 6c 72 3d
       -0.23832396 -0.01633161 0.10759754 0.059185423
0003f0 c5 55 bb be 15 4d a5 be 26 28 b8 bd 2f c2 7f 3c
       -0.36588874 -0.3228537 -0.08992033 0.015610262

fc3.bias f4 [10]
000000 ac bc 72 3d 57 6b 64 3d 93 1d f9 bd fc f5 5e bd
       0.059261963 0.05576643 -0.12163844 -0.054433808
000010 70 bf e2 3d 1b 63 ad bc 79 ce 11 bc 56 e7 0a 3d
       0.1107167 -0.021165421 -0.008899325 0.033912025
000020 68 f7 89 bd 8b 2a 16 be
       -0.06736642 -0.14664666

exp_avg f4 [6, 1, 3, 3]
000000 e0 e7 c5 ba 65 ff 62 bb 75 d8 57 bb 0a 1e 35 bb
       -0.0015099011 -0.003463709 -0.0032935415 -0.0027636313
000010 2e 3a 8e bb cd a4 68 bb 0c 06 94 bb 12 a8 a5 bb
       -0.0043404317 -0.003549862 -0.0045173224 -0.005055436
000020 39 0a 5e bb 00 00 00 00 00 00 00 00 00 00 00 00
       -0.0033880605 0.0 0.0 0.0
000030 00 00 00 00 00 00 00 00 00 00 00 00 00 00 00 00
       0.0 0.0 0.0 0.0
000040 00 00 00 00 00 00 00 00 5b db 4c ba e6 47 d5 ba
       0.0 0.0 -0.0007814669 -0.0016272038
000050 3f 91 08 bb 5c 51 bd ba 52 7f 12 bb 47 fe e8 ba
       -0.0020838527 -0.0014443803 -0.002235372 -0.0017775976
000060 de ee 06 bb 15 c6 1a bb 18 cd c2 ba 17 85 7d 39
       -0.0020589153 -0.0023616601 -0.0014862148 0.0002417754
000070 4d a0 0c ba a4 fb ae ba 89 04 a6 b8 32 e7 9c ba
       -0.0005364463 -0.0013350141 -7.9163416e-05 -0.0011970757
000080 07 4e e0 ba a8 a8 28 ba ae 89 6b ba 45 ec 93 ba
       -0.0017113098 -0.0006433823 -0.00089850544 -0.0011285624
000090 3e 03 e4 39 c2 1a 46 38 a8 d1 9d 39 78 45 41 ba
       0.00043489964 4.72318e-05 0.0003010158 -0.00073727174
0000a0 46 47 06 ba 6d 4f 74 b9 be c2 fa ba 41 27 82 ba
       -0.0005122315 -0.00023299242 -0.0019131524 -0.0009929911
0000b0 49 a8 35 ba b9 74 8a 39 1d 6b 18 3b ed a6 80 3b
       -0.00069296785 0.00026408376 0.0023257204 0.003926149
0000c0 32 6d af 39 6f 39 22 3b a0 72 88 3b d9 8d 1e 38
       0.00033459958 0.0024753471 0.004164055 3.780224e-05
0000d0 f8 b6 c6 3a 82 bf 6e 3b
       0.001516073 0.0036430066

exp_avg_sq f4 [6, 1, 3, 3]
000000 98 22 f8 3c 5f f9 40 3d 22 e9 42 3d e2 66 0f 3d
       0.030289933 0.04711282 0.047585614 0.035010226
000010 57 b2 56 3d b1 61 51 3d 1f f2 fe 3c 26 c0 2a 3d
       0.052416172 0.051118556 0.031121312 0.041687153
000020 f4 12 16 3d 00 00 00 00 00 00 00 00 00 00 00 00
       0.03663917 0.0 0.0 0.0
000030 00 00 00 00 00 00 00 00 00 00 00 00 00 00 00 00
       0.0 0.0 0.0 0.0
000040 00 00 00 00 00 00 00 00 aa 00 6c 3b 51 6c 90 3b
       0.0 0.0 0.0036011138 0.0044074436
000050 bf 67 c0 3b e0 da d8 3b 6c 2e 10 3c 55 ab 17 3c
       0.0058717425 0.006617889 0.00880013 0.009257157
000060 5a 98 0d 3c cc 07 27 3c 99 89 18 3c 4b f7 91 3b
       0.0086422805 0.01019473 0.00931015 0.0044545284
000070 66 cc c9 3b c0 91 ec 3b 50 6b c3 3b 04 76 08 3c
       0.0061583994 0.007219523 0.0059637204 0.008328918
000080 2f 93 14 3c 2c 20 01 3c e3 69 2b 3c ec e3 2c 3c
       0.009068294 0.0078812055 0.010462257 0.010552388
000090 a0 a6 c5 3c bd ed 0a 3d c4 1f 13 3d 93 8b 8b 3c
       0.024127305 0.03391813 0.035918966 0.017034328
0000a0 a6 75 c4 3c 80 8e f1 3c b9 b4 46 3c f3 34 7e 3c
       0.02398188 0.029486895 0.012128049 0.015515554
0000b0 a4 0d af 3c c1 17 38 3c d2 93 19 3c a8 e4 89 3c
       0.021368809 0.011236132 0.009373622 0.016832665
0000c0 38 77 08 39 ea 2e 98 3b a3 97 cf 3c d1 d0 03 39
       0.00013014383 0.0046442645 0.02534086 0.00012570924
0000d0 c9 85 81 3c a7 41 1a 3d
       0.015810864 0.037660267

exp_avg f4 [6]
000000 ab 77 18 bb 00 00 00 00 b8 18 e7 ba 19 cf 55 b9
       -0.0023264687 0.0 -0.0017631268 -0.00020390413
000010 50 d7 09 3b b4 fe 33 3c
       0.0021032877 0.010986019

exp_avg_sq f4 [6]
000000 06 d7 fe 3d 00 00 00 00 9a cc c8 3c 7c 02 ab 3d
       0.12443356 0.0 0.024511624 0.08350083
000010 8f 00 b2 3d ac d9 38 3f
       0.08691513 0.7220714

exp_avg f4 [16, 6, 3, 3]
000000 ce 83 50 39 e2 ed c5 38 9b 1d 4d b7 c1 f7 03 39
       0.00019885527 9.438001e-05 -1.2225845e-05 0.00012585429
000010 66 ca ec b8 ab 75 93 38 d7 da 16 b9 8c d4 b4 b9
       -0.000112910566 7.0314236e-05 -0.00014386639 -0.00034490635
000020 85 e0 b2 38 00 00 00 00 00 00 00 00 00 00 00 00
       8.5295214e-05 0.0 0.0 0.0
000030 00 00 00 00 00 00 00 00 00 00 00 00 00 00 00 00
       0.0 0.0 0.0 0.0
000040 00 00 00 00 00 00 00 00 27 10 6c 39 9e 8f 46 38
       0.0 0.0 0.00022512731 4.7340633e-05
000050 9f 63 0a b8 1a ee 4b 38 3c 5f 36 b9 36 03 4a 39
       -3.2994543e-05 4.862072e-05 -0.0001739235 0.00019265417
000060 3a a4 86 b9 28 f5 8a b9 35 ce 2b 38 b2 31 b8 39
       -0.0002568083 -0.00026504067 4.0961622e-05 0.0003513224
000070 55 65 c8 b7 e5 eb da b6 91 66 9b 36 41 4e 72 b9
       -2.3889044e-05 -6.524368e-06 4.6313003e-06 -0.0002310807
000080 56 20 f8 39 99 17 fa b9 2d 39 22 ba c4 e0 ce 39
       0.00047326338 -0.00047701297 -0.00061883294 0.00039458845
000090 2f e0 23 39 23 17 ab 38 a4 01 8d b8 33 13 03 38
       0.00015628406 8.158225e-05 -6.7237095e-05 3.1250715e-05
0000a0 38 54 75 38 5c 3a f8 38 3d 9b 4f b8 93 97 af b8
       5.8490987e-05 0.00011836432 -4.9497223e-05 -8.372883e-05
0000b0 d0 4e 10 39 de c4 21 38 2c c4 13 b8 f8 32 4a 39
       0.0001376227 3.8568738e-05 -3.523023e-05 0.00019283209
0000c0 dc cf cd b8 8f 23 8b 38 cd c8 84 37 11 87 4c 38
       -9.8138786e-05 6.63466e-05 1.5829131e-05 4.876318e-05
0000d0 a7 1c 06 39 76 96 90 37 aa cb 9e 36 bc da 57 38
       0.0001278991 1.7236202e-05 4.7324766e-06 5.1463707e-05
0000e0 98 56 18 b7 91 17 18 39 ab 2b fe 37 aa 2f b4 b9
       -9.080068e-06 0.00014504629 3.0299494e-05 -0.00034367788
0000f0 f6 08 4b 39 53 44 5b 34 04 70 77 b9 00 00 00 00
       0.00019362927 2.042082e-07 -0.00023597485 0.0
000100 00 00 00 00 00 00 00 00 00 00 00 00 00 00 00 00
       0.0 0.0 0.0 0.0
000110 00 00 00 00 00 00 00 00 00 00 00 00 00 00 00 00
       0.0 0.0 0.0 0.0
000120 54 e6 83 38 0f 43 25 b6 62 a9 48 b9 27 ed 9b 39
       6.289469e-05 -2.462595e-06 -0.00019136586 0.00029740596
000130 63 c2 f1 b7 fb dc 09 ba 8d 14 20 39 42 75 46 38
       -2.8819957e-05 -0.0005259064 0.00015266445 4.7316084e-05
000140 ae 6f af b8 97 1d 56 39 55 7e 87 b9 1e d2 28 ba
       -8.365452e-05 0.00020419653 -0.0002584333 -0.00064400013
000150 35 25 c4 39 71 6a 12 ba 57 87 96 ba 90 ba 0e 3a
       0.00037411755 -0.0005585319 -0.0011484426 0.000544467
000160 b8 60 83 b9 06 80 18 ba fd 48 6f b7 cf 58 49 38
       -0.00025058328 -0.0005817417 -1.4262504e-05 4.8004844e-05
000170 dc a5 07 b9 ca d0 a9 b8 a1 3a ae b8 ba b0 b0 b9
       -0.0001293639 -8.097438e-05 -8.307887e-05 -0.00033701007
000180 54 8c e7 38 05 89 d3 b8 89 ef c8 b9 ff 9c ad b8
       0.000110410765 -0.00010086786 -0.0003832544 -8.278526e-05
000190 73 59 b8 b7 87 01 9f 38 d1 26 da b8 9d 6b f1 b7
       -2.1976162e-05 7.581995e-05 -0.0001040228 -2.877955e-05
0001a0 77 e8 b7 38 14 1c 21 b9 02 29 21 36 74 ef ea b8
       8.76942e-05 -0.00015364616 2.401474e-06 -0.00011202591
0001b0 3a 36 79 39 ed 81 aa 36 bc b0 dd b7 5a 63 46 38
       0.00023766691 5.08152e-06 -2.6427551e-05 4.7299407e-05
0001c0 a8 ee 29 b7 d6 97 9c 38 87 4d 88 b8 ca ea f5 37
       -1.01287515e-05 7.466941e-05 -6.499426e-05 2.9315608e-05
0001d0 f3 e2 63 39 00 00 00 00 00 00 00 00 00 00 00 00
       0.00021732952 0.0 0.0 0.0
0001e0 00 00 00 00 00 00 00 00 00 00 00 00 00 00 00 00
       0.0 0.0 0.0 0.0
0001f0 00 00 00 00 00 00 00 00 42 84 43 39 8d f4 c4 b7
       0.0 0.0 0.00018645919 -2.3478899e-05
000200 26 fb 60 37 6a 57 bf b7 c7 8d 06 38 d4 eb 4e 39
       1.34099155e-05 -2.280968e-05 3.208013e-05 0.00019733544
000210 6f 50 2e 38 37 af 00 39 aa d8 c9 39 ad ba 1a 3a
       4.1559742e-05 0.00012272304 0.00038499135 0.00059024506
000220 23 5c 13 39 a4 15 93 39 f3 a0 03 b7 21 ab 31 39
       0.00014053336 0.00028054148 -7.845682e-06 0.00016943786
000230 11 44 2b 3a 16 61 88 b6 7c bc 85 39 dd 7e 5d 3a
       0.0006533275 -4.064418e-06 0.0002550817 0.0008449385
000240 bf e8 3b 39 8a a0 98 37 fc b7 05 b7 bf 55 89 38
       0.00017920414 1.8194569e-05 -7.970255e-06 6.5486405e-05
000250 85 2a 1e 38 67 a5 bf 38 46 a5 a9 b7 15 cc 81 38
       3.7709735e-05 9.138398e-05 -2.0223331e-05 6.1892126e-05
000260 ac c4 82 39 18 c3 dd 38 18 bf 82 39 a5 9c 77 39
       0.00024942064 0.0001057444 0.00024937908 0.0002361411
000270 a8 48 75 39 bc 53 70 39 26 66 8a 39 3e 85 9e 37
       0.00023392087 0.00022919377 0.00026397518 1.8897113e-05
000280 01 e4 dc 38 7a a3 fe 38 eb 94 f1 b6 e7 67 57 b8
       0.000105328865 0.00012142114 -7.199696e-06 -5.135676e-05
000290 af 85 42 39 5d 1d 00 b9 a7 03 9f b8 cf 4a 01 39
       0.00018551083 -0.0001221797 -7.582391e-05 0.00012330267
0002a0 f7 c8 7a b9 06 7f 33 b9 17 95 26 39 00 00 00 00
       -0.00023916723 -0.0001711809 0.00015886534 0.0
0002b0 00 00 00 00 00 00 00 00 00 00 00 00 00 00 00 00
       0.0 0.0 0.0 0.0
0002c0 00 00 00 00 00 00 00 00 00 00 00 00 00 00 00 00
       0.0 0.0 0.0 0.0
0002d0 0b 86 8b b8 3d 4d f2 b8 cd 6a 35 39 23 f8 b0 b9
       -6.653004e-05 -0.00011553846 0.00017301292 -0.00033754212
0002e0 d8 50 54 b9 af 68 03 39 ea 74 55 b9 4c 3b de b8
       -0.00020248012 0.00012532131 -0.00020356817 -0.0001059683
0002f0 35 fb 2a 39 62 aa 07 b9 b0 88 95 b7 5a 8a 21 3a
       0.00016306045 -0.00012938076 -1.7825834e-05 0.00061622786
000300 25 5d 36 ba 6c eb 89 b9 2e f2 34 3a d5 44 52 ba
       -0.00069566286 -0.0002630608 0.00069025427 -0.0008021121
000310 27 68 8b b9 fb fe 2e 3a 73 95 09 b8 28 ba 9f 38
       -0.00026589746 0.00066755683 -3.280253e-05 7.616385e-05
000320 40 fe 1a 39 98 b5 b3 b8 e1 7e 88 b3 91 ab 68 39
       0.000147813 -8.5692096e-05 -6.356073e-08 0.00022189158
000330 e7 55 3c b9 e1 9c e8 b8 7a 6e 33 39 ad c6 59 35
       -0.00017961078 -0.00011091843 0.00017111926 8.112791e-07
000340 5e 98 49 39 7f 11 e5 38 2e c5 f4 38 70 3b f2 38
       0.00019225615 0.0001092283 0.00011671554 0.0001155053
000350 bb 3f ee 38 fd 2f 07 38 ee c0 33 38 b8 9e 69 38
       0.00011360595 3.22312e-05 4.2856605e-05 5.5699347e-05
000360 50 ef e7 38 33 65 6e b7 50 72 89 b8 74 c7 6c 38
       0.00011059514 -1.4209468e-05 -6.5539614e-05 5.645254e-05
000370 38 a9 39 b9 56 49 36 b8 34 1b 1a b9 d6 85 a9 b9
       -0.00017706014 -4.346048e-05 -0.00014696718 -0.00032333907
000380 4d 19 f8 b7 00 00 00 00 00 00 00 00 00 00 00 00
       -2.9575685e-05 0.0 0.0 0.0
000390 00 00 00 00 00 00 00 00 00 00 00 00 00 00 00 00
       0.0 0.0 0.0 0.0
0003a0 00 00 00 00 00 00 00 00 31 d9 f8 38 d7 8e ad b8
       0.0 0.0 0.000118660166 -8.275889e-05
0003b0 ef 45 06 b9 0e 34 6d b8 4e 49 3f b9 3d 65 c2 36
       -0.00012805288 -5.6553683e-05 -0.00018242488 5.7934362e-06
0003c0 fc 4a 9d b9 0b 9b a2 b9 c2 8f fd b8 f6 9e 58 39
       -0.0003000124 -0.00031014564 -0.00012090757 0.00020658583
0003d0 77 7e 45 b7 ec a2 3f b9 17 ee fc b7 82 d2 0c b9
       -1.177156e-05 -0.00018275873 -3.015161e-05 -0.0001342986
0003e0 3e 27 58 38 78 04 c6 b9 16 82 ba b9 4f b0 a9 38
       5.153496e-05 -0.00037768832 -0.00035573606 8.091388e-05
0003f0 f4 e4 33 38 95 bd 23 b8 4a af 61 b8 ff a7 72 38
       4.2890155e-05 -3.903879e-05 -5.380743e-05 5.7853755e-05
