checkpoint/model_epoch40_batch8_date08.27-00:02.pth (torch, 730109 bytes, 30 tensors)

conv1.weight f4 [6, 1, 3, 3]
-0.14090459 -0.13971283 -0.2775173 -0.21677332 -0.17256913 0.067732714 0.16369852 0.3384622
0.16070615 0.5310457 -0.23250054 0.022428617 -0.45292658 -0.41346997 -0.16609749 0.11852439
0.43221164 0.46421573 -0.1641704 0.22112651 0.33542645 0.25130084 0.46446604 0.74215806
-0.120253526 0.41596252 0.8128532 -0.30922347 -0.20984599 -0.08438842 -0.12993333 0.2880003
-0.2160599 -0.15344429 -0.23288016 -0.31218702 -0.10775417 0.70174485 0.4104669 0.18022619
0.263397 0.06347252 0.0070241904 -0.26594368 0.013895701 -0.16625857 0.3545387 0.22855043
-0.17245185 0.1999432 0.4689693 0.21530281 0.19321331 0.20135671
00000000: 4b49 10be e110 0fbe bf16 8ebe d3f9 5dbe
00000010: f6b5 30be 73b7 8a3d 96a0 273e eb4a ad3e
00000020: 2790 243e 9cf2 073f 9f14 6ebe 38bc b73c
00000030: fee5 e7be 56b2 d3be 7615 2abe eabc f23d
00000040: d84a dd3e afad ed3e 491c 28be fd6e 623e
00000050: 04bd ab3e 81aa 803e 7ece ed3e 12fe 3d3f
00000060: 7b47 f6bd 0af9 d43e 2617 503f 8a52 9ebe
00000070: dee1 56be d6d3 acbd 3e0d 05be c674 933e
00000080: ce3e 5dbe 8020 1dbe 2378 6ebe fad6 9fbe
00000090: 38ae dcbd 8da5 333f b828 d23e 378d 383e
000000a0: f9db 863e e1fd 813d 2e2b e63b c529 88be
000000b0: cbaa 633c b03f 2abe 1986 b53e 2009 6a3e
000000c0: 3897 30be e9bd 4c3e be1c f03e 5778 5c3e
000000d0: b6d9 453e 7430 4e3e

conv1.bias f4 [6]
0.42927325 -0.09201874 -0.0070088543 -0.2584352 -0.5401116 -0.5924361
00000000: b4c9 db3e 5274 bcbd 88aa e5bb 9e51 84be
00000010: c144 0abf e4a9 17bf

conv2.weight f4 [16, 6, 3, 3]
-0.066045806 -0.043923512 -0.16413386 0.047847684 0.095242366 -0.047051035 -0.030152103 0.030010339
0.0810547 -0.33153227 -0.43482557 -0.21270947 0.221312 0.41982535 0.19450493 0.15663336
0.2353059 0.024434514 0.108625956 -0.24798101 -0.7163073 0.31529248 0.09738404 -0.4790483
0.3312347 0.18225622 -0.084695145 -0.06229282 0.05233147 -0.0806023 0.049886763 0.06881816
0.09741779 0.050882865 -0.13468592 -0.08827647 -0.04378569 -0.35870925 -0.43140867 -0.72157824
-0.3704543 -0.4447872 -0.044128533 -0.0546241 -0.21486384 -0.17069778 -0.45672905 -0.43282577
-0.07594411 -0.2529789 -0.18008968 0.23899189 0.030656187 0.22811054 0.0035469902 -0.2836115
-0.19705126 -0.21691278 -0.17898358 -0.015755957 -0.1120048 -0.13165165 -0.32339308 -0.017156439
-0.33437374 0.042530652 -0.08204141 0.14858274 0.35554993 -0.11251493 0.043166135 -0.24917503
0.09392836 -0.06141341 0.010378364 0.055553176 -0.045849178 0.15877649 0.041071124 0.053227272
0.2237333 0.08642016 0.12919882 -0.009841731 -0.12224608 -0.06451374 0.092659466 -0.0008821541
-0.06763944 -0.10428183 -0.109547004 -0.01351842 0.058723025 0.13298254 -0.22549358 -0.03976857
0.09859456 0.108034946 0.7373081 0.14802323 -0.018940227 0.07072072 -0.013835078 -0.061312478
0.28565803 0.11499213 0.035982024 0.28052172 -0.24547501 -0.15167993 0.07634794 -0.2704113
0.088612095 0.15211788 -0.289691 -0.08870697 -0.14191313 -0.33333352 0.1669305 0.30295768
-0.30466866 0.49552828 0.72522897 -0.1341727 -0.07299921 0.0735816 -0.015926277 -0.21052957
-0.27253583 -0.15906432 0.1599214 0.30181238 -0.46480998 -0.0716602 0.09886483 -0.07491141
-0.07929618 0.046505608 -0.08109351 -0.002968946 0.0057247467 0.087722085 -0.10286769 -0.09342249
0.096095175 0.39533433 -0.029054778 0.20501482 -0.34006646 0.0012912068 -0.12086625 0.24371102
0.6196757 0.12755108 -0.13122003 -0.15041105 -0.1115332 -0.078263104 0.31311485 -0.2596322
0.08796415 0.39746585 -0.07403042 -0.0023593735 -0.2498822 -0.19832088 -0.4216019 -0.26989302
-0.19574533 -0.20941731 -0.21792002 0.3681073 0.6922019 0.20420198 -0.05812821 -0.41480932
0.42046896 -0.13844481 -0.050646078 0.12522455 0.090800114 0.28208813 -0.14763889 -0.055553276
0.20715691 -0.20072412 -0.02864849 -0.18080847 0.07762405 -0.023136351 -0.07167111 0.0179862
0.11252939 -0.039779652 -0.08079153 -0.05032869 -0.13487822 0.06142694 -0.1439084 0.16657846
0.018174864 0.11089434 0.7870853 0.18140276 0.0048056305 0.2119064 0.016043307 0.08854559
0.40238455 0.014543299 -0.012592179 0.27663362 -0.12380783 0.13522798 0.11346866 0.0029239475
0.0036863526 -0.15249428 0.15583996 -0.108822905 -0.0020753443 -0.12558407 -0.2134415 0.0729176
0.029894548 0.026234156 0.4267584 0.94064957 -0.028716262 0.36655158 -0.10429977 0.19189402
0.38176146 0.72339463 -0.20033473 -0.1423855 0.11011761 -0.2317476 0.18713868 0.06866131
-0.3268049 -0.05422189 -0.22149773 0.03135413 0.02672405 -0.10104002 0.022657583 0.057961624
0.053865775 -0.01712992 -0.11155897 -0.020977711 -0.17888126 -0.5503639 -0.04942298 0.18867895
00000000: 0643 87bd 24e9 33bd b512 28be effb 433d
00000010: 6e0e c33d 96b8 40bd 8b01 f7bc 3ed8 f53c
00000020: 0200 a63d 99be a9be 75a1 debe 83d0 59be
00000030: 9d9f 623e 59f3 d63e 4d2c 473e 7f64 203e
00000040: 08f4 703e e42a c83c 4977 de3d bcee 7dbe
00000050: ea5f 37bf 046e a13e 4971 c73d d245 f5be
00000060: 9897 a93e 60a1 3a3e a674 adbd c226 7fbd
00000070: 8659 563d d212 a5bd 1056 4c3d 89f0 8c3d
00000080: fa82 c73d 8d6a 503d 1beb 09be 4bca b4bd
00000090: a058 33bd bda8 b7be 99e1 dcbe 5ab9 38bf
000000a0: 30ac bdbe 26bb e3be 1fc0 34bd 85bd 5fbd
000000b0: 4405 5cbe 66cb 2ebe 64d8 e9be 579b ddbe
000000c0: 9688 9bbd 7386 81be 6e69 38be 4aba 743e
000000d0: af22 fb3c cf95 693e 9f74 683b 8735 91be
000000e0: cec7 49be 621e 5ebe 7947 37be a312 81bc
000000f0: c662 e5bd b1cf 06be c793 a5be a98b 8cbc
00000100: 0933 abbe 9f34 2e3d 5405 a8bd 1326 183e
00000110: a40a b63e 3a6e e6bd f9ce 303d bd27 7fbe
00000120: 835d c03d a18c 7bbd 030a 2a3c ba8b 633d
00000130: 59cc 3bbd 4e96 223e 323a 283d d704 5a3d
00000140: 581a 653e 0efd b03d b24c 043e 363f 21bc
00000150: 275c fabd c81f 84bd 3fc4 bd3d 5c40 67ba
00000160: 8c86 8abd b691 d5bd 2e5a e0bd 5d7c 5dbc
00000170: 8e87 703d 932c 083e cae7 66be 5ee4 22bd
00000180: f2eb c93d 6d41 dd3d 39c0 3c3f 6793 173e
00000190: 8928 9bbc 06d6 903d 86ac 62bc cb22 7bbd
000001a0: c541 923e fe80 eb3d e361 133d 8ba0 8f3e
000001b0: cd5d 7bbe fc51 1bbe 4f5c 9c3d 5a73 8abe
000001c0: 427a b53d cac4 1b3e 6152 94be 00ac b5bd
000001d0: ad51 11be b1aa aabe d4ef 2a3e 451d 9b3e
000001e0: 88fd 9bbe e2b5 fd3e 9ba8 393f 9164 09be
000001f0: 9c80 95bd f3b1 963d d377 82bc 1095 57be
00000200: d189 8bbe c2e1 22be 6fc2 233e 2787 9a3e
00000210: 93fb edbe 95c2 92bd a579 ca3d 276b 99bd
00000220: 0966 a2bd aa7c 3e3d 5b14 a6bd a692 42bb
00000230: a896 bb3b a3a7 b33d 4cac d2bd 4a54 bfbd
00000240: 8ccd c43d 4369 ca3e 4904 eebc 68ef 513e
00000250: 311d aebe b63d a93a b988 f7bd 628f 793e
00000260: 11a3 1e3f c09c 023e 8b5e 06be 5b05 1abe
00000270: 856b e4bd 6848 a0bd 9750 a03e 83ee 84be
00000280: 8c26 b43d a580 cb3e 439d 97bd b89f 1abb
00000290: 1fe1 7fbe a114 4bbe 34dc d7be 6b2f 8abe
000002a0: 7771 48be 7e71 56be 6d26 5fbe 8f78 bc3e
000002b0: 2534 313f 531a 513e d917 6ebd e361 d4be
000002c0: b547 d73e 7ac4 0dbe 4372 4fbd dd3a 003e
000002d0: 69f5 b93d db6d 903e a62e 17be d58b 63bd
000002e0: f120 543e a08a 4dbe 3db0 eabc db25 39be
000002f0: 5cf9 9e3d 7288 bdbc 4ec8 92bd cc57 933c
00000300: cf75 e63d fdef 22bd 0876 a5bd 7525 4ebd
00000310: 841d 0abe d19a 7b3d b95c 13be 8b93 2a3e
00000320: 74e3 943c 921c e33d 6c7e 493f a5c1 393e
00000330: 8d78 9d3b fefd 583e 416d 833c 6457 b53d
00000340: 5905 ce3e 0447 6e3c 6d4f 4ebc eca2 8d3e
00000350: f68e fdbd 3479 0a3e 4262 e83d b39f 3f3b
00000360: bc96 713b 7627 1cbe 8394 1f3e 8bde debd
00000370: 8002 08bb 1c99 00be 6990 5abe d355 953d
00000380: 69e5 f43c 03e9 d63c 1480 da3e 69ce 703f
00000390: 5e3e ebbc a6ac bb3e 1e9b d5bd de7f 443e
000003a0: 3d76 c33e 6430 393f 8c24 4dbe 81cd 11be
000003b0: 5785 e13d 3e4f 6dbe 48a1 3f3e 4d9e 8c3d
000003c0: f952 a7be c617 5ebd 4dd0 62be 306d 003d
000003d0: 65ec da3c 12ee cebd 659c b93c 2b69 6d3d
000003e0: 5ca2 5c3d 0c54 8cbc 0779 e4bd 73d9 abbc
000003f0: a62c 37be a6e4 0cbf c06f 4abd 0e35 413e

conv2.bias f4 [16]
0.05019594 -0.30743 -0.05469171 -0.34056666 -0.0140912775 -0.13014796 0.10422174 -0.21896859
-0.3178221 -0.107033215 -0.043672703 -0.09957231 -0.093931735 -0.13208327 0.05277905 -0.20654358
00000000: 429a 4d3d 7767 9dbe 6a04 60bd c15e aebe
00000010: 1adf 66bc 8245 05be 3572 d53d 4d39 60be
00000020: 94b9 a2be 3b34 dbbd 26e2 32bd 91ec cbbd
00000030: 485f c0bd d640 07be d82e 583d 2980 53be

fc1.weight f4 [120, 400]
-0.010021673 -0.053947415 -0.041055154 -0.012340663 -0.040852662 -0.029102882 -0.06858309 -0.06833823
-0.0018262123 -0.04235588 -0.051611237 -0.04092096 -0.062071063 -0.06116542 0.008726865 0.004220354
-0.014531592 -0.048504453 -0.004560406 -0.018945487 -0.056925382 -0.010432251 0.024338724 -0.07037524
-0.070911296 -0.01478842 0.016455557 -0.030424489 0.011006856 0.035149265 0.0154158175 -0.01037258
0.049886297 0.032573637 -0.028121352 0.0043218257 0.025543619 0.02290066 -0.049746644 0.027075266
-0.014516592 -0.048961062 -0.010097215 -0.027220685 0.0070856097 -0.032462347 -0.05873739 -0.025438225
-0.016796285 0.029243236 -0.016882654 0.017832369 0.009370148 -0.016078068 0.03386668 -0.018143868
-0.011809552 -0.01608113 0.00017943978 -0.009613657 -0.0042508664 -0.038993966 -0.021501577 -0.041502215
-0.01075654 0.02897731 -0.034767516 -0.054898217 -0.012208826 -0.013706702 0.008464373 0.008300781
0.0041595837 -0.03444403 -0.0035285593 0.027964562 0.022053096 -0.0036472739 -0.02893101 0.01437313
0.028473867 -0.0524332 -0.029014671 0.022099912 -0.0035032989 -0.047224935 -0.028829252 0.020276641
-0.016958786 0.034511454 0.039526995 0.007273495 -0.02514787 -0.037067093 -0.002528292 0.009101045
-0.03819255 -0.033145364 -0.06278559 0.030687744 -0.053022552 0.02448177 -0.01288904 -0.028643763
0.024022657 -0.013733438 0.013427557 0.020873487 -0.04816697 0.031624522 -0.009415693 -0.022098554
0.010562389 0.036466517 -0.043946534 -0.0045211674 0.04106033 -0.0018304198 0.042123467 -0.017134935
-0.027582122 0.042995483 -0.00035412557 0.047999125 -0.02088483 -0.03210334 -0.027056213 -0.047078997
0.019598758 0.03687942 0.012002843 -0.02613558 0.024790317 -0.031737566 0.048912156 -0.049717184
-0.04789726 -0.033007402 0.040842224 0.0050062896 0.019202286 -0.03665034 -0.0029614342 -0.0055871727
0.02004118 0.035312127 0.021734012 -0.025448764 -0.0030799569 -0.031359013 -0.039277755 0.011298392
-0.04124148 0.009857545 -0.041019097 -0.032838967 -0.020130346 -0.067076154 -0.021693362 -0.026232438
-0.025684863 -0.031188488 0.018225562 0.015712397 -0.055080533 0.002033677 -0.06041178 -0.063757464
-0.005893789 -0.020457834 -0.044517986 -0.069418564 -0.0405505 -0.0044826623 -0.06747267 -0.048573274
-0.014848046 -0.05719135 -0.043804016 -0.01926431 -0.008050042 -0.06662977 -0.05457922 0.0032783926
-0.047148585 -0.0070277215 -0.032285135 -0.034661867 0.01965155 -0.038484484 -0.037891712 0.028514076
0.009348315 0.024341289 -0.013364774 -0.024150753 -0.0046273232 -0.020937026 0.016937546 -0.049804
-0.024754439 0.0009216464 -0.027534151 -0.02540704 0.02416339 -0.04790926 -0.009347194 -0.038709324
0.024853094 -0.042752024 0.030740237 -0.04733163 -0.063223384 0.00073684455 0.039399423 -0.04281978
-0.022302985 0.02271818 -0.008384871 0.020714229 -0.048099913 -0.015724046 -0.046587545 0.04215306
0.020751996 -0.036483783 -0.013134342 -0.021741232 -0.020543491 -0.028553832 -0.01659193 0.018224077
-0.035842616 -0.03561717 -0.015425957 0.0008698166 0.013610596 -0.019692104 -0.03323147 -0.03031751
-0.0089716315 -0.020127667 0.019200647 -0.069865964 -0.03189295 -0.04067951 -0.009137839 0.017768137
0.022632426 -0.043527763 -0.0021663427 0.008155284 0.022039874 0.040955193 -0.0013869107 -0.033594638
00000000: f131 24bc f7f7 5cbd 7329 28bd 7e30 4abc
00000010: 1f55 27bd 2b69 eebc 4b75 8cbd eaf4 8bbd
00000020: 845d efba 5c7d 2dbd 4e66 53bd bd9c 27bd
00000030: 3a3e 7ebd 9788 7abd 20fb 0e3c e54a 8a3b
00000040: ea15 6ebc 9bac 46bd 756f 95bb 9133 9bbc
00000050: 972a 69bd 08ec 2abc 0162 c73c e520 90bd
00000060: f139 91bd 214b 72bc cecd 863c c73c f9bc
00000070: 1a56 343c adf8 0f3d a092 7c3c c1f1 29bc
00000080: 9355 4c3d ef6b 053d c05e e6bc 1a9e 8d3b
00000090: da40 d13c 2a9a bb3c 23c3 4bbd f3cc dd3c
000000a0: 00d7 6dbc 658b 48bd ca6e 25bc eafd debc
000000b0: 672e e83b 3df7 04bd 9e96 70bd d363 d0bc
000000c0: 5d98 89bc 838f ef3c 7e4d 8abc 3015 923c
000000d0: 4085 193c 27b6 83bc cab7 0a3d 73a2 94bc
000000e0: da7c 41bc 93bc 83bc 0028 3c39 9a82 1dbc
000000f0: da4a 8bbb 23b8 1fbd 1324 b0bc 3afe 29bd
00000100: 333c 30bc d361 ed3c 6268 0ebd f4dc 60bd
00000110: 8707 48bc 1392 60bc 27ae 0a3c 0000 083c
00000120: 1e4d 883b 2f15 0dbd 673f 67bb f015 e53c
00000130: b2a8 b43c 1a07 6fbb ba00 edbc 477d 6b3c
00000140: 0742 e93c 32c4 56bd 2db0 edbc e00a b53c
00000150: 9a97 65bb ef6e 41bd 532b ecbc 331b a63c
00000160: 27ed 8abc e25b 0d3d 0fe7 213d 8056 ee3b
00000170: e802 cebc aad3 17bd b3b1 25bb 8d1c 153c
00000180: cb6f 1cbd 6fc3 07bd bb95 80bd dd64 fb3c
00000190: 2d2e 59bd fe8d c83c 8d2c 53bc 53a6 eabc
000001a0: 2acb c43c 3702 61bc 42ff 5b3c e0fe aa3c
000001b0: bb4a 45bd b788 013d 4744 1abc 0708 b5bc
000001c0: df0d 2d3c ea5d 153d 4801 34bd 4d26 94bb
000001d0: e02e 283d b2ea efba a889 2c3d 905e 8cbc
000001e0: e7f3 e1bc 081c 303d eea9 b9b9 bb9a 443d
000001f0: aa16 abbc cb7e 03bd fea4 ddbc e8d5 40bd
00000200: 938d a03c e00e 173d 93a7 443c 491a d6bc
00000210: 1015 cb3c 40ff 01bd 1d58 483d 3fa4 4bbd
00000220: eb2f 44bd c532 07bd 2d4a 273d cd0b a43b
00000230: 1d4e 9d3c ab1e 16bd 9f14 42bb 9a14 b7bb
00000240: 672d a43c 73a3 103d 870b b23c ed79 d0bc
00000250: 1ad9 49bb 4f72 00bd b6e1 20bd e41c 393c
00000260: d3ec 28bd 8a81 213c a403 28bd 2782 06bd
00000270: 65e8 a4bc 395f 89bd 47b6 b1bc 69e5 d6bc
00000280: 1069 d2bc 007f ffbc c64d 953c 49b7 803c
00000290: 209c 61bd 7047 053b 5872 77bd 4693 82bd
000002a0: b020 c1bb 3097 a7bc 7e58 36bd 522b 8ebd
000002b0: 4818 26bd 4ce3 92bb 1c2f 8abd c5f4 46bd
000002c0: 3845 73bc 7a41 6abd d76b 33bd 30d0 9dbc
000002d0: 53e4 03bc 3075 88bd 768e 5fbd 4dda 563b
000002e0: e01e 41bd cd48 e6bb 6b3d 04bd 9af9 0dbd
000002f0: 4afc a03c e8a1 1dbd 5734 1bbd 5a96 e93c
00000300: ad29 193c 6267 c73c edf7 5abc cdd7 c5bc
00000310: cda0 97bb 2084 abbc 9cc0 8a3c 47ff 4bbd
00000320: d2c9 cabc a59a 713a 4d8f e1bc 6d22 d0bc
00000330: 4df2 c53c 803c 44bd f924 19bc ab8d 1ebd
00000340: b798 cb3c bf1c 2fbd f3d2 fb3c d0de 41bd
00000350: 437b 81bd cd28 413a 4a61 213d cb63 2fbd
00000360: c0b4 b6bc 7a1b ba3c b360 09bc e3b0 a93c
00000370: 6a04 45bd b7cf 80bc 95d2 3ebd b0a8 2c3d
00000380: 1700 aa3c 0570 15bd 6c31 57bc ab1a b2bc
00000390: d34a a8bc bae9 e9bc cdeb 87bc a94a 953c
000003a0: b5cf 12bd 4fe3 11bd 27bd 7cbc 6704 643a
000003b0: fafe 5e3c 5651 a1bc b91d 08bd 6d5c f8bc
000003c0: c0fd 12bc c7e2 a4bc ad4a 9d3c e315 8fbd
000003d0: 2fa2 02bd 8f9f 26bd e0b6 15bc 7c8e 913c
000003e0: a367 b93c 2b4a 32bd 33f9 0dbb be9d 053c
000003f0: f78c b43c a2c0 273d 00c9 b5ba 889a 09bd

fc1.bias f4 [120]
-0.010003731 0.088375196 -0.04324625 -0.008143409 -0.012189982 0.06260493 0.0012110071 0.08742679
-0.019005373 -0.061793152 0.0007317368 0.04717214 -0.02198975 0.06049799 -0.023314804 0.05814898
0.021073462 -0.026906611 -0.054266784 -0.056158043 -0.040899273 0.004337701 -0.04938921 -0.058987457
-0.019303733 0.0026867546 0.09641884 0.01916002 0.07857849 -0.06936364 0.15796259 0.056188334
0.010365361 -0.09481975 0.11517823 -0.0008304558 0.012870893 0.06327054 -0.06476377 0.014907663
-0.08859732 -0.059857845 0.025285311 -0.15205547 -0.024223655 0.022875044 -0.054251663 0.061236978
-0.030609248 -0.00025425345 -0.0046732216 -0.03826049 0.08333195 0.019625133 -0.03540676 0.08885311
0.0050380086 -0.08157269 0.030723987 -0.053603545 -0.045241173 0.024445288 -0.059634637 -0.02369103
-0.018908981 0.006931349 -0.0379122 -0.013826058 0.055296693 0.04018972 -0.015076356 -0.022661608
-0.13153207 -0.014199369 -0.06447285 -0.06251821 -0.0046626725 -0.064622216 0.0861772 0.046624582
0.08696498 -0.06517289 0.02804819 -0.016644841 0.03335843 -0.03565304 0.081018694 -0.055422224
-0.06182862 0.012188428 -0.026811356 0.040444337 -0.051697467 -0.0031553204 0.009651889 -0.053273406
0.007022681 0.007163449 -0.046308443 0.047516517 0.028222885 -0.014243502 0.12852637 0.05627953
-0.06257073 -0.11941076 0.014558425 -0.08664318 -0.06127214 -0.0110376915 0.1350896 0.060767744
0.03416842 -0.033494666 -0.052248087 0.07266243 0.052016128 -0.017145148 0.07446341 0.0012588284
00000000: b0e6 23bc 0efe b43d fb22 31bd ef6b 05bc
00000010: 7eb8 47bc 0337 803d a8ba 9e3a d10c b33d
00000020: 28b1 9bbc d11a 7dbd 07d2 3f3a 9337 413d
00000030: d923 b4bc becc 773d b0fe bebc a02d 6e3d
00000040: 41a2 ac3c 416b dcbc d946 5ebd fa05 66bd
00000050: ff85 27bd 4623 8e3b 574c 4abd d59c 71bd
00000060: dd22 9ebc 4314 303b 3e77 c53d 79f5 9c3c
00000070: c2ed a03d 860e 8ebd f2c0 213e bd25 663d
00000080: 7ad3 293c db30 c2bd 90e2 eb3d f2b2 59ba
00000090: 70e0 523c fc93 813d dea2 84bd 453f 743c
000000a0: 8372 b5bd 802d 75bd 2423 cf3c 6eb4 1bbe
000000b0: b070 c6bc 7264 bb3c fe36 5ebd a0d3 7a3d
000000c0: 3fc0 fabc 524d 85b9 d321 99bb 08b7 1cbd
000000d0: f1a9 aa3d e3c4 a03c ae06 11bd 9ff8 b53d
000000e0: e115 a53b 950f a7bd dfb0 fb3c 648f 5bbd
000000f0: cf4e 39bd 7c41 c83c 7343 74bd b113 c2bc
00000100: 02e7 9abc 5f20 e33b d349 1bbd b186 62bc
00000110: c97e 623d fa9d 243d d202 77bc d6a4 b9bc
00000120: 58b0 06be 78a4 68bc 570a 84bd 8c09 80bd
00000130: 55c9 98bb a758 84bd ac7d b03d 6bf9 3e3d
00000140: b21a b23d 5d79 85bd 51c5 e53c c35a 88bc
00000150: d9a2 083d ec08 12bd 21ed a53d 6a02 63bd
00000160: 0240 7dbd f9b1 473c 7da3 dbbc f6a8 253d
00000170: b9c0 53bd 7ec9 4ebb f522 1e3c 3735 5abd
00000180: 851e e63b 5ebb ea3b ecad 3dbd aea0 423d
00000190: ae33 e73c 945d 69bc 6b9c 033e 5d85 663d
000001a0: 1525 80bd a18d f4bd 7686 6e3c fb71 b1bd
000001b0: 7ff8 7abd 6fd7 34bc ee54 0a3e 99e7 783d
000001c0: 2ff4 0b3d b431 09bd 1702 56bd 0ad0 943d
000001d0: dd0e 553d fb73 8cbc 4680 983d 46ff a43a

fc2.weight f4 [84, 120]
0.0701812 0.051811043 -0.050100435 0.033484384 0.063422084 0.038970668 -0.00049558945 -0.36346602
-0.044511728 -0.32243925 0.03519433 -0.03813832 0.08670179 -0.2405466 -0.07042965 0.18745029
0.013541613 0.04602007 -0.03081757 -0.034070496 0.07039972 0.028020425 0.053129926 0.38754815
-0.06739131 -0.02105713 0.1414587 -0.012843607 0.06426645 -0.13619334 0.038156483 0.12636094
-0.0463359 0.23463239 -0.142632 -0.019696124 0.10954917 0.08342494 -0.22505644 -0.032131206
-0.13362184 -0.07473825 0.07958812 -0.09017959 0.006577559 0.08689788 0.008665155 -0.13808721
-0.075014114 0.11767363 0.060754806 -0.01778831 0.08271251 -0.09980789 0.089911945 0.1883348
0.003334285 -0.3380349 0.27085254 0.0031406605 -0.052553125 -0.06198979 -0.060804695 0.009509868
-0.1055816 0.059456952 0.032523263 -0.014643754 0.123260185 -0.024480974 0.24002616 0.13861239
-0.29133633 -0.18089287 0.05223467 -0.040854517 0.060179975 -0.06275566 -0.13862532 -0.11156274
0.11776615 -0.05808865 -0.06091919 0.07162964 -0.010532994 0.09570341 0.20444043 -0.28025192
-0.21950643 -0.015272362 0.03985924 0.020323621 -0.049769625 0.0849762 0.06835755 -0.056764696
-0.0042657508 0.13619557 0.09440246 -0.0037871252 -0.39123237 0.025949545 0.15798761 0.27553973
0.20928365 -0.09158644 -0.5401931 -0.06473158 -0.0045649316 -0.03731556 -0.1929512 0.1935282
-0.004788334 -0.019658646 0.027140478 -0.036879126 0.16765234 0.07445186 0.19780277 -0.29151037
0.025123574 0.24270748 -0.051733796 -0.03965793 0.046806153 0.17289175 0.052660726 0.01755713
0.035784245 -0.11806209 -0.114060484 -0.16398595 -0.0032352998 0.0739202 0.07150724 0.06595351
0.021059366 0.067785904 0.009418405 0.04146287 -0.039279737 0.07270468 -0.029154666 -0.23421592
0.06112772 0.060676757 0.3020806 -0.0138391955 0.10006513 -0.08136492 -0.22161669 -0.14085333
-0.02896769 0.11161542 0.16843875 0.057514485 0.20472303 0.08781016 -0.10650233 0.08782973
0.40250087 -0.085188664 -0.12861426 -0.03234356 -0.027957836 0.012914756 -0.20859401 0.015171353
-0.0749325 -0.15279323 -0.06578071 0.03746564 -0.07741224 0.004067547 -0.10710206 0.020170394
-0.025399348 -0.16117711 0.10422983 -0.046131406 -0.10151806 0.09648516 -0.061857313 -0.06932655
-0.04541847 0.078035735 -0.035297297 0.14628631 -0.47851348 -0.08712554 -0.021510648 0.046025738
-0.074347824 -0.2804038 -0.047471613 -0.07311317 0.054131962 -0.053488962 -0.1287889 0.10624968
-0.20341729 0.026302928 0.08897562 0.07516062 0.21229973 -0.02089694 -0.09853473 0.0136974715
-0.22939211 -0.056835297 -0.01554507 0.056303736 0.17604837 -0.08028668 0.090022676 -0.043216523
-0.059888642 -0.06730367 -0.0822042 -0.1194045 0.29497576 -0.02173235 0.11212458 -0.03298537
0.351542 0.15779236 -0.036415935 -0.249723 0.07745641 -0.040398516 0.029010631 0.3326602
0.19121547 0.3591274 0.05275288 -0.16483721 -0.10951964 0.11356834 0.011079606 0.045605164
0.007644397 -0.16619705 0.1485157 0.011545729 0.07696147 0.0030651428 -0.086571105 -0.1807944
-0.07610576 -0.21605884 0.17406376 0.10264615 -0.07553428 0.021442117 0.06111757 -0.028947506
00000000: 29bb 8f3d d137 543d 1d36 4dbd ec26 093d
00000010: 70e3 813d b59f 1f3d 72ea 01ba 3818 babe
00000020: ee51 36bd c216 a5be ee27 103d ed36 1cbd
00000030: b590 b13d d951 76be 6c3d 90bd f8f2 3f3e
00000040: a4dd 5d3c 8a7f 3c3d 2175 fcbc 818d 0bbd
00000050: ba2d 903d 178b e53c c49e 593d b66c c63e
00000060: 7504 8abd 0180 acbc 8dda 103e fe6d 52bc
00000070: 219e 833d 4476 0bbe f949 1c3d c364 013e
00000080: b6ca 3dbd 7943 703e 1f0e 12be c459 a1bc
00000090: 515b e03d b2da aa3d 3275 66be 039c 03bd
000000a0: 2ad4 08be 5e10 99bd 19ff a23d 14b0 b8bd
000000b0: 9088 d73b 84f7 b13d 4bf8 0d3c bc66 0dbe
000000c0: 00a1 99bd dffe f03d 08da 783d cab8 91bc
000000d0: 2d65 a93d 1468 ccbd c123 b83d d6da 403e
000000e0: 0584 5a3b e912 adbe 2fad 8a3e 8ad3 4d3b
000000f0: f241 57bd 02e9 7dbd 580e 79bd 47cf 1b3c
00000100: 2a3b d8bd 2289 733d 1d37 053d 5bec 6fbc
00000110: d66f fc3d 538c c8bc 6bc9 753e 68f0 0d3e
00000120: 092a 95be fb3b 39be 05f4 553d 1157 27bd
00000130: 477f 763d 0a86 80bd ccf3 0dbe 017b e4bd
00000140: 612f f13d 5dee 6dbd 6786 79bd 90b2 923d
00000150: 9492 2cbc 2600 c43d d558 513e 2e7d 8fbe
00000160: 4bc6 60be ee38 7abc 7143 233d b97d a63c
00000170: 3cdb 4bbd 0008 ae3d 0bff 8b3d 1982 68bd
00000180: b6c7 8bbb da76 0b3e 1456 c13d 6b31 78bb
00000190: 9c4f c8be 2494 d43c 81c7 213e 8b13 8d3e
000001a0: 744e 563e ac91 bbbd 184a 0abf fe91 84bd
000001b0: 6c95 95bb 33d8 18bd 0095 45be 422c 463e
000001c0: 75e7 9cbb 2b0b a1bc b555 de3c 910e 17bd
000001d0: 0ead 2b3e 377a 983d cf8c 4a3e d940 95be
000001e0: f4cf cd3c 4f88 783e d1e6 53bd 5b70 22bd
000001f0: cfb7 3f3d 890a 313e c6b2 573d f8d3 8f3c
00000200: 8092 123d 89ca f1bd 8b98 e9bd efeb 27be
00000210: 5307 54bb 7963 973d 6372 923d a212 873d
00000220: b184 ac3c 56d3 8a3d a74f 1a3c f8d4 293d
00000230: cae3 20bd 31e6 943d c4d5 eebc 4cd6 6fbe
00000240: 0f61 7a3d 3188 783d 4faa 9a3e cbbd 62bc
00000250: f2ee cc3d a7a2 a6bd 7cef 62be db3b 10be
00000260: a64d edbc a096 e43d 357b 2c3e 4f94 6b3d
00000270: eaa2 513e d0d5 b33d e51d dabd 13e0 b33d
00000280: 9814 ce3e 6577 aebd 75b3 03be ae7a 04bd
00000290: d507 e5bc 6a98 533c ab99 55be 4491 783c
000002a0: 3676 99bd d475 1cbe 09b8 86bd 9275 193d
000002b0: 4f8a 9ebd 0f49 853b 5358 dbbd 623c a53c
000002c0: 4b12 d0bc 9d0b 25be 7376 d53d 49f4 3cbd
000002d0: b3e8 cfbd 039a c53d 185e 7dbd 14fb 8dbd
000002e0: b808 3abd 33d1 9f3d e693 10bd 14cc 153e
000002f0: b8ff f4be e06e b2bd 1937 b0bc 7c85 3c3d
00000300: ac43 98bd 1691 8fbe 9871 42bd 5cbc 95bd
00000310: 7ab9 5d3d 3e17 5bbd 3de1 03be 6f99 d93d
00000320: 9f4c 50be 3d79 d73c da38 b63d d0ed 993d
00000330: 1a65 593e 0f30 abbc 94cc c9bd 5c6b 603c
00000340: c4e5 6abe 21cc 68bd c0b0 7ebc bf9e 663d
00000350: 0646 343e 586d a4bd cf5d b83d cf03 31bd
00000360: cb4d 75bd 82d6 89bd ad5a a8bd 598a f4bd
00000370: 1007 973e 0b08 b2bc 92a1 e53d ab1b 07bd
00000380: 50fd b33e 5294 213e e028 15bd 63b7 7fbe
00000390: 77a1 9e3d ea78 25bd b4a7 ed3c 7052 aa3e
000003a0: fdcd 433e 8cdf b73e 6713 583d 16cb 28be
000003b0: d54b e0bd 8596 e83d 3c87 353c 7bcc 3a3d
000003c0: da7d fa3b 8f2f 2abe 8014 183e 4c2a 3d3c
000003d0: fa9d 9d3d 90e0 483b 314c b1bd 2b22 39be
000003e0: 56dd 9bbd 873e 5dbe c53d 323e 2538 d23d
000003f0: b7b1 9abd 61a7 af3c 6b56 7a3d 5223 edbc

fc2.bias f4 [84]
0.17817853 0.07417137 -0.07857074 -0.100611195 -0.027382534 0.08597769 -0.07863894 -0.09228028
0.11020447 0.057068262 -0.044768076 0.036762774 -0.087242804 0.0866277 -0.008994374 -0.060269088
0.012901844 0.038935386 0.15396146 0.120854706 -0.068362266 -0.08915061 -0.015339568 -0.12921475
-0.10381498 0.012578533 0.18842442 -0.00011283979 0.0975849 -0.003981685 -0.12480683 -0.036934823
0.1026272 0.14613834 0.047423184 0.12692983 0.032412842 0.042326234 0.06532473 0.09477322
0.05912581 -0.03001699 -0.066292025 -0.013185881 0.045632225 -0.020015435 -0.046760388 -0.028389221
-0.044530947 0.026645565 0.0497494 -0.027268948 0.17474426 -0.04941191 0.045155086 0.122804925
0.061986562 0.08771567 0.08274411 0.14815451 0.019171957 0.044264402 -0.054833815 0.13091752
0.13666192 0.11354844 0.13951576 -0.13774838 0.114868395 0.14737979 -0.055431906 -0.05800275
0.0126443 -0.11741012 -0.074661255 -0.048809245 0.024898294 -0.013500839 0.10083201 -0.039902594
0.089297906 -0.016120434 0.032553647 -0.052506108
00000000: 6f74 363e 29e7 973d b2e9 a0bd 3e0d cebd
00000010: 5651 e0bc 1215 b03d 740d a1bd 72fd bcbd
00000020: e2b2 e13d 69c0 693d bb5e 37bd 9094 163d
00000030: 5bac b2bd dd69 b13d 245d 13bc b8dc 76bd
00000040: 4262 533c b67a 1f3d 13a8 1d3e ac82 f73d
00000050: 8401 8cbd 9894 b6bd d052 7bbc df50 04be
00000060: f39c d4bd 3116 4e3c 55f2 403e 67a4 ecb8
00000070: 98da c73d cb78 82bb b99a ffbd f848 17bd
00000080: 362e d23d 4aa5 153e d03e 423d e5f9 013e
00000090: 54c3 043d 465e 2d3d f9c8 853d 7618 c23d
000000a0: e82d 723d 31e6 f5bc 1dc4 87bd 9809 58bc
000000b0: dbe8 3a3d 69f7 a3bc d287 3fbd 8390 e8bc
000000c0: 1566 36bd cd47 da3c 07c6 4b3d 2163 dfbc
000000d0: 29f0 323e 2564 4abd 8af4 383d 2681 fb3d
000000e0: 9fe5 7d3d 46a4 b33d be75 a93d d1b5 173e
000000f0: 820e 9d3c 974e 353d 6c99 60bd 3e0f 063e
00000100: 1af1 0b3e 168c e83d 38dd 0e3e e90d 0dbe
00000110: 1f40 eb3d baea 163e 910c 63bd 4b94 6dbd
00000120: 0a2a 4f3c b874 f0bd 00e8 98bd 34ec 47bd
00000130: 82f7 cb3c 9f32 5dbc 0381 ce3d e770 23bd
00000140: d2e1 b63d 000f 84bc f956 053d a510 57bd

fc3.weight f4 [10, 84]
-0.26038995 -0.26941454 -0.43081906 -0.10753296 0.2573527 -0.42367885 0.06289018 -0.096999384
0.19836372 0.28080705 -0.011636183 -0.34689206 0.0498788 -0.045164224 -0.324928 0.026216349
-0.11964834 0.007836942 -0.12064534 -0.15224847 -0.03698429 -0.09407233 0.11758122 -0.07311121
-0.0394852 0.100514635 0.19833557 -0.20398593 -0.26648423 0.08138545 -0.07954243 -0.23679478
-0.3851184 0.0815837 -0.08457049 0.0006639361 -0.42813036 -0.08492055 -0.027751975 0.09656701
-0.17468926 0.18683435 -0.06991345 -0.10566904 -0.059987523 0.056568146 -0.12188526 -0.052865125
0.04377427 -0.42734772 -0.09842694 -0.024834646 0.037738133 0.16466011 0.0114086475 -0.06547131
0.08930244 -0.12737648 -0.34647515 0.01022956 0.01259048 0.11030307 -0.09466558 0.37669766
-0.21670248 -0.11985797 0.037465684 -0.13663927 0.08571491 0.1720169 0.023816561 -0.29260647
0.08651063 0.025791764 -0.24756816 -0.011281732 -0.16020349 -0.081734575 0.23045523 -0.23529205
0.247802 0.29182005 0.08051091 -0.03137945 -0.26454186 -0.25577214 0.1822607 -0.093057334
0.18358162 0.13274966 -0.07022593 -0.063318335 0.2566356 0.10556643 0.04275171 0.11695951
0.08995222 0.110500485 0.21548371 -0.014910498 -0.26936024 -0.0034304615 0.07124037 -0.3431847
-0.02716104 -0.025212673 0.2694146 -0.071785055 -0.051249597 -0.52203673 -0.22447841 0.11154143
0.18194601 -0.05289479 0.04461349 0.17059675 -0.053494442 -0.2774332 0.05966056 0.09084581
-0.12871023 -0.21055093 0.08387981 -0.2220886 -0.25865537 -0.19868891 -0.1431104 -0.024106266
0.012160739 -0.010088057 0.076988794 -0.08135344 0.09575154 -0.13673458 0.21339662 -0.015451165
-0.6840337 -0.41233817 -0.012425945 -0.4531543 -0.2048307 -0.08168187 -0.14414741 -0.07663247
0.03389054 -0.13157213 -0.04267462 -0.39781335 -0.4676403 -0.67306244 -0.3566229 -0.123658285
-0.3461853 -0.032999493 -0.03286056 -0.2933745 -0.61172426 -0.01866891 -0.11820438 -0.0992069
0.24973002 -0.0883208 0.06071027 0.27325636 -0.31425697 -0.32504436 0.032392357 0.019786837
-0.25773048 0.17040893 0.13894857 0.05489115 -0.39901626 -0.20193566 0.06687 -0.01519074
-0.35004494 -0.08268948 -0.058305703 0.16675381 -0.25021815 -0.30997288 -0.15787716 0.002732758
0.15539007 0.27836627 -0.05441336 -0.13635954 0.012374161 0.012188436 -0.36933815 -0.055782344
-0.06522078 0.23416834 -0.12377396 0.05484622 0.121987216 0.023503235 0.03476242 -0.059891567
-0.19166759 -0.13847199 0.13772488 -0.31725466 0.10350818 0.12294854 0.18887159 -0.2018761
-0.11678658 0.2117238 -0.1082406 -0.1362761 0.2101471 -0.08536064 -0.032254882 0.039449643
0.07761518 0.040407006 -0.208527 -0.024049016 0.024236832 0.18464248 -0.02357917 0.09783677
0.18918903 0.11927471 0.068510756 -0.23414925 0.0918513 -0.018482551 0.007357535 -0.17991008
-0.5202203 -0.20854655 0.012304826 -0.05481316 -0.31084722 -0.5702219 0.017746883 -0.5419939
-0.25851867 -0.12972052 -0.16888514 -0.10608332 -0.1605029 -0.0142441 0.18854544 0.04746348
0.14201172 -0.2665939 -0.049537335 0.058925662 0.18397798 -0.48454508 -0.5780874 -0.020994103
00000000: d551 85be b4f0 89be 5194 dcbe 3e3a dcbd
00000010: bcc3 833e 6fec d8be 91cc 803d 9da7 c6bd
00000020: dc1f 4b3e f1c5 8f3e b0a5 3ebc d69b b1be
00000030: b64d 4c3d 1ffe 38bd f65c a6be abc3 d63c
00000040: 300a f5bd 8466 003c e714 f7bd 06e7 1bbe
00000050: d77c 17bd fea8 c0bd 6cce f03d 54bb 95bd
00000060: 3cbb 21bd 9eda cd3d 7b18 4b3e b0e1 50be
00000070: 9f70 88be 6aad a63d 24e7 a2bd 557a 72be
00000080: 3d2e c5be 5b15 a73d 4b33 adbd ff0b 2e3a
00000090: e733 dbbe d3ea adbd 1c58 e3bc edc4 c53d
000000a0: bee1 32be 8151 3f3e c82e 8fbd 0269 d8bd
000000b0: 7ab5 75bd 00b4 673d fb9e f9bd 1a89 58bd
000000c0: a64c 333d 52cd dabe 1094 c9bd 0772 cbbc
000000d0: 4d93 1a3d a99c 283e 56eb 3a3c d215 86bd
000000e0: 33e4 b63d fb6e 02be 3165 b1be e299 273c
000000f0: 4d48 4e3c 93e6 e13d 07e0 c1bd 84de c03e
00000100: 41e7 5dbe 1878 f5bd 9e75 193d 2aeb 0bbe
00000110: 4c8b af3d 3325 303e f31a c33c 84d0 95be
00000120: 7c2c b13d 4049 d33c 8282 7dbe 03d7 38bc
00000130: 620c 24be 7564 a7bd 75fc 6b3e 66f0 70be
00000140: cfbf 7d3e 7069 953e e7e2 a43d bd87 00bd
00000150: 0872 87be 91f4 82be 8da2 3a3e d894 bebd
00000160: d2fc 3b3e 87ef 073e 9dd2 8fbd 0bad 81bd
00000170: be65 833e 3633 d83d 6b1c 2f3d 7888 ef3d
00000180: df38 b83d 144e e23d c3a7 5c3e 294b 74bc
00000190: 96e9 89be 98d1 60bb 79e6 913d e8b5 afbe
000001a0: d480 debc cf8a cebc b6f0 893e 0b04 93bd
000001b0: 19eb 51bd 33a4 05bf abdd 65be d56f e43d
000001c0: 0e50 3a3e 35a8 58bd a3bc 363d eab0 2e3e
000001d0: fd1c 5bbd b90b 8ebe a25e 743d 5e0d ba3d
000001e0: 9dcc 03be aa9a 57be 2ec9 ab3d 326b 63be
000001f0: 7a6e 84be 1b75 4bbe 888b 12be 817a c5bc
00000200: d63d 473c 6148 25bc 4dac 9d3d a29c a6bd
00000210: 6219 c43d 2604 0cbe a584 5a3e e226 7dbc
00000220: d51c 2fbf fd1d d3be 3196 4bbc d703 e8be
00000230: 24bf 51be d348 a7bd 619b 13be 7cf1 9cbd
00000240: cfd0 0a3d d8ba 06be 95cb 2ebd 31ae cbbe
00000250: 8d6e efbe d24d 2cbf 4797 b6be 8e40 fdbd
00000260: 333f b1be 7a2a 07bd cb98 06bd 2f35 96be
00000270: f699 1cbf 8bef 98bc 2315 f2bd fd2c cbbd
00000280: 3ab9 7f3e 89e1 b4bd 55ab 783d 42e8 8b3e
00000290: 4ae6 a0be 376c a6be d9ad 043d 0118 a23c
000002a0: 40f5 83be ae7f 2e3e 8948 0e3e 8bd5 603d
000002b0: dc4b ccbe 39c8 4ebe 23f3 883d 95e2 78bc
000002c0: 1739 b3be 1a59 a9bd f6d1 6ebd 83c1 2a3e
000002d0: 981c 80be c4b4 9ebe 8daa 21be 1218 333b
000002e0: 931e 1f3e 0686 8e3e 8be0 5ebd d6a1 0bbe
000002f0: febc 4a3c 02b2 473c e419 bdbe 077c 64bd
00000300: 7992 85bd d3c9 6f3e 347d fdbd 6ea6 603d
00000310: 6fd4 f93d db89 c03c 0a63 0e3d dc50 75bd
00000320: 8244 44be 9acb 0dbe c007 0d3e 346f a2be
00000330: 19fc d33d 72cc fb3d 8e67 413e 9cb8 4ebe
00000340: cd2d efbd 20ce 583e 3fad ddbd f68b 0bbe
00000350: cd30 573e 8fd1 aebd b21d 04bd f395 213d
00000360: b5f4 9e3d d181 253d 1a88 55be 7102 c5bc
00000370: 528c c63c eb12 3d3e 1b29 c1bc a55e c83d
00000380: c5ba 413e 4d46 f43d 5e4f 8c3d d2c4 6fbe
00000390: 891c bc3d b868 97bc 7a17 f13b 593a 38be
000003a0: 282d 05bf 3a8d 55be 2e9a 493c c483 60bd
000003b0: 5e27 9fbe 10fa 11bf e961 913c 1dc0 0abf
000003c0: 8f5c 84be 75d5 04be 3af0 2cbe 3642 d9bd
000003d0: df5a 24be 1660 69bc 0e12 413e 1169 423d
000003e0: 856b 113e ff7e 88be a9e7 4abd 095c 713d
000003f0: b964 3c3e 4b16 f8be 89fd 13bf d3fb abbc

fc3.bias f4 [10]
-0.063091375 -0.1212933 0.07431525 0.029768987 0.04296451 0.11738373 -0.07783717 0.027884692
0.1935607 -0.06919603
00000000: 0d36 81bd 9f68 f8bd 9832 983d 17de f33c
00000010: 8efb 2f3d e266 f03d 1869 9fbd 706e e43c
00000020: c734 463e a6b6 8dbd

exp_avg f4 [6, 1, 3, 3]
-0.01959723 -0.049731042 -0.063174136 -0.02468902 -0.0666704 -0.068058506 -0.046864785 -0.075577855
-0.08577138 -0.22397898 -0.11900343 -0.11278469 -0.0773367 -0.09510928 -0.10851958 -0.073556066
-0.05976741 -0.028461238 0.012796675 -0.01778538 -0.030401157 0.03536029 0.023185695 0.0030580966
0.05207516 0.05770825 0.04849985 0.0 0.0 0.0 0.0 0.0
0.0 0.0 0.0 0.0 0.09048954 0.12557247 0.14527841 0.07409036
0.16145547 0.19064367 -0.012622512 0.09600926 0.1681895 0.04720053 0.057441067 0.042769995
0.024329022 0.08186437 0.089285165 0.005813878 0.08446312 0.1232134
00000000: 5f8a a0bc c7b2 4bbd 7161 81bd a140 cabc
00000010: 7e8a 88bd 4262 8bbd 4af5 3fbd 90c8 9abd
00000020: e8a8 afbd bf5a 65be 12b8 f3bd a9fb e6bd
00000030: b462 9ebd a7c8 c2bd 833f debd 90a4 96bd
00000040: acce 74bd 8b27 e9bc 25a9 513c a5b2 91bc
00000050: d90b f9bc f4d5 103d edef bd3c 596a 483b
00000060: c34c 553d 7c5f 6c3d c7a7 463d 0000 0000
00000070: 0000 0000 0000 0000 0000 0000 0000 0000
00000080: 0000 0000 0000 0000 0000 0000 0000 0000
00000090: 9452 b93d 1296 003e ddc3 143e b0bc 973d
000000a0: 9554 253e 1838 433e a7ce 4ebc 81a0 c43d
000000b0: de39 2c3e 5855 413d 5347 6b3d 972f 2f3d
000000c0: a84d c73c 82a8 a73d 24db b63d 5882 be3b
000000d0: 00fb ac3d 4f57 fc3d

exp_avg_sq f4 [6, 1, 3, 3]
0.037167255 0.041109912 0.049791712 0.04222721 0.052810613 0.07149021 0.055416763 0.07553748
0.08753289 0.27848247 0.20741832 0.24188195 0.22137614 0.25762498 0.36375254 0.3066398
0.49784473 0.61950886 0.036989894 0.047102183 0.05366776 0.04429729 0.05747571 0.062449075
0.05354447 0.064406246 0.06738527 0.0 0.0 0.0 0.0 0.0
0.0 0.0 0.0 0.0 0.41210738 0.647218 0.6224537 0.43051308
0.56953406 0.5026976 0.34628764 0.36988783 0.32991236 0.1257084 0.23255084 0.27732903
0.15925582 0.2876781 0.32489854 0.18999432 0.2770997 0.27465764
00000000: b13c 183d de62 283d 65f2 4b3d 70f6 2c3d
00000010: f14f 583d 7669 923d b0fc 623d 65b3 9a3d
00000020: 7244 b33d 4195 8e3e 7865 543e e7af 773e
00000030: 6db0 623e 6ce7 833e c63d ba3e e4ff 9c3e
00000040: 81e5 fe3e 2298 1e3f b782 173d 38ee 403d
00000050: bad2 5b3d 1371 353d a66b 6b3d 9aca 7f3d
00000060: 7251 5b3d 6ce7 833d 4a01 8a3d 0000 0000
00000070: 0000 0000 0000 0000 0000 0000 0000 0000
00000080: 0000 0000 0000 0000 0000 0000 0000 0000
00000090: bdff d23e 14b0 253f 2059 1f3f 366c dc3e
000000a0: fccc 113f cab0 003f 9d4c b13e f061 bd3e
000000b0: 46ea a83e b4b9 003e cf21 6e3e 12fe 8d3e
000000c0: f513 233e 8b4a 933e 1a59 a63e df8d 423e
000000d0: 03e0 8d3e ed9f 8c3e

exp_avg f4 [6]
-0.18551534 -0.3174424 0.013810978 0.0 0.2560785 0.12153754
00000000: bcf7 3dbe cf87 a2be 7147 623c 0000 0000
00000010: b91c 833e ace8 f83d

exp_avg_sq f4 [6]
0.47259486 2.094882 0.37721917 0.0 1.4773095 0.74157894
00000000: f4f7 f13e 8c12 0640 df22 c13e 0000 0000
00000010: 7a18 bd3f 1ed8 3d3f

exp_avg f4 [16, 6, 3, 3]
0.015475216 0.017239429 0.017899292 -0.0012290467 0.006882755 0.013161798 0.0022041094 0.014035107
0.010628628 0.0034756036 0.002512871 0.0005472734 -0.009463512 -0.00048250429 0.008244018 0.0005803036
0.005548877 -0.0011233499 0.044402897 0.0034666925 -0.0020767995 0.021201242 0.007741143 0.02396285
-0.015789071 -0.0015488567 0.021414753 0.0 0.0 0.0 0.0 0.0
0.0 0.0 0.0 0.0 -0.0031601563 -0.006686394 -0.005507527 0.019795733
0.001088945 0.00058180816 0.00026907478 0.0040811207 0.0027105766 0.010548146 -0.0027975945 -0.0011783482
0.004668052 0.003474453 0.0006054776 -0.012267965 -0.0011349319 0.0058959215 0.004100438 -0.0035166317
0.002797495 0.0008438969 0.008150075 0.007822375 -0.0005127984 -0.009389026 -0.0040247277 0.0065824445
0.0022342843 -0.004022567 0.0060832174 0.0106287 0.0070782313 0.0045904745 -0.006296761 -0.007399146
0.016550021 -0.018394945 -0.038870934 0.025813937 0.012762184 -0.012516456 0.036919102 0.015115593
-0.0076148915 0.0 0.0 0.0 0.0 0.0 0.0 0.0
0.0 0.0 -0.0044257226 -0.0009273412 -0.003175662 -0.0018845162 0.0076652784 -0.007917233
0.006736324 0.019780952 0.008888279 -0.0044699227 0.0040232735 -0.010974156 0.0053349305 0.0032965855
-0.0128572155 0.019293103 0.006961563 0.0023312084 -0.017946873 -0.01749622 -0.015934164 -0.012204241
-0.014814873 -0.010703615 -0.02228955 -0.021867651 -0.016908327 0.002777518 0.000530231 0.001617285
0.00050002505 0.0009388601 -0.00086171913 -0.007537033 -0.0073404945 -0.010110417 -0.0030276163 -0.027147884
-0.06511407 -0.014895775 -0.020734271 -0.061408356 -0.017175877 -0.021842228 -0.064157136 0.0
0.0 0.0 0.0 0.0 0.0 0.0 0.0 0.0
-0.004525438 -0.003669456 -0.004478547 -0.012239279 -0.0045487224 0.0010293232 -0.004705038 0.0068540582
0.0041883746 -0.009635419 -0.006559673 -0.007913395 -0.0091038495 0.0063579828 -0.004987473 0.00018871998
0.0022226758 -0.012068806 0.014680347 0.019188516 0.008690456 0.0033156497 0.009846637 0.011935464
0.024110075 0.021573938 0.015254373 0.00338381 0.009239551 -0.0038337226 -0.0030193594 0.0043969615
0.0035394384 0.004803411 0.0005748193 0.00036646563 0.05687976 0.10118684 0.07846533 0.033757087
0.076523185 0.03621109 0.0076445295 0.035018947 -0.006755875 0.0 0.0 0.0
0.0 0.0 0.0 0.0 0.0 0.0 0.014461046 0.016409459
0.027407406 0.0015033928 0.019440275 0.0071499627 -0.01877939 -0.002344876 -0.0049670977 0.010379986
0.02569836 0.020648783 -0.008393955 0.0151621085 -0.0033456807 -0.013006445 0.0030813601 -0.0066671874
0.015636742 0.017412446 0.019583559 0.0120567875 0.013951395 0.024052761 -0.004969992 0.018698065
0.013998218 0.004518338 0.0002817465 0.009547517 -0.0018259023 0.0050837467 0.009325795 -0.013409668
0.010885464 0.0026051316 0.009564539 -0.0037552882 0.0427252 -0.0072073513 0.0106534725 0.0704155
-0.0309863 0.038421337 0.09415933 0.0 0.0 0.0 0.0 0.0
0.0 0.0 0.0 0.0 0.0039462335 0.004380342 0.0055169286 0.005072298
00000000: c38b 7d3c b439 8d3c 89a1 923c f717 a1ba
00000010: bc88 e13b 95a4 573c d272 103b 81f3 653c
00000020: b223 2e3c f4c6 633b fbae 243b e576 0f3a
00000030: d90c 1bbc a1f8 fcb9 eb11 073c 841f 183a
00000040: 5bd3 b53b 5e3d 93ba d0df 353d 7331 633b
00000050: ea1a 08bb 3aae ad3c 6aa9 fd3b bd4d c43c
00000060: 1558 81bc 0203 cbba fe6d af3c 0000 0000
00000070: 0000 0000 0000 0000 0000 0000 0000 0000
00000080: 0000 0000 0000 0000 0000 0000 0000 0000
00000090: a01a 4fbb 8a19 dbbb 7c78 b4bb a92a a23c
000000a0: eeba 8e3a 7c84 183a 9b12 8d39 ecba 853b
000000b0: eea3 313b 22d2 2c3c d957 37bb ce72 9aba
000000c0: 75f6 983b a6b3 633b eab8 1e3a 93ff 48bc
000000d0: ffc1 94ba 9332 c13b f85c 863b 4a77 66bb
000000e0: 2e56 373b f638 5d3a e487 053c 6b29 003c
000000f0: 516d 06ba 6ed4 19bc dde1 83bb 8cb1 d73b
00000100: 126d 123b bdcf 83bb ba55 c73b 0024 2e3c
00000110: 82f0 e73b b16b 963b 0f55 cebb 8974 f2bb
00000120: e993 873c ffb0 96bc 2137 1fbd c077 d33c
00000130: 7b18 513c d211 4dbc 7c38 173d 64a7 773c
00000140: 5786 f9bb 0000 0000 0000 0000 0000 0000
00000150: 0000 0000 0000 0000 0000 0000 0000 0000
00000160: 0000 0000 0000 0000 a705 91bb d118 73ba
00000170: c41e 50bb df01 f7ba 042d fb3b 48b7 01bc
00000180: 62bc dc3b aa0b a23c 25a0 113c 6e78 92bb
00000190: aad5 833b f2cc 33bc a4d0 ae3b 870b 583b
000001a0: 12a7 52bc 920c 9e3c d31d e43b 30c7 183b
000001b0: 5205 93bc 3c54 8fbc 5d88 82bc 4cf4 47bc
000001c0: 15ba 72bc 375e 2fbc 9398 b6bc ca23 b3bc
000001d0: 5583 8abc 0507 363b 33ff 0a3a 14fb d33a
000001e0: 1d14 033a d61d 763a fee4 61ba 37f9 f6bb
000001f0: 8888 f0bb 2aa6 25bc f96a 46bb 3d65 debc
00000200: 875a 85bd 690d 74bc ebda a9bc 5487 7bbd
00000210: 6db4 8cbc 79ee b2bc d164 83bd 0000 0000
00000220: 0000 0000 0000 0000 0000 0000 0000 0000
00000230: 0000 0000 0000 0000 0000 0000 0000 0000
00000240: 204a 94bb 427b 70bb c6c0 92bb 4287 48bc
00000250: 730d 95bb 5bea 863a b82c 9abb 0298 e03b
00000260: a23e 893b e0dd 1dbc 87f2 d6bb 2fa7 01bc
00000270: 5028 15bc a056 d03b f56d a3bb 22e3 4539
00000280: 50aa 113b 3ebc 45bc d785 703c 3c31 9d3c
00000290: 6a62 0e3c 5f4b 593b ca53 213c f78c 433c
000002a0: 7e82 c53c d4bb b03c 7aed 793c e9c2 5d3b
000002b0: 7c61 173c 313f 7bbb 72e0 45bb 6314 903b
000002c0: ecf5 673b ef65 9d3b 78af 163a 2f22 c039
000002d0: c0fa 683d 0c3b cf3d 6eb2 a03d df44 0a3d
000002e0: 30b8 9c3d 1452 143d f67e fa3b 0770 0f3d
000002f0: 6360 ddbb 0000 0000 0000 0000 0000 0000
00000300: 0000 0000 0000 0000 0000 0000 0000 0000
00000310: 0000 0000 0000 0000 06ee 6c3c 216d 863c
00000320: 7f85 e03c 7e0d c53a 3641 9f3c 3c4a ea3b
00000330: 3cd7 99bc 7eac 19bb 09c3 a2bb d110 2a3c
00000340: 5e85 d23c a327 a93c cd86 09bc 7e6a 783c
00000350: 3543 5bbb fc18 55bc a5f0 493b 6c78 dabb
00000360: a018 803c 8ca4 8e3c b36d a03c d589 453c
00000370: 6494 643c 4c0a c53c 51db a2bb af2c 993c
00000380: c858 653c 910e 943b 60b7 9339 306d 1c3c
00000390: 1d53 efba 8f95 a63b 38cb 183c 39b4 5bbc
000003a0: f258 323c dbba 2a3b 96b4 1c3c 481b 76bb
000003b0: 9f00 2f3d a52b ecbb e78b 2e3c 0036 903d
000003c0: fbd6 fdbc b15f 1d3d 9bd6 c03d 0000 0000
000003d0: 0000 0000 0000 0000 0000 0000 0000 0000
000003e0: 0000 0000 0000 0000 0000 0000 0000 0000
000003f0: 684f 813b f988 8f3b 5ac7 b43b 8535 a63b

exp_avg_sq f4 [16, 6, 3, 3]
0.0066060685 0.005921082 0.0061221905 0.0077133845 0.008210522 0.008462318 0.0073253713 0.008654081
0.009353481 0.0005848043 0.0002596397 0.000117611264 0.0012670058 0.0010228389 0.000656637 0.0011671698
0.001334628 0.0011715853 0.04775177 0.015564616 0.0023310285 0.060614493 0.024665723 0.008607631
0.07863133 0.052090146 0.03300907 0.0 0.0 0.0 0.0 0.0
0.0 0.0 0.0 0.0 0.0016063302 0.0004956815 6.079039e-05 0.0015511209
0.00029039083 1.1337764e-05 0.003027056 0.0015122031 0.00062126823 0.0024710502 0.00039411418 8.719649e-06
0.0032347622 0.00078375085 0.0001582602 0.0049710497 0.0026825666 0.0015429616 0.0036838488 0.003425699
0.0039837514 0.0033241622 0.003952989 0.004361374 0.002791275 0.0027919859 0.0021628342 0.000653552
0.0006346071 0.0010174537 0.0007375116 0.0010974467 0.0011191338 0.00054244493 0.0006471789 0.00038371384
0.041364465 0.040397357 0.040697876 0.045543626 0.047845826 0.054693878 0.04020942 0.04728021
0.048779994 0.0 0.0 0.0 0.0 0.0 0.0 0.0
0.0 0.0 0.0017097787 0.0017518577 0.0015632317 0.0022380184 0.0018735027 0.0021885475
0.0025050761 0.0027350616 0.0032249724 0.0032171009 0.0028821672 0.002862476 0.0034337782 0.0032238502
0.004293178 0.003148343 0.0033614016 0.0037910966 0.0048305923 0.0055447924 0.0076689343 0.0050913724
0.0073503987 0.009641447 0.0053750556 0.006265205 0.005089259 0.0002106922 0.000467415 0.001403365
0.0002748711 0.0012200288 0.0023140295 0.0003753486 0.0009085112 0.0008258432 0.016084358 0.019443478
0.040073477 0.013189272 0.037023645 0.090156175 0.014062109 0.052727506 0.1051105 0.0
0.0 0.0 0.0 0.0 0.0 0.0 0.0 0.0
0.0009817941 0.0007348922 0.0009098709 0.0005332229 0.00060713134 0.0018953461 0.00036144475 0.0015089182
0.005072593 0.0009020102 0.00089571415 0.0021357955 0.00044980194 0.0015138693 0.0059403167 0.0004723813
0.0029848507 0.008301588 0.003281232 0.003355803 0.0025016281 0.0022730427 0.0014320661 0.0016040534
0.0017110301 0.0014280581 0.0017050632 0.0009078963 0.00093152706 0.0005003016 0.00048785456 0.00029933915
0.00040129112 0.00026556355 0.00028646016 0.00032093527 0.034736283 0.044573758 0.030269785 0.037262563
0.041017864 0.023746133 0.027312325 0.025362307 0.017201334 0.0 0.0 0.0
0.0 0.0 0.0 0.0 0.0 0.0 0.0012597137 0.0019423892
0.0018907888 0.0020408395 0.0027983014 0.001881937 0.0019377393 0.0019799902 0.0011234619 0.002493009
0.0036844115 0.0024747662 0.003081029 0.003542598 0.0016118996 0.002420165 0.002193751 0.0010591598
0.0045734863 0.006218646 0.007001133 0.0047976845 0.005345013 0.004029806 0.004517632 0.0040698927
0.0029703183 0.00072577526 0.0016095183 0.001852619 0.0007434223 0.0011197722 0.00068393326 0.00064219045
0.0007232052 0.0007127982 0.01805745 0.0449907 0.07181365 0.029571725 0.063458435 0.078800865
0.031543035 0.0540803 0.05546449 0.0 0.0 0.0 0.0 0.0
0.0 0.0 0.0 0.0 0.00049284304 0.000729609 0.0024993164 0.0008309711
00000000: b877 d83b a305 c23b a89c c83b 8fc0 fc3b
00000010: 6d85 063c 89a5 0a3c ab09 f03b d9c9 0d3c
00000020: 583f 193c 8d4d 193a 4020 8839 11a6 f638
00000030: a911 a63a c710 863a 2a22 2c3a b8fb 983a
00000040: afee ae3a e18f 993a 5c97 433d bb02 7f3c
00000050: 2bc4 183b e746 783d c50f ca3c 0507 0d3c
00000060: 7609 a13d 7a5c 553d 8534 073d 0000 0000
00000070: 0000 0000 0000 0000 0000 0000 0000 0000
00000080: 0000 0000 0000 0000 0000 0000 0000 0000
00000090: 7f8b d23a 9ff0 013a 2ff9 7e38 fb4e cb3a
000000a0: 993f 9839 5337 3e37 9361 463b 1e35 c63a
000000b0: 9bdc 223a 58f1 213b 1ca1 ce39 9b4a 1237
000000c0: 4efe 533b a174 4d3a a6f2 2539 30e4 a23b
000000d0: 00ce 2f3b 333d ca3a ba6c 713b b181 603b
000000e0: 218a 823b 30da 593b 1388 813b dbe9 8e3b
000000f0: d3ed 363b c0f9 363b 56be 0d3b 2253 2b3a
00000100: c35b 263a 155c 853a 9155 413a 33d8 8f3a
00000110: e6af 923a dd32 0e3a 71a7 293a 332d c939
00000120: c96d 293d b377 253d d1b2 263d f48b 3a3d
00000130: fcf9 433d b006 603d a2b2 243d e5a8 413d
00000140: 88cd 473d 0000 0000 0000 0000 0000 0000
00000150: 0000 0000 0000 0000 0000 0000 0000 0000
00000160: 0000 0000 0000 0000 a71a e03a 979e e53a
00000170: 5ae5 cc3a b8ab 123b 5290 f53a bc6d 0f3b
00000180: 342c 243b b83e 333b 0f5a 533b ffd5 523b
00000190: bee2 3c3b 6198 3b3b 3d09 613b 3b47 533b
000001a0: caad 8c3b 6e54 4e3b f64a 5c3b 0c74 783b
000001b0: f249 9e3b 17b1 b53b af4b fb3b 87d5 a63b
000001c0: 9ddb f03b 29f7 1d3c 3c21 b03b 594c cd3b
000001d0: ccc3 a63b 42ed 5c39 610f f539 1ef1 b73a
000001e0: 931c 9039 60e9 9f3a f9a6 173b 70ca c439
000001f0: 2829 6e3a 667d 583a 58c3 833c ee47 9f3c
00000200: 1624 243d d117 583c 1ba6 173d cda3 b83d
00000210: c364 663c ccf8 573d 2c44 d73d 0000 0000
00000220: 0000 0000 0000 0000 0000 0000 0000 0000
00000230: 0000 0000 0000 0000 0000 0000 0000 0000
00000240: 8baf 803a c8a5 403a 6784 6e3a fcc7 0b3a
00000250: e527 1f3a 436d f83a 4b80 bd39 e5c6 c53a
00000260: ff37 a63b e174 6c3a 5cce 6a3a b4f8 0b3b
00000270: 65d3 eb39 066d c63a fda6 c23b f2a9 f739
00000280: 7c9d 433b 6203 083c f009 573b 08ed 5b3b
00000290: 5bf2 233b 54f7 143b 2ab4 bb3a 1a3f d23a
000002a0: a544 e03a ae2d bb3a 6d7c df3a e4ff 6d3a
000002b0: b931 743a ac26 033a bbc6 ff39 9ff0 9c39
000002c0: 6264 d239 563b 8b39 0830 9639 3443 a839
000002d0: a247 0e3d f992 363d 57f8 f73c a1a0 183d
000002e0: 5902 283d 4087 c23c 19be df3c 9dc4 cf3c
000002f0: d0e9 8c3c 0000 0000 0000 0000 0000 0000
00000300: 0000 0000 0000 0000 0000 0000 0000 0000
00000310: 0000 0000 0000 0000 fa1c a53a c497 fe3a
00000320: 58d4 f73a 9bbf 053b b563 373b 54ab f63a
00000330: befb fd3a b9c2 013b 2041 933a c061 233b
00000340: 2b76 713b b02f 223b 17eb 493b ef2a 683b
00000350: 6046 d33a a29b 1e3b 09c5 0f3b 81d3 8a3a
00000360: 2fdd 953b c9c5 cb3b c369 e53b e535 9d3b
00000370: 3825 af3b 760c 843b a508 943b bc5c 853b
00000380: aca9 423b f441 3e3a 79f6 d23a 94d3 f23a
00000390: 3ae2 423a 52c5 923a fc49 333a ac58 283a
000003a0: 7b95 3d3a 14db 3a3a 38ed 933c 2b48 383d
000003b0: 0913 933d 6740 f23c 7ff6 813d 5962 a13d
000003c0: 4533 013d 4e83 5d3d bc2e 633d 0000 0000
000003d0: 0000 0000 0000 0000 0000 0000 0000 0000
000003e0: 0000 0000 0000 0000 0000 0000 0000 0000
000003f0: 2332 013a 3b43 3f3a 92cb 233b 87d5 593a

exp_avg f4 [16]
0.026303124 -0.0030194018 -0.035282232 0.04472242 0.032089893 0.02837801 -0.003224263 -0.11058889
-0.009187789 0.029484767 -0.04513383 0.048586585 0.07353618 6e-45 6e-45 -0.0029558484
00000000: a679 d73c 28e1 45bb 1a84 10bd db2e 373d
00000010: b170 033d 0079 e83c 284e 53bb 6e7c e2bd
00000020: 6188 16bc 0a8a f13c 40de 38bd ba02 473d
00000030: 239a 963d 0400 0000 0400 0000 e8b6 41bb

exp_avg_sq f4 [16]
0.032397505 0.014529233 0.025352268 0.010173725 0.018528512 0.013568224 0.08578847 0.031963676
0.010194793 0.0133882845 0.014235636 0.025418302 0.016572513 1.0446371e-13 1.1160658e-08 0.038027678
00000000: 3fb3 043d 050c 6e3c 8faf cf3c b2af 263c
00000010: 1bc9 973c 424d 5e3c deb1 af3d 58ec 023d
00000020: 1008 273c 895a 5b3c 963c 693c 0b3a d03c
00000030: 14c3 873c 3b3b eb29 18bd 3f32 e9c2 1b3d
