checkpoint/model_epoch40_batch8_date09.06-22:11.pth (torch, 730109 bytes, 30 tensors)

conv1.weight f4 [6, 1, 3, 3]
000000 4b e2 c1 bd b7 1a fc 3e 7b 27 1c bf 07 77 04 bf
       -0.0946699 0.49239132 -0.6099774 -0.5174412
000010 37 9b 4d bf 74 62 83 3e 39 15 f1 bd 2f 00 ac 3e
       -0.80314964 0.2566105 -0.11771626 0.3359389
000020 d8 ab e1 bd f6 2d 4e 3e 2f 84 92 bd 9e 8d 42 bd
       -0.11019105 0.2013472 -0.07154118 -0.047498338
000030 08 05 63 be df 62 a8 bd cb 67 5f be 51 45 c2 3c
       -0.22169888 -0.08221983 -0.21816938 0.023714693
000040 7d 7c 95 3e d1 a9 14 3f af 0e 35 bd a4 de 21 3d
       0.2919654 0.5807162 -0.044203456 0.039518967
000050 25 c2 c8 3b f4 fe 5d 3e 30 13 ac 3e 8d 6b e7 3e
       0.0061266595 0.21679288 0.3360839 0.45199242
000060 85 24 03 3d 13 8e 9d 3e c9 a2 15 3f 8a 52 9e be
       0.03201725 0.30772457 0.58451515 -0.30922347
000070 de e1 56 be d6 d3 ac bd 3e 0d 05 be c6 74 93 3e
       -0.20984599 -0.08438842 -0.12993333 0.2880003
000080 ce 3e 5d be 80 20 1d be 23 78 6e be fa d6 9f be
       -0.2160599 -0.15344429 -0.23288016 -0.31218702
000090 61 fc 0a be 92 37 28 3f fd 8c 43 3e 05 b3 3b 3e
       -0.13572837 0.65709794 0.19096752 0.1833001
0000a0 f2 67 8c 3e 62 29 7a bd 4f 0f b4 bc d0 59 34 be
       0.27423054 -0.061074622 -0.021979956 -0.17612386
0000b0 b0 37 88 3c 3f bb 45 be 97 f2 92 3e 7f a7 a3 3d
       0.016628116 -0.1930971 0.28700706 0.07990932
0000c0 64 85 3f be ae b0 20 3e 76 7d f5 3e bf 05 52 3e
       -0.18703228 0.15692398 0.47947282 0.20510004
0000d0 52 c2 13 3e fc 4f ff 3d
       0.14429596 0.12466428

conv1.bias f4 [6]
000000 50 da a0 3e 14 8f 6e be e3 a1 90 3c 9e 51 84 be
       0.3141656 -0.23296767 0.017655319 -0.2584352
000010 c4 57 f1 be a6 cd 04 bf
       -0.47137272 -0.51876295

conv2.weight f4 [16, 6, 3, 3]
000000 c4 e8 cf bd 50 34 8c bb ac 69 96 bd 6d 37 a0 bd
       -0.101518184 -0.004278697 -0.07344374 -0.07823072
000010 fe 2f 98 3d 20 2e 44 bc 7e 57 8e bd 23 21 8b 3c
       0.07431029 -0.011973888 -0.069502816 0.016983574
000020 69 ff 20 3e cb 49 89 bd 5f 45 ab be cb 6c ce be
       0.15722431 -0.06703528 -0.33451363 -0.40317377
000030 bf a4 22 3e cd 81 8c 3e 4e 46 15 be fb 5c db 3e
       0.15883158 0.2744278 -0.145776 0.42844376
000040 2d e7 a1 3e 0d d9 c4 bb 9b 23 88 3d 77 2a 75 be
       0.31621686 -0.00600732 0.06647416 -0.2394198
000050 4e 24 cf be f2 eb 60 3e e3 5b 0c 3e 56 51 37 bf
       -0.40457386 0.21965006 0.13706927 -0.71608484
000060 e8 6c 71 3e 5e 0b 9b 3d df ff bd be c2 26 7f bd
       0.235767 0.075705275 -0.37109277 -0.06229282
000070 86 59 56 3d d2 12 a5 bd 10 56 4c 3d 89 f0 8c 3d
       0.05233147 -0.0806023 0.049886763 0.06881816
000080 fa 82 c7 3d 8d 6a 50 3d 1b eb 09 be 4b ca b4 bd
       0.09741779 0.050882865 -0.13468592 -0.08827647
000090 0e 8a 3c be eb 81 7e be 91 e5 ad bd ad f4 74 be
       -0.18412039 -0.24854247 -0.08491052 -0.23921461
0000a0 8a 18 51 3c 7a 42 62 be ea bb 20 3d c9 ab ae 3b
       0.012762198 -0.22095671 0.03924171 0.005330537
0000b0 63 4b 05 bf 83 2d f4 bc 3d 75 82 be 46 15 48 be
       -0.52068156 -0.029806858 -0.2548007 -0.19539365
0000c0 8a de d0 bd 62 2f 13 be 18 d2 c3 be 4d 9e 26 3e
       -0.10198696 -0.14373544 -0.38246226 0.16271324
0000d0 6c ab 35 3d 23 0c d1 3d 47 af e1 bc 8b f5 69 be
       0.044352934 0.10207393 -0.027549399 -0.22847573
0000e0 c7 86 0d be 60 ce 33 be 23 ec 59 be f2 86 ea 3c
       -0.13820945 -0.17559195 -0.21281485 0.0286288
0000f0 8f 10 d2 bd fb 0a f2 3c 13 6f 23 3e 28 cc 80 be
       -0.102570646 0.029546252 0.1596034 -0.2515576
000100 d5 84 8a be af 4d 5a 3b 6d 21 02 bf 89 08 f2 bd
       -0.27054468 0.0033310463 -0.50832254 -0.11818034
000110 68 5a a4 3e 73 1b 1a be 6c 43 01 3e 9b bf 96 3e
       0.32100224 -0.15049534 0.12623376 0.29443058
000120 42 3f b4 bc a9 11 8b 3b 7e 9f 45 3d e0 20 f3 bd
       -0.02200282 0.0042440486 0.048247807 -0.11871505
000130 85 ff 26 bd 4e a1 3f 3d 6e 95 20 be ad 64 d4 3d
       -0.040771026 0.04678469 -0.15682003 0.10370765
000140 d2 31 b2 3e 0e fd b0 3d b2 4c 04 3e 36 3f 21 bc
       0.34803635 0.08642016 0.12919882 -0.009841731
000150 27 5c fa bd c8 1f 84 bd 3f c4 bd 3d 5c 40 67 ba
       -0.12224608 -0.06451374 0.092659466 -0.0008821541
000160 8c 86 8a bd b6 91 d5 bd a8 1e 1d be e6 1e bc be
       -0.06763944 -0.10428183 -0.15343726 -0.36742324
000170 40 4c 1a be 7e d1 06 bf b5 31 dc be 4b 12 9a bd
       -0.1506815 -0.5266341 -0.43006673 -0.0752302
000180 89 7d b0 be a2 6e 3b be f8 0b b5 3e 6a 30 b6 be
       -0.34470776 -0.18303922 0.35360694 -0.35583812
000190 e9 bc 8f be df 7f db 3b 9b b8 04 bf 77 72 3e be
       -0.28073815 0.006698593 -0.51844186 -0.18598352
0001a0 95 83 4f 3e fe 87 41 be 20 13 04 bd 23 8b b6 3e
       0.20265038 -0.18899533 -0.0322448 0.35653028
0001b0 35 21 03 be 53 90 1e 3d b2 c1 00 3e 2d 44 42 be
       -0.12805636 0.038711857 0.12573889 -0.1897132
0001c0 d3 e8 4b 3e 70 ed 80 3e 77 a7 d9 be 8b ba c0 3c
       0.19913034 0.2518115 -0.42510578 0.02352645
0001d0 82 7b 28 3e 00 33 37 3d 27 16 9c 3e 20 82 53 3d
       0.16453364 0.04472637 0.3048565 0.05163777
0001e0 5c 73 a1 be 5e ac db 3d ba 03 00 3f 85 95 d5 be
       -0.31533325 0.10726236 0.50005686 -0.41715637
0001f0 d6 32 9c be 0f 3d 3b 3e ee 32 bb bd 50 65 94 bd
       -0.30507535 0.18285011 -0.091405734 -0.07245886
000200 33 80 2b be 3e ce 78 bd 32 f2 03 3e 3e 3e 6e 3e
       -0.16748123 -0.060743563 0.12885359 0.23265931
000210 2b c3 63 be 12 76 52 be ba de 5d bc 27 6b 99 bd
       -0.2224242 -0.20552853 -0.013541872 -0.07491141
000220 09 66 a2 bd aa 7c 3e 3d 5b 14 a6 bd a6 92 42 bb
       -0.07929618 0.046505608 -0.08109351 -0.002968946
000230 a8 96 bb 3b a3 a7 b3 3d 4c ac d2 bd 4a 54 bf bd
       0.0057247467 0.087722085 -0.10286769 -0.09342249
000240 6b 7b 6a bd a2 ad 23 3e 9c 1d 8f bd 95 b2 1a 3e
       -0.057246607 0.15984204 -0.069880694 0.15107186
000250 46 eb 24 3e 19 7a 7a 3d 55 8f 04 be 39 c2 85 3c
       0.16105375 0.061151598 -0.12945302 0.016327964
000260 58 58 09 3f 89 5e 8d 3d 6d 7a ff 3d 1b f5 60 3c
       0.53650427 0.06902797 0.12474523 0.013730313
000270 60 bc e4 bc 5c a6 07 3d e4 dc 3d 3e 34 f3 c9 be
       -0.027921855 0.033117637 0.18541294 -0.39443362
000280 02 dd f2 bd 86 a8 a8 3e 06 9e 7d 3d 55 d7 8e 3e
       -0.1185856 0.32941073 0.06191828 0.2789866
000290 1d ab 05 bd 00 66 ea 3d 19 4a ea 3d 3b 1c 56 bc
       -0.03263389 0.11445236 0.11439914 -0.013068254
0002a0 e3 0d c0 bc dc 67 48 bd b0 51 73 be c5 de 13 3f
       -0.023444122 -0.048927173 -0.2376163 0.57761794
0002b0 e0 3d c5 3e 5c 62 76 3e 83 49 43 3d 93 8f 9f be
       0.3852377 0.24060959 0.047677528 -0.31164226
0002c0 43 6e 43 3c 62 80 1e bb 06 85 95 bc 34 d3 86 bb
       0.011928144 -0.002418541 -0.018251907 -0.004114533
0002d0 46 ae 17 3e fc a9 81 3d 1f 02 72 be 43 d4 d7 3d
       0.14812574 0.0633125 -0.23633622 0.105385326
0002e0 87 0c 77 3d dd 89 45 be a8 43 08 3d f4 46 2a be
       0.06031468 -0.19290872 0.033267647 -0.16628629
0002f0 62 fe 84 3d 72 88 bd bc 4e c8 92 bd cc 57 93 3c
       0.06493832 -0.023136351 -0.07167111 0.0179862
000300 cf 75 e6 3d fd ef 22 bd 08 76 a5 bd 75 25 4e bd
       0.11252939 -0.039779652 -0.08079153 -0.05032869
000310 84 1d 0a be d1 9a 7b 3d 21 72 97 be 0d 1e 30 3d
       -0.13487822 0.06142694 -0.2957926 0.04299741
000320 4b 60 1e 3c 31 5f be 3e b9 02 0d 3f 7d d6 12 3e
       0.009666513 0.37182 0.5508228 0.14339633
000330 42 89 5c 3e e0 92 8e bc da 7d bb bd 75 05 47 3d
       0.21536735 -0.01740402 -0.09154864 0.04858919
000340 7c 93 54 3e af 39 c4 3d c1 57 1f 3e 27 40 6f 3d
       0.20759386 0.09581315 0.15560819 0.05841079
000350 d5 aa 0e bc bd 78 1b 3e d2 90 a3 bd 01 dd b4 3c
       -0.008707722 0.15182777 -0.07986607 0.02207804
000360 03 72 2d 3d 48 44 84 bd 41 43 98 3d 17 4f 94 3d
       0.04234506 -0.06458336 0.07434703 0.07241648
000370 f5 09 2f 3e 5a 43 21 3d 53 d2 de bc f9 fe 6d 3e
       0.17093642 0.039370872 -0.0271999 0.23241796
000380 6c e4 c8 3d 6c 83 1d 3e f9 69 ad 3e ec e2 64 3e
       0.09809193 0.15382165 0.33869913 0.22352189
000390 bb 66 94 3e 94 42 d8 3e 26 33 69 bd e3 a6 7b 3e
       0.28984627 0.42238295 -0.056933545 0.24575381
0003a0 d8 0e 66 3c 68 b0 43 3e 66 a8 09 be 70 31 27 be
       0.014041625 0.19110262 -0.13443145 -0.16327453
0003b0 2c c4 b0 bd da 35 b6 bd f2 f4 6b 3e 1c 43 23 be
       -0.08631167 -0.0889699 0.23042658 -0.15943569
0003c0 41 e9 2b be 70 d5 04 bd 09 ca 46 be 30 6d 00 3d
       -0.16788198 -0.032430112 -0.19413008 0.03135413
0003d0 65 ec da 3c 12 ee ce bd 65 9c b9 3c 2b 69 6d 3d
       0.02672405 -0.10104002 0.022657583 0.057961624
0003e0 5c a2 5c 3d 0c 54 8c bc 07 79 e4 bd 73 d9 ab bc
       0.053865775 -0.01712992 -0.11155897 -0.020977711
0003f0 74 e3 a8 3d 7a 70 d0 bd 29 25 41 3e b7 a3 b4 3d
       0.08246508 -0.10177703 0.18861832 0.08820289

conv2.bias f4 [16]
000000 b9 b1 73 3d 50 d4 46 be 41 c2 af bd fe 90 8c be
       0.05949566 -0.19416928 -0.08581973 -0.2745437
000010 15 d6 c9 3c 98 41 ba bd 5a b7 13 3e df 2e 26 be
       0.024638215 -0.09094542 0.14425412 -0.16228817
000020 ef 35 8f be b7 9c 80 bd 31 d8 61 bd 9d bb 2e bc
       -0.27970836 -0.06279891 -0.055137817 -0.010664848
000030 86 61 70 bd 50 69 0d be da 90 67 3e 01 91 7a be
       -0.058686756 -0.13809705 0.2261385 -0.24469377

fc1.weight f4 [120, 400]
000000 02 e6 ae bb a7 c4 49 bd ee f5 14 bd 71 cf fa bb
       -0.0053374777 -0.049259808 -0.03636735 -0.0076541235
000010 62 23 14 bd fa 0c c8 bc 23 de 82 bd dc 5c 82 bd
       -0.036166556 -0.02442025 -0.063900255 -0.06365368
000020 87 6d 3b 3b 6f 4d 1a bd 3f 37 40 bd 6f 66 14 bd
       0.002859922 -0.037671503 -0.046927687 -0.0362305
000030 4c 0f 6b bd 8b 57 67 bd 73 bd 5b 3c cc da 11 3c
       -0.057387635 -0.05647997 0.013411867 0.008902263
000040 1f 5d 21 bc f7 6b 33 bd 91 91 03 39 b9 ab 69 bc
       -0.009848862 -0.043804135 0.00012547361 -0.014262133
000050 8a f8 55 bd 00 5b bc bb 4b c2 ed 3c 31 86 86 bd
       -0.05223898 -0.0057481527 0.02902331 -0.06568564
000060 79 a1 87 bd 80 eb d1 3b 0f 38 1a 3d c7 3c f9 bc
       -0.06622595 0.0064062476 0.037651118 -0.030424489
000070 1a 56 34 3c ad f8 0f 3d a1 0e 85 ba a0 48 31 3c
       0.011006856 0.035149265 -0.0010151454 0.010820538
000080 93 55 4c 3d ef 6b 05 3d c0 5e e6 bc 1a 9e 8d 3b
       0.049886297 0.032573637 -0.028121352 0.0043218257
000090 da 40 d1 3c 75 9d 34 3d 23 c3 4b bd a0 1c 2d 3c
       0.025543619 0.044095475 -0.049746644 0.010565907
0000a0 00 d7 6d bc 56 15 86 bd 9b 6b b1 bb 2a 1f 33 bd
       -0.014516592 -0.06547038 -0.005414439 -0.043730892
0000b0 e5 33 1a bc 3d f7 04 bd 20 c1 5d bd 2c 08 aa bc
       -0.009411787 -0.032462347 -0.054139256 -0.02075585
0000c0 5d 98 89 bc 83 8f ef 3c 80 42 8d 3b c0 db 1f 3d
       -0.016796285 0.029243236 0.004310906 0.03902793
0000d0 40 85 19 3c 27 b6 83 bc ca b7 0a 3d 9a 0f 33 3b
       0.009370148 -0.016078068 0.03386668 0.0027322532
0000e0 cd c1 19 3c 93 bc 83 bc 00 28 3c 39 9a 82 1d bc
       0.009384585 -0.01608113 0.00017943978 -0.009613657
0000f0 da 4a 8b bb 23 b8 1f bd 33 37 a1 b9 3a fe 29 bd
       -0.0042508664 -0.038993966 -0.0003074944 -0.041502215
000100 07 4c df bc d3 61 ed 3c 62 68 0e bd 53 ae 4d bd
       -0.027257932 0.02897731 -0.034767516 -0.050215077
000110 59 39 eb bc c2 a2 f6 bc 27 ae 0a 3c a3 8a 06 bc
       -0.028713869 -0.030106906 0.008464373 -0.0082117645
000120 da dc 10 3c 2f 15 0d bd 67 3f 67 bb f0 15 e5 3c
       0.008841718 -0.03444403 -0.0035285593 0.027964562
000130 6b 25 31 3d 1a 07 6f bb ba 00 ed bc 47 7d 6b 3c
       0.043248575 -0.0036472739 -0.02893101 0.01437313
000140 07 42 e9 3c c7 e5 ff bc 2d b0 ed bc e0 0a b5 3c
       0.028473867 -0.031237496 -0.029014671 0.022099912
000150 9a 97 65 bb ef 6e 41 bd 53 2b ec bc 33 1b a6 3c
       -0.0035032989 -0.047224935 -0.028829252 0.020276641
000160 27 ed 8a bc e2 5b 0d 3d 0f e7 21 3d 80 56 ee 3b
       -0.016958786 0.034511454 0.039526995 0.007273495
000170 5a 8e 81 bb 3e a5 04 bd 28 fa 9b bc 8d 1c 15 3c
       -0.003953737 -0.03238415 -0.019040182 0.009101045
000180 cb 6f 1c bd c5 2c e9 bc 6b fe 6d bd c3 44 68 3c
       -0.03819255 -0.02846373 -0.05810396 0.01417655
000190 90 6c 02 bd 02 18 3b 3d 8d 2c 53 bc 53 a6 ea bc
       -0.031841815 0.045677193 -0.01288904 -0.028643763
0001a0 2a cb c4 3c 4d 40 f4 3b a3 d0 0d 3d e0 fe aa 3c
       0.024022657 0.0074539543 0.0346228 0.020873487
0001b0 bb 4a 45 bd b7 88 01 3d 47 44 1a bc 07 08 b5 bc
       -0.04816697 0.031624522 -0.009415693 -0.022098554
0001c0 1d 0f 02 3d ea 5d 15 3d 48 01 34 bd 4d 26 94 bb
       0.031752694 0.036466517 -0.043946534 -0.0045211674
0001d0 e0 2e 28 3d 7d 34 3b 3b d9 d0 d1 3c 7a ce 09 bd
       0.04106033 0.002856522 0.025612282 -0.033644177
0001e0 e7 f3 e1 bc 58 f5 d8 3c f8 d3 8d 3b 22 f8 00 3d
       -0.027582122 0.026484177 0.004328247 0.031486638
0001f0 aa 16 ab bc cb 7e 03 bd a7 0a c0 bb e8 d5 40 bd
       -0.02088483 -0.03210334 -0.005860645 -0.047078997
000200 93 8d a0 3c e0 0e 17 3d 93 a7 44 3c 9a e2 a1 bb
       0.019598758 0.03687942 0.012002843 -0.004940343
000210 10 15 cb 3c 40 ff 01 bd 1d 58 48 3d 3f a4 4b bd
       0.024790317 -0.031737566 0.048912156 -0.049717184
000220 eb 2f 44 bd 0d 94 41 bc 2d 4a 27 3d 9f c4 3b bc
       -0.04789726 -0.011815083 0.040842224 -0.011460452
000230 1d 4e 9d 3c ab 1e 16 bd b4 9d e1 3a d8 0a b5 bc
       0.019202286 -0.03665034 0.0017213137 -0.022099897
000240 67 83 67 3b 73 a3 10 3d ad 15 ab 3b 2a 1f aa bc
       0.0035326125 0.035312127 0.00522109 -0.020766813
000250 72 81 a0 bc 4f 72 00 bd 87 b2 0d bd b3 ee 82 3c
       -0.019592974 -0.031359013 -0.034594085 0.015982961
000260 b0 be 15 bd d6 45 6e 3c 9c d4 14 bd da a0 e6 bc
       -0.036558807 0.014543017 -0.036335573 -0.028152872
000270 d8 07 7d bc 66 8d 7f bd c9 54 8b bc fc 86 b0 bc
       -0.015443765 -0.062390707 -0.017008202 -0.02154874
000280 d9 0b ac bc 85 21 d9 bc 7c ab bb 3c 4f 0c a7 3c
       -0.021001743 -0.026505241 0.022908919 0.020391611
000290 10 6b 4e bd 4e 19 dc 3b fe 42 64 bd 7b f5 71 bd
       -0.05039507 0.0067168837 -0.05572795 -0.059072
0002a0 27 6a 7a 3c 7e 38 81 bc c2 2a 23 bd 22 94 84 bd
       0.015284098 -0.015774008 -0.0398357 -0.064735666
0002b0 62 e6 12 bd 27 ca 4d 39 f2 96 80 bd c5 f4 46 bd
       -0.03586424 0.00019625631 -0.062787905 -0.048573274
0002c0 33 de cf 3b ed 89 13 bd d7 6b 33 bd 30 d0 9d bc
       0.006343627 -0.03602021 -0.043804016 -0.01926431
0002d0 53 e4 03 bc 53 1a 3a bd 2a c0 08 bd 4d da 56 3b
       -0.008050042 -0.04543526 -0.033386387 0.0032783926
0002e0 e0 1e 41 bd cd 48 e6 bb 6b 3d 04 bd 9a f9 0d bd
       -0.047148585 -0.0070277215 -0.032285135 -0.034661867
0002f0 4a fc a0 3c e8 a1 1d bd 57 34 1b bd 5a 96 e9 3c
       0.01965155 -0.038484484 -0.037891712 0.028514076
000300 ad 29 19 3c 95 83 3a 3d ed f7 5a bc cd d7 c5 bc
       0.009348315 0.045535643 -0.013364774 -0.024150753
000310 cd a0 97 bb cd a0 84 39 87 30 1c 3d 47 ff 4b bd
       -0.0046273232 0.00025296808 0.038132217 -0.049804
000320 80 4f 69 bb fd 2f b5 3c 4d 8f e1 bc 6d 22 d0 bc
       -0.0035600364 0.02211761 -0.027534151 -0.02540704
000330 4d f2 c5 3c 80 3c 44 bd 3a 1d 42 3c ab 8d 1e bd
       0.02416339 -0.04790926 0.0118477885 -0.038709324
000340 b7 98 cb 3c bf 1c 2f bd f3 d2 fb 3c d0 de 41 bd
       0.024853094 -0.042752024 0.030740237 -0.04733163
000350 e8 25 2c bd cd 28 41 3a 15 87 bb 3c cb 63 2f bd
       -0.042028338 0.00073684455 0.02289156 -0.04281978
000360 ef e4 1e bd e3 76 e0 3c 30 f5 cb bc e3 b0 a9 3c
       -0.038792547 0.02740044 -0.024897188 0.020714229
000370 6a 04 45 bd 36 0b 04 bd e1 a4 2b bd b0 a8 2c 3d
       -0.048099913 -0.032237254 -0.041905288 0.04215306
000380 17 00 aa 3c 05 70 15 bd c0 13 04 3c 9a a5 16 ba
       0.020751996 -0.036483783 0.008061349 -0.00057467225
000390 d3 4a a8 bc ba e9 e9 bc c1 8c 07 bd c5 6d 21 3d
       -0.020543491 -0.028553832 -0.033093218 0.039411325
0003a0 b5 cf 12 bd 4f e3 11 bd 27 bd 7c bc 67 04 64 3a
       -0.035842616 -0.03561717 -0.015425957 0.0008698166
0003b0 fa fe 5e 3c 33 a9 c4 3a d3 33 45 bc 69 c1 3f bd
       0.013610596 0.0015004039 -0.012036282 -0.04681531
0003c0 c0 fd 12 bc c7 e2 a4 bc 90 a6 c3 3c 39 7f 85 bd
       -0.0089716315 -0.020127667 0.023883134 -0.065184064
0003d0 e1 42 46 bd 8f 9f 26 bd 5b 20 d2 bc 9b e8 b7 3c
       -0.048403624 -0.04067951 -0.025650194 0.022449782
0003e0 b9 c0 df 3c 2b 4a 32 bd 33 f9 0d bb dd 6b f0 3c
       0.027313577 -0.043527763 -0.0021663427 0.029348308
0003f0 f7 8c b4 3c a2 c0 27 3d 00 c9 b5 ba 88 9a 09 bd
       0.022039874 0.040955193 -0.0013869107 -0.033594638

fc1.bias f4 [120]
000000 29 60 ae bb c1 5e 6c 3d fd 52 f2 3c fa 98 8f bc
       -0.005321522 0.057707552 0.029580588 -0.017529
000010 be 71 43 3a e4 24 d7 3c 3d c1 6f 3d 1f 21 ab bc
       0.00074556086 0.026262708 0.058533896 -0.020889817
000020 c1 7a a0 3c 7e 75 63 bd c1 36 93 bd cd 81 6d 3c
       0.019589784 -0.05553197 -0.07188178 0.014496279
000030 04 3d d4 bc f3 48 7c 3c 66 46 58 bd e3 9d ab 3c
       -0.025908 0.015398252 -0.052801512 0.02094931
000040 61 2e a5 bc bf 30 b8 3c fd 94 a2 bd db 3b 99 bb
       -0.020163717 0.022484181 -0.079385735 -0.004676325
000050 8a fa b9 3d 2f 83 52 3d 15 28 ba 3b 9a 8b 6c bc
       0.0908099 0.051394638 0.0056810477 -0.0144375805
000060 df a6 e4 bc 35 a4 a2 3b 39 5e 1d bd 4f 4e 0c 3c
       -0.027911602 0.0049634227 -0.038419936 0.008563592
000070 0f 4e 66 3d 48 d3 4b bd 4b 42 07 bc 12 f5 54 3c
       0.056226786 -0.04976204 -0.008255552 0.012997882
000080 eb 3d 45 3c d9 24 a9 bb 54 fe 07 3e ac 03 2b 3c
       0.012038688 -0.0051618633 0.13280612 0.010437887
000090 b4 d4 3e bd c0 2d 0c 3d 23 59 7c bd 35 66 1d bd
       -0.04658957 0.034223318 -0.061608445 -0.03842755
0000a0 8c f2 48 bd 1c 60 6c bd c6 8b b6 3d 7a 4c ff b9
       -0.049059436 -0.057708845 0.089133784 -0.0004869437
0000b0 8d 0c af 3c c4 ba bb 3c 9d 59 51 bd ce 93 00 3d
       0.02136829 0.022916205 -0.051110853 0.031390958
0000c0 3a a8 cf bc 7c 19 62 bd 04 1a b0 bc 93 96 22 bd
       -0.025348771 -0.055200085 -0.02149678 -0.03969438
0000d0 67 d2 d0 3d 0a 0f 96 bc 9b 3a 98 bc 5e d4 1f 3d
       0.10196381 -0.018317718 -0.018582633 0.03902089
0000e0 f8 71 a3 3d 31 ec 23 bd e4 df 5e 3d dc b8 db bc
       0.07980722 -0.04002017 0.054412737 -0.026821546
0000f0 ec 64 e5 bc a1 65 d3 3d b8 db a0 bd d9 7d 00 bd
       -0.028002225 0.103221186 -0.07854408 -0.031370018
000100 16 ae 46 bb 03 bb 36 3c 6b 5f 25 bd 2a 06 3b bd
       -0.0030316166 0.0111529855 -0.0403742 -0.045660175
000110 1c 58 98 3d c0 8e 35 bc be 99 4c bd a8 d8 36 bd
       0.074386805 -0.0110813975 -0.049951307 -0.044640213
000120 8d 6e 7b bd c5 b9 3c bd 83 42 a3 bd ea 55 65 bd
       -0.061384726 -0.0460756 -0.079716705 -0.055990137
000130 7d 0a 5a bd 97 92 aa bd b8 b8 f2 3d ac 9c 06 3b
       -0.05323266 -0.08328741 0.118516386 0.002054016
000140 43 cf 2c 3d 26 c7 92 bd ec a6 9c 3d 6c 02 2d bd
       0.042189848 -0.07166891 0.07649025 -0.042238638
000150 43 74 37 3c f7 94 f3 bc ca 9f f3 bc f5 c8 84 bd
       0.011197153 -0.029734118 -0.02973928 -0.06483642
000160 45 70 34 3b 1f 2d 8d 3c bc b7 b9 3c ec 76 be 3d
       0.0027532738 0.01723343 0.02267062 0.09300026
000170 73 20 45 3d ff 5f 52 3d 6d 93 91 bd 67 50 6f bd
       0.04812665 0.05136108 -0.07108197 -0.058426287
000180 3c 77 9c 3b c9 7d 81 3c 11 d2 19 bd 46 16 b5 bb
       0.004774956 0.01580705 -0.03755385 -0.005526337
000190 25 2b eb bc a3 03 23 bd ef fc db bb 36 f4 35 3d
       -0.028707096 -0.03979839 -0.0067135016 0.04442235
0001a0 61 d0 5f 3d 34 43 46 bd c4 a1 6c bc 2e f3 c4 3c
       0.054642085 -0.048403934 -0.014442865 0.024041738
0001b0 ec f1 6c bd 8f ce a5 3d 02 20 f3 3d 63 5e 61 bd
       -0.057847902 0.080960386 0.118713394 -0.055021655
0001c0 25 9e 1b 3d 52 6e 7f 3c c5 52 4e bd 8a 25 11 3d
       0.037992615 0.015590267 -0.050371904 0.03543619
0001d0 6d e0 26 3d 54 d2 04 3d 09 e7 21 bc e5 72 15 3d
       0.040741373 0.032427147 -0.009881743 0.036486525

fc2.weight f4 [84, 120]
000000 f2 dd 5b 3d e2 d2 54 bc fd 27 7c bd 5a 5d bb 3c
       0.05367846 -0.0129897315 -0.061561573 0.022871662
000010 ae 2b 2b 3e 94 32 51 3e 42 57 f6 bb a6 6d fd bc
       0.16715881 0.2042945 -0.007517726 -0.030936074
000020 a4 b8 a1 be 3a 51 87 bd 04 38 c8 bd d4 ec 6e bc
       -0.31586182 -0.066072896 -0.09776309 -0.014582831
000030 11 ba b2 3d 4a a9 06 3d eb 26 2b be 97 7a 3a 3d
       0.087268956 0.03287629 -0.16714065 0.045527067
000040 8b ee 6e 3d cf 8f 58 3e ed c1 22 3d 92 1b 22 be
       0.05833296 0.21148609 0.039735723 -0.1583083
000050 99 46 ee 3d 3e b8 35 bd 40 d2 c8 3d a5 f7 b0 bc
       0.11634559 -0.04436516 0.09805727 -0.021602461
000060 9d c6 75 bc 8e 93 1f bb 7c f9 b6 3c da 9a fa bc
       -0.015000966 -0.0024349424 0.02233576 -0.030591417
000070 fc 88 11 be 3c 57 90 bd 92 eb a7 3d 31 7d 89 3d
       -0.14212412 -0.07047889 0.08199228 0.067133315
000080 ba dd 26 bd 85 67 7b 3d 82 7c 21 be 5b 45 ea bc
       -0.0407388 0.06137802 -0.15770152 -0.028597524
000090 48 14 28 bc 2f cd a1 3e 06 0b b0 bc 2c 5f a8 bc
       -0.010258742 0.31601855 -0.021489631 -0.020553194
0000a0 30 8f 7e be d5 bc 74 bd 3c 17 9e bc 30 8d 30 be
       -0.24859309 -0.059750397 -0.019298188 -0.17241359
0000b0 b3 18 d4 3d 69 80 14 3e 10 9a ca 3d c6 3a a9 bc
       0.103562735 0.1450211 0.09892666 -0.020657908
0000c0 8c 44 94 bd 6b 47 32 3d fd 7f 5b 3e c3 f4 dd bc
       -0.07239637 0.04352514 0.21435542 -0.02709425
0000d0 50 15 19 bd 0f 8b 5f bd f2 30 a0 3d 8e 88 a5 3e
       -0.03737384 -0.054575976 0.078218356 0.32330745
0000e0 76 fa af 3d 99 49 c6 bd 6d 9b 01 3e 95 2f 9f 3c
       0.085926935 -0.096820064 0.12656946 0.019431869
0000f0 93 d2 bb bd 43 15 1a be 49 05 77 bd 7b e5 cd 3b
       -0.09171023 -0.15047173 -0.060307775 0.0062834597
000100 a1 71 93 bd a0 87 68 3d 99 1e 46 3d 7b 90 c9 bc
       -0.07199407 0.056769967 0.048369024 -0.024605026
000110 aa 06 c4 3d 01 50 64 bd 72 0a b3 3d 62 a9 9e bc
       0.095715836 -0.05574036 0.08742227 -0.019367877
000120 a5 59 90 bd 12 4f 93 bc db 43 58 3d eb b9 a2 bd
       -0.07048348 -0.01798204 0.052799087 -0.07945617
000130 a8 f3 82 3d 1c 60 b5 bd 1b 76 ff 3d 83 02 ca bd
       0.0639413 -0.08856222 0.12473699 -0.0986376
000140 b8 d2 95 3e 97 c8 7e bd 0c 1e 92 bd 04 06 81 3d
       0.29262328 -0.062203016 -0.07134637 0.062999755
000150 aa 7a 87 bd 21 82 47 3d 3b 85 fa 3d b2 26 3d bc
       -0.06615193 0.048708085 0.12232443 -0.01154487
000160 fb 60 7c bd b6 13 9d bc d6 c5 2b bd b4 75 0c bd
       -0.061615925 -0.019174438 -0.041936718 -0.034291938
000170 b4 0c 55 be c6 ab 86 3c f0 22 04 3e ee ad 84 bd
       -0.20805627 0.01643933 0.12903953 -0.06478487
000180 41 99 18 bb a4 ae e2 bc 27 91 c9 3d ca da 11 bc
       -0.0023284706 -0.027671166 0.09842139 -0.008902261
000190 90 11 b0 bd a4 9b d8 3d f9 fb 58 3e 54 49 0d 3e
       -0.085971 0.10576561 0.2118987 0.13797504
0001a0 21 e9 fe 3c 61 89 06 3d ee db a2 bd 3c 9a 1c 3e
       0.031117024 0.03284586 -0.079521045 0.1529321
0001b0 d7 8c 20 be 92 df 1d be 95 0d ad bd 86 52 0e be
       -0.15678726 -0.15417317 -0.08449856 -0.13898668
0001c0 f5 0d 0c 3e f4 95 a9 bd 0b fd 17 3d 10 38 5c be
       0.13677199 -0.082805544 0.037106555 -0.21505761
0001d0 42 54 1d 3d 4d d1 0b 3e 44 7b af 3d 80 f8 28 3e
       0.038410433 0.1365406 0.08568433 0.16501045
0001e0 14 66 81 3b 66 79 a6 3d 28 68 05 be 15 ba 2d bd
       0.0039489362 0.08128624 -0.13028014 -0.04241379
0001f0 a9 72 c7 3d 7b cc be 3d 4f b0 f5 bb 99 dc 81 bc
       0.097386666 0.09316345 -0.0074978243 -0.01585226
000200 b2 59 60 3e b9 0d 8d bd 34 c8 bf bc b6 b2 7b bd
       0.21909216 -0.06887383 -0.023410894 -0.06144973
000210 33 b0 6a bb 2b ec c8 3d e4 21 cf 3d c7 c1 a8 bc
       -0.003581059 0.098106705 0.10113886 -0.020600213
000220 49 7e ac 3c 8e ff 8c bc 61 f0 36 be 3d f3 10 be
       0.021056311 -0.017211702 -0.17865135 -0.14155288
000230 e9 e2 52 3e 18 d8 60 3e 54 36 09 be 38 fc cb bd
       0.20594372 0.21957433 -0.13399631 -0.09960216
000240 0f 61 7a 3d d6 d3 e8 3d b1 58 98 3b f1 b7 e0 bc
       0.06112772 0.113685295 0.0046492447 -0.02743146
000250 59 9d 14 3e 5c 82 a2 bd 42 c0 f4 bd 25 dc 6c bd
       0.14513148 -0.0793502 -0.11950733 -0.057827134
000260 4c 57 62 bd e8 ed 10 be c2 d8 75 3e b4 6f 7f 3d
       -0.055259034 -0.14153254 0.24008468 0.062362388
000270 85 a4 c4 3d 80 64 5c 3e 6a 2c 96 bc 3f 59 32 3d
       0.09601692 0.21522713 -0.018331725 0.043542143
000280 e2 35 75 be 54 b7 a1 bd 26 3e 52 be b1 d4 01 be
       -0.23946336 -0.07896295 -0.2053152 -0.12678792
000290 40 a1 1e bd 48 e6 98 bd 7b b0 84 bd d9 36 9d 3e
       -0.038728 -0.07465798 -0.064789735 0.30705908
0002a0 e8 b7 90 bd b2 12 68 bc 40 e9 43 be 30 1f dd 3c
       -0.07066327 -0.014164614 -0.19131947 0.02699241
0002b0 af 86 e9 bc 3a 64 e4 bb 1f 72 b5 bc a9 d5 73 3e
       -0.028506605 -0.0069699557 -0.022149144 0.23811974
0002c0 64 b5 fc 3d af f1 44 3c 4f c7 ac be 84 17 90 bd
       0.12339285 0.0120205125 -0.3374581 -0.07035735
0002d0 c0 31 c7 3b 39 76 51 be ad e7 74 bd d7 c3 b4 bd
       0.0060789287 -0.20455255 -0.059791256 -0.08826416
0002e0 6d d8 1f bd d1 89 a0 3d c3 3e 28 bd ab 99 4d bb
       -0.03902476 0.078387864 -0.04107548 -0.003137211
0002f0 8c dd 90 be 17 fd 36 bd e0 7e 9d bc 65 37 98 3c
       -0.28294027 -0.04467496 -0.019225538 0.018581102
000300 2c e7 90 bd 70 fe f3 bc bb 09 84 3d ab 3e 3a bd
       -0.070753425 -0.029784411 0.064471684 -0.04546992
000310 3a 08 4f 3c 6f 93 35 bd 85 16 39 be 87 2a 0f 3e
       0.012636239 -0.044330057 -0.18074997 0.13981067
000320 57 f6 9c bd ee 3b 2f 3d bd 2d 00 3e 63 b7 85 bc
       -0.07664173 0.042781763 0.12517448 -0.016322797
000330 8f 7f e1 3c 2f c2 6e 3b e4 d4 24 3d 00 f1 96 3d
       0.027526645 0.003643166 0.04024209 0.07370186
000340 f0 fd 27 3d 6a ee 8a bd e8 92 a2 be 45 ad c8 bc
       0.041013658 -0.06783755 -0.31752706 -0.024496684
000350 6d e8 14 be ff 78 22 ba b4 c5 d8 3d f2 70 2e bd
       -0.14541788 -0.00061978394 0.10584584 -0.04258818
000360 37 ec 74 bd c1 ad ac bd 64 05 b3 bd a5 b7 98 bd
       -0.059795585 -0.084315784 -0.087412626 -0.074569024
000370 6d 3b a6 3c 62 e0 d8 bd d6 cb aa 3d d4 be f6 3b
       0.020292008 -0.105896726 0.0833966 0.0075300727
000380 b8 cf 5d bd 7a 66 d1 3d 2c 6b b8 bd 7c 49 42 3e
       -0.054153174 0.10224624 -0.090048164 0.18973345
000390 9c e3 33 bc 55 12 90 be d5 84 9d 3d 2f bd a6 3e
       -0.010979559 -0.28138986 0.07691351 0.3256621
0003a0 6e b9 d6 3d 57 cc 10 3c f6 40 84 3d f8 42 18 3e
       0.10484587 0.008837781 0.06457703 0.14869297
0003b0 47 0d 87 bc 8e 33 20 3d 49 1c 42 bc 88 97 6e be
       -0.016485823 0.039111666 -0.011847564 -0.23299992
0003c0 90 86 37 3b f6 af 10 3e 0c 2e a9 3d 6b dd fc 3c
       0.002800379 0.14129624 0.08260736 0.030867299
0003d0 6a 51 b3 3e 8a f8 47 bc ab 08 23 be 7e aa bc 3b
       0.35023052 -0.012205252 -0.15921275 0.005757629
0003e0 f2 9b c9 3b 8c 53 c0 bc 8a 6b 83 3e b3 b3 41 3c
       0.0061526233 -0.023477338 0.25667983 0.011822629
0003f0 68 2e 99 bd a4 67 30 3e bb 73 a1 3d c2 10 eb bd
       -0.074795544 0.17227036 0.07883402 -0.11477806

fc2.bias f4 [84]
000000 8e fa 07 3e 4f 56 49 3d 48 20 d3 bd 8a 7b 79 bd
       0.13279173 0.049154576 -0.103088915 -0.06090883
000010 7a 9c d0 3d ba 1d c0 3d f7 14 13 be 98 70 15 be
       0.101860955 0.0938067 -0.14363466 -0.14593732
000020 d0 d3 27 3e 38 56 93 bd f0 8c 97 bc 50 a4 3d bd
       0.16389394 -0.07194179 -0.018499821 -0.04629928
000030 e8 a0 94 bd f7 98 f9 3d cc 34 b0 3b 9d 13 d8 3c
       -0.07257253 0.12187379 0.0053773876 0.02637654
000040 c3 80 52 bd 96 7b ad 3c 5f d8 2d 3e 6f 47 32 bd
       -0.051392328 0.021177094 0.1697707 -0.043525156
000050 ab 9f 82 bb d8 a1 87 3b 36 de b2 3d 86 79 6a bd
       -0.003986319 0.0041391663 0.087337896 -0.0572448
000060 55 1e bb bd 34 c2 b5 bc 3e 85 6e 3d 03 3a 5b 3d
       -0.09136645 -0.02218733 0.05823254 0.05352212
000070 86 1b e9 3c 30 e3 92 bc 6d 6f 6b bd db c2 0b 3d
       0.028455507 -0.017930597 -0.05747931 0.034121376
000080 e5 45 0f bd 8b 01 e6 3a 8f 27 30 3d e8 5d ef 3d
       -0.034978766 0.0017548067 0.043006476 0.11687833
000090 ad 2e 9d 3d 2b 24 11 3e 5e a3 0f be c4 c7 a2 3c
       0.07674918 0.14173953 -0.14027163 0.019870646
0000a0 28 ed 96 3d e3 d0 e0 bd 1c 3a eb bd 90 b1 2c 3d
       0.07369453 -0.10977342 -0.11485693 0.042161524
0000b0 96 f2 ee 3c 4c 7c 06 bc 35 ae 6b bd 3f b5 73 3d
       0.029168408 -0.008208346 -0.057539184 0.05949902
0000c0 dd 48 11 3c d5 b1 98 3d 1e db 08 3e 2c 45 8d bc
       0.00886747 0.07455794 0.13364837 -0.017244898
0000d0 2c 14 15 3e 2b 01 1a be 37 8f 23 3e 0e 91 ae 3d
       0.14558476 -0.15039508 0.15972601 0.08523761
0000e0 3e 2c 27 3d 6a 5e b8 3d 49 6d 2d 3e 38 f9 34 3d
       0.040813677 0.09002383 0.1693622 0.044182986
0000f0 93 07 11 3d e3 0e bf bd d0 95 46 bd 18 bf f3 3c
       0.035407614 -0.09329011 -0.048482716 0.029754207
000100 de e6 5a 3c 78 c3 64 3c 63 73 b9 3d e8 25 0a be
       0.013360707 0.013962619 0.090552114 -0.13491023
000110 6e c1 17 3e 7c 9a ab 3d 7b b4 44 3d 1b ec 9a bd
       0.14819881 0.08379075 0.048023682 -0.07564565
000120 83 c7 27 3d 55 76 c0 bd cf 20 6f bd 55 d7 09 3d
       0.040961754 -0.0939757 -0.058380898 0.033652622
000130 fc 8c bd 3d 2e 65 61 3d 76 30 1f 3c b7 15 aa bd
       0.09255406 0.055028133 0.009716144 -0.08304923
000140 12 03 05 3e 82 09 9f bd 0b a0 c6 3c 9c 61 36 bd
       0.12989452 -0.07765485 0.024246236 -0.04452668

fc3.weight f4 [10, 84]
000000 1d 6d b8 bb 72 ee ae bd 1e 1d e6 bd 9c e6 94 be
       -0.0056282417 -0.085415736 -0.112360224 -0.2908219
000010 ec 7b c7 bd 2b 88 85 be 4b 13 21 3d 6b c7 b8 bd
       -0.09740433 -0.2608045 0.03932504 -0.09022411
000020 27 98 d8 3d a3 95 54 3e 76 e9 1b be 3c e9 9d bd
       0.10575896 0.20760207 -0.15225777 -0.077105016
000030 63 1c 3a 3e 1a aa 31 be 8d e2 d0 be 8f b0 d4 3c
       0.18174891 -0.17350045 -0.40797845 0.025963096
000040 19 03 0b bd af 5d 2b be 24 4e 59 be 23 fb 00 be
       -0.0339385 -0.16734956 -0.21221215 -0.12595801
000050 ed 5b f4 bd 23 63 97 3b 9d dd 0e 3e de 6b 81 3d
       -0.11931596 0.0046199723 0.13951726 0.06319402
000060 dd 45 e2 ba 00 4e b2 3d a5 4d 40 3e 16 7c 85 be
       -0.0017263253 0.087062836 0.18779619 -0.26071233
000070 e9 73 64 bd b6 4b 9f 3e 58 2b 84 be c3 93 c6 be
       -0.055774603 0.3111245 -0.2581432 -0.38784608
000080 4a ba 84 bd ac 71 24 3e db ab f8 bd 6e 55 e7 bd
       -0.06480844 0.16058987 -0.12142154 -0.11295591
000090 91 2e 85 be 81 17 85 be 65 1b 8a be 22 e9 2a 3e
       -0.2601209 -0.25994495 -0.26974025 0.16690496
0000a0 bf c6 59 be 04 7e 93 3b f0 69 2c be 68 89 f4 bd
       -0.21267222 0.004501106 -0.16837287 -0.11940271
0000b0 0d 0a 98 3d 95 9f bc 3d be bb b0 3c 9e ce 92 bd
       0.07423792 0.09210125 0.021573897 -0.07168315
0000c0 02 92 3b 3e 2b 7d d8 be ba ba 1e be 98 89 90 be
       0.18317416 -0.42282996 -0.15500918 -0.28229976
0000d0 57 c6 68 bd 78 72 2a 3d 5e a3 0b 3e 0c 91 52 be
       -0.056829777 0.041613072 0.13636538 -0.20563143
0000e0 7f be a7 3d e3 b1 b5 bd cc 44 e3 be 40 5c 00 3e
       0.08190631 -0.0887182 -0.44388425 0.1253519
0000f0 70 8a b5 bb ec 95 7a 3d aa 10 af bd d5 ce 38 3d
       -0.0055401847 0.061178133 -0.085481 0.045119125
000100 59 a2 87 be d1 5e 70 be 8d 3d a6 3d 35 96 e2 bb
       -0.2649105 -0.2347367 0.08117209 -0.0069148787
000110 ab aa aa 3d b4 7a 44 3e 5e df 33 3e 0f 1e c3 3c
       0.083333336 0.19187433 0.17565677 0.023818044
000120 18 5e 4a 3d 93 f0 84 3c 65 5a 19 be 53 de 0a 3e
       0.04940614 0.016227996 -0.14975889 0.13561372
000130 d5 7b 66 be b6 3c 62 bd 2c c8 59 3e 46 f0 93 3d
       -0.22508176 -0.05523368 0.21267766 0.07223563
000140 80 fc 3b 3e 84 c1 a6 3d 77 b8 b7 3d d5 57 e5 bc
       0.1835804 0.08142379 0.08970731 -0.027995983
000150 06 7d 41 be fe b8 61 be 27 9d 4f 3e 98 e7 43 be
       -0.18895349 -0.22043225 0.20274793 -0.19131315
000160 75 97 35 be 44 6e 08 3e 2a cf 83 bc a8 0d f7 be
       -0.17733558 0.13323313 -0.016089994 -0.48252606
000170 9d c1 81 3e e7 a9 02 3b 89 f1 88 3d 3f 72 ca bd
       0.25343028 0.0019937695 0.06686694 -0.09885072
000180 a7 73 2b bd 28 d4 9f 3d a8 57 75 3e 39 27 ee be
       -0.04185834 0.078041375 0.2395922 -0.465143
000190 20 73 bd bd c0 f4 dc 3d 1a 8b 3c 3d 2a be 8d bd
       -0.09250474 0.1078887 0.046031095 -0.069210365
0001a0 f7 3e db be f5 e8 07 3e 58 d3 11 3d df 64 a5 3d
       -0.42821476 0.1327246 0.035601944 0.0807588
0001b0 be 3c 37 bd e4 09 8c be 37 96 04 be 4f 81 45 3e
       -0.044735663 -0.27351296 -0.12947927 0.19287609
0001c0 4e b8 60 3e 32 ac a5 3d 82 3e fc 3d 5e d9 75 3d
       0.21945307 0.08089484 0.1231661 0.06002175
0001d0 c3 49 1e 3d 5e 43 39 be 9f f2 ff 3d bc 30 bf 3d
       0.038644563 -0.18092105 0.12497448 0.09335467
0001e0 1d 15 9b bd 58 31 4f be 9f 78 02 3e f6 6d 91 bb
       -0.075723864 -0.20233667 0.12741326 -0.004438157
0001f0 e3 0f 05 3e 58 01 81 bd d6 4c 44 bc 6c fa d0 39
       0.12994342 -0.062990844 -0.01198121 0.0003985943
000200 5c b9 54 bd ed 3f 38 3c dd 58 61 3e 5a 2e 19 bf
       -0.051934585 0.01124571 0.22006555 -0.5983635
000210 c3 72 1d 3e 0c 7d 1f be ce df 66 3e 9e 9b 6f be
       0.1537581 -0.15575045 0.22546312 -0.23399207
000220 88 9b 95 be 8d 4c b6 bd 79 fe fc be 74 bc 9f be
       -0.29220223 -0.0890132 -0.49412897 -0.31198466
000230 7c 55 84 be a7 dc ee b8 18 94 c1 bd da 6b 47 3e
       -0.2584647 -0.00011389824 -0.09452075 0.19474736
000240 78 6f 20 3d d8 05 36 3d 38 97 63 3e 63 56 bc bd
       0.039168805 0.044439167 0.22225654 -0.091961645
000250 fc 28 92 bd 50 00 f9 bd c0 48 92 be 32 72 8c 3b
       -0.071367234 -0.12158263 -0.2857113 0.004286074
000260 57 77 d5 be 36 ec 05 3e 61 f0 50 be 6d b9 0c bd
       -0.41692612 0.13078389 -0.20404197 -0.034356523
000270 94 b2 0e bf 0d d2 9d bc d7 42 64 3d 62 3d 2d be
       -0.5574124 -0.0192652 0.055727806 -0.16917947
000280 af f7 95 3e 74 90 02 bf 8d 20 2a be 86 8c 9d 3d
       0.2929053 -0.5100167 -0.1661398 0.07692818
000290 64 e7 96 be 41 b2 7b bc b5 84 f1 3c 85 e8 d5 bb
       -0.29473412 -0.015362323 0.029482225 -0.0065279626
0002a0 11 20 8d bd 9e 19 2c be 53 ac 23 3e d6 06 7f 3e
       -0.06890882 -0.16806647 0.15983705 0.24904951
0002b0 d6 74 9d be 74 eb 23 be 79 bc 86 bd 35 5e 4e be
       -0.307532 -0.16007787 -0.06578917 -0.20153125
0002c0 49 d3 88 be 7c d2 85 be a1 84 b8 be f6 fb 14 be
       -0.26723698 -0.2613715 -0.36038688 -0.1454924
0002d0 a7 68 ee be ab 39 25 be 2e 58 0a be 1e 99 0c 3e
       -0.46564218 -0.1613528 -0.135102 0.13730285
0002e0 fd 5d 11 3d da 9a 38 3e 2f 4d 24 be 78 d8 64 bd
       0.035490025 0.18027821 -0.16045068 -0.055870503
0002f0 02 ef 0c 3e 4a 07 b1 bd f3 82 92 be be f9 e4 3d
       0.13763049 -0.086439684 -0.2861553 0.11180447
000300 6f 93 a3 bd 81 09 35 3e 81 d4 10 be 51 33 2c 3c
       -0.07987105 0.17679407 -0.14143564 0.010510282
000310 1d e4 98 3d 5a 6e 80 3c b5 97 fd 3d 43 cf 50 bd
       0.07465384 0.01567762 0.123824514 -0.05097891
000320 b8 92 80 bd 29 96 3a be 5c 2a 58 3e af da 44 be
       -0.062779844 -0.18221344 0.21109909 -0.19224046
000330 66 a1 13 3e 37 50 20 3e 1d 69 d4 3d 82 e1 9a bc
       0.14417037 0.156556 0.10371611 -0.018906359
000340 71 b5 23 be d7 2e d0 bd fc 70 c2 bd e0 16 f7 bd
       -0.15987183 -0.10165184 -0.09494206 -0.1206491
000350 4c a2 75 3d de f0 a7 bd f3 66 87 bd e4 da b7 3d
       0.05996923 -0.08200239 -0.06611433 0.08977297
000360 63 0a 03 3e a6 25 c2 3d 2a 87 be be 83 97 36 be
       0.12796931 0.09479837 -0.37212497 -0.17831235
000370 3b ff 60 3d 34 08 01 3d b3 ec 04 bd 93 b6 ef 3d
       0.054930907 0.031501964 -0.032452296 0.11704745
000380 8a 8f 28 3e c7 9d d3 3d 48 b6 fb 3c 37 d3 71 be
       0.16461006 0.10332828 0.030726567 -0.23615728
000390 69 a9 74 3e 72 a8 8b be d6 f7 1a 3d 9e c4 81 bc
       0.2389275 -0.2727695 0.03783401 -0.015840825
0003a0 34 3a c9 bd 8a f8 77 3c fb 74 8b bd b5 8a a0 bc
       -0.098255545 0.01513494 -0.06809422 -0.01959739
0003b0 1d f8 9a be 02 c6 f6 be 3f 2f b8 3d 3e 10 a9 be
       -0.3026742 -0.48197943 0.089933865 -0.33020204
0003c0 72 ec fd 3d 31 91 e9 bd 04 df b4 bd b0 2d 7f bd
       0.12398614 -0.11404646 -0.08831599 -0.06229943
0003d0 f8 46 42 be 1a 92 2a bd 9e 56 50 bd d0 3e 82 3c
       -0.18972385 -0.04164324 -0.050863855 0.015899092
0003e0 dc 79 dc 3d 46 c6 b4 bd 54 54 8a bd e1 bd 81 3d
       0.1076543 -0.0882688 -0.067543656 0.06335045
0003f0 91 9a 8f 3d 58 e7 e0 be ec 2f 82 be fb 5f 06 3e
       0.07011903 -0.439265 -0.25427186 0.13122551

fc3.bias f4 [10]
000000 a6 79 fb bd 9d 57 a0 bd 52 2d ad 3d d9 a7 c8 3d
       -0.12279062 -0.07829211 0.0845591 0.097976394
000010 26 86 ba 3d 4d f4 0b 3e f5 ae ee bd c3 b6 a1 bd
       0.09107618 0.13667412 -0.11654464 -0.07896187
000020 41 d7 10 3e b2 b4 b8 bc
       0.14144613 -0.0225471

exp_avg f4 [6, 1, 3, 3]
000000 74 4a 67 3b 04 ae a5 ba 81 74 b1 3b 05 b5 3e bc
       0.003529218 -0.0012640362 0.0054154997 -0.011639838
000010 8d 68 e7 3b 19 fd 14 3b 10 71 be bb 6d bf 17 bc
       0.007062024 0.0022733866 -0.005811818 -0.009261948
000020 df eb 4b bb 5a ae 95 3d cf eb 31 3e 5f a5 4d 3e
       -0.0031115932 0.073086455 0.1737511 0.20082615
000030 d4 2a 89 3d 1b 8a 3c 3e cc 8c 6b 3e 69 6b 0f 3e
       0.06697622 0.18412058 0.23002928 0.14005817
000040 22 ad 67 3e bd 6f 7b 3e fa d8 d7 bd 24 6e 95 bd
       0.22624639 0.24554344 -0.10539432 -0.07296398
000050 9e 50 24 bd 19 f0 b2 bd 5b 48 b9 bd 0f 5e 79 bd
       -0.040115945 -0.08737201 -0.09047004 -0.060880717
000060 34 f4 cf bd 55 21 92 bd e7 6f 72 bd 00 00 00 00
       -0.10154 -0.07135264 -0.05918875 0.0
000070 00 00 00 00 00 00 00 00 00 00 00 00 00 00 00 00
       0.0 0.0 0.0 0.0
000080 00 00 00 00 00 00 00 00 00 00 00 00 00 00 00 00
       0.0 0.0 0.0 0.0
000090 7a 96 42 3e b9 e7 9f 3e 17 64 b1 3e fc 29 84 3e
       0.19002715 0.31231478 0.34646675 0.25813282
0000a0 dc ec 97 3e 9b b6 93 3e be e9 4e 3e 09 94 72 3e
       0.29672897 0.28850254 0.20206353 0.23689283
0000b0 20 44 78 3e 55 62 d4 3d a2 b4 38 3e c4 ad 5e 3e
       0.24244738 0.10370318 0.18037656 0.21745974
0000c0 0b 2b 04 3e db 4f 4f 3e 66 36 76 3e 85 bb 37 3e
       0.12907045 0.20245306 0.24044189 0.17942627
0000d0 5c e2 45 3e f0 6f 51 3e
       0.1932463 0.20452857

exp_avg_sq f4 [6, 1, 3, 3]
000000 b7 a8 81 3c 92 ff a6 3c de 37 60 3c 1a 4f d1 3b
       0.01582752 0.020385537 0.013685195 0.0063876035
000010 cc 9a bd 3b 11 75 c5 3c b4 a5 87 3c aa 3b f5 3c
       0.0057862755 0.024103673 0.016558506 0.029935677
000020 f0 fe 14 3d 40 c5 9d 3e 42 2e 8a 3e 39 d0 8a 3e
       0.03637594 0.30814552 0.26988417 0.27111986
000030 db c6 93 3e f3 b9 c2 3e c3 a4 c9 3e 0f b6 d4 3e
       0.28862652 0.38032493 0.39383516 0.4154515
000040 32 81 2a 3f 6f 3c 45 3f c9 2e 72 3d 1c 19 69 3d
       0.66603386 0.7704534 0.05912665 0.05690871
000050 42 6b 77 3d 81 e1 84 3d 6a 7e 6e 3d 1f 53 84 3d
       0.060405023 0.06488324 0.058226027 0.064611666
000060 5d 0a 7a 3d 6a ef 73 3d af a1 87 3d 00 00 00 00
       0.06104504 0.059554495 0.066226356 0.0
000070 00 00 00 00 00 00 00 00 00 00 00 00 00 00 00 00
       0.0 0.0 0.0 0.0
000080 00 00 00 00 00 00 00 00 00 00 00 00 00 00 00 00
       0.0 0.0 0.0 0.0
000090 00 d4 ef 3e 79 de 37 3f a8 00 1f 3f 8e 8f 01 3f
       0.4684143 0.7182384 0.62110376 0.5060967
0000a0 0e 84 19 3f e1 40 f6 3e 97 48 ad 3e 5c e7 aa 3e
       0.59967124 0.48096374 0.33844444 0.33379638
0000b0 f9 40 b0 3e 4d 59 25 3e ee 2b 96 3e 8f 1a a0 3e
       0.3442457 0.16147347 0.2933039 0.31270263
0000c0 10 88 45 3e 4d 62 ad 3e 76 87 c8 3e b1 98 7e 3e
       0.19290185 0.3386406 0.39165848 0.24862935
0000d0 12 e0 a6 3e cc d6 a6 3e
       0.32592827 0.32585752

exp_avg f4 [6]
000000 08 37 6d be 18 09 88 3e f1 5c 9d 3e 00 00 00 00
       -0.23165524 0.26569438 0.3073497 0.0
000010 78 23 c8 3e 48 5f 99 3e
       0.3908956 0.29955506

exp_avg_sq f4 [6]
000000 55 73 81 3f b5 8c 00 40 21 17 ce 3f 00 00 00 00
       1.0113322 2.008588 1.6100808 0.0
000010 b3 7b d3 3f 3a ef 6f 3f
       1.6522125 0.93724406

exp_avg f4 [16, 6, 3, 3]
000000 ab 72 36 bd a7 54 52 bd 2c 08 32 bd 34 6c f7 bc
       -0.04454295 -0.051350262 -0.043464825 -0.030202962
000010 b4 f5 13 bd 2d f4 29 bd e9 44 90 bc e3 04 a9 bc
       -0.036122993 -0.04149263 -0.017610984 -0.020632213
000020 79 62 16 bd c1 f8 28 bb c5 0a 54 3b 83 16 b0 38
       -0.036715005 -0.0025783035 0.0032355052 8.396527e-05
000030 15 fb 3e bc 1a 90 3f bb 9c 7d c4 ba 30 5b 67 bc
       -0.011656542 -0.0029230178 -0.0014991048 -0.014120862
000040 51 ea 12 bc be b8 0b bb 99 13 99 bb c8 fa b9 3b
       -0.008966998 -0.0021319832 -0.0046715257 0.0056756474
000050 c4 76 1b bc c8 10 8d bd f9 96 0f bd 1f 3a b6 bc
       -0.009488765 -0.068879664 -0.035056088 -0.022244511
000060 e4 df d3 bd 40 e0 9e bd f3 1e 1c bd 00 00 00 00
       -0.10345438 -0.07757616 -0.038115453 0.0
000070 00 00 00 00 00 00 00 00 00 00 00 00 00 00 00 00
       0.0 0.0 0.0 0.0
000080 00 00 00 00 00 00 00 00 00 00 00 00 00 00 00 00
       0.0 0.0 0.0 0.0
000090 9e a4 25 3c d9 f6 7f 3b ac 4b 08 b9 fc 4f 97 3b
       0.010110049 0.0039057045 -0.0001299816 0.004617689
0000a0 f0 9a b6 3b 7c 7d 1e b9 81 5e 65 bc 77 9b cc bb
       0.005572669 -0.00015114801 -0.013999582 -0.006244119
0000b0 8d 68 a8 ba ab 4a c8 3b d9 31 f7 3a 96 de ec b9
       -0.0012848541 0.0061124167 0.001885946 -0.00045179267
0000c0 50 04 14 bb a5 07 29 3b e9 45 4b b8 5e 0b a7 bc
       -0.0022585578 0.002579191 -4.846408e-05 -0.020391162
0000d0 cc 76 ea bb ee ea a2 3a 72 78 04 39 66 7f 22 bb
       -0.007155275 0.0012429634 0.0001263337 -0.0024795174
0000e0 5e 17 83 38 f9 e8 12 bb 68 10 7b 3b e1 20 51 3c
       6.250919e-05 -0.0022416695 0.003830934 0.012764187
0000f0 a4 52 02 3c 5f 1a 08 3c b8 1b 45 3b 9f 37 29 3a
       0.007954273 0.008307069 0.0030076336 0.00064551266
000100 a7 7b 8a ba 78 34 d3 bb 54 aa 35 3a cb 44 e5 39
       -0.0010565416 -0.0064454637 0.0006929983 0.00043729538
000110 3f f0 25 3c 3a f0 1b 3c 37 0f 3c 3c 52 72 27 3c
       0.01012808 0.009517724 0.011478237 0.010220127
000120 fa 85 59 bb 67 f3 75 bb f7 84 fc bc 5b cc ab 3b
       -0.0033191429 -0.0037529112 -0.030825121 0.005242867
000130 85 f6 39 bc fc 7c c6 bb 89 db 9c 3c 9e 04 bd 3c
       -0.011350279 -0.00605738 0.019147651 0.02307349
000140 df 40 cd 3c 00 00 00 00 00 00 00 00 00 00 00 00
       0.025055347 0.0 0.0 0.0
000150 00 00 00 00 00 00 00 00 00 00 00 00 00 00 00 00
       0.0 0.0 0.0 0.0
000160 00 00 00 00 00 00 00 00 d4 03 a4 bb 96 a1 38 3a
       0.0 0.0 -0.005005339 0.0007043121
000170 89 be fb 39 52 1c b7 3a 35 ec 1d ba 36 8b eb bb
       0.0004801641 0.0013970232 -0.00060242723 -0.007188226
000180 32 c1 a6 b8 86 6a dc ba 53 c8 3d 3c 01 ac 73 ba
       -7.951482e-05 -0.0016816414 0.011583406 -0.0009295345
000190 67 73 40 3b 59 43 a5 bb cf 20 0e ba de f5 8b bb
       0.002936566 -0.005043429 -0.0005421759 -0.004271253
0001a0 7c 8b c1 bb 2c 89 34 3b 42 11 02 3c c8 fb 75 3c
       -0.0059065204 0.002754758 0.007938685 0.015013643
0001b0 53 de 25 3a 35 1d ac b9 71 68 07 3c 5b b3 ab 3a
       0.00063273794 -0.00032828157 0.008264647 0.0013099717
0001c0 6e e7 1b bb a0 98 de 3b a1 6e a0 3b 70 7c b5 38
       -0.0023789066 0.0067930967 0.0048960005 8.653931e-05
0001d0 87 a1 8e bb 1e 52 da 3a c8 cd e1 3b 73 41 4a 3c
       -0.0043527517 0.0016656553 0.006890986 0.012344706
0001e0 18 08 1d 3b 65 8f 11 3c 59 63 44 3c 22 da f5 3a
       0.0023961123 0.008884286 0.011986577 0.0018757025
0001f0 4a 79 8f 39 5d f1 75 3a bb 55 27 3d b8 7c 33 3d
       0.00027365453 0.0009381974 0.040853243 0.043820113
000200 4f 67 69 3d 92 67 df 3c 25 11 0e 3d c6 f8 79 3d
       0.05698329 0.027271066 0.03468432 0.061028264
000210 83 e6 db 3c b8 8c c0 3c d1 56 12 3d 00 00 00 00
       0.026843315 0.0235046 0.035727326 0.0
000220 00 00 00 00 00 00 00 00 00 00 00 00 00 00 00 00
       0.0 0.0 0.0 0.0
000230 00 00 00 00 00 00 00 00 00 00 00 00 00 00 00 00
       0.0 0.0 0.0 0.0
000240 30 46 f2 3b 0d bc ab 3b b2 d6 40 3c 77 17 86 3b
       0.007393621 0.0052409233 0.011769937 0.0040921527
000250 2b 16 77 3b 41 76 8a 3c 5b 78 6e 3b af f3 9a 3b
       0.0037702422 0.016902091 0.0036387655 0.0047287564
000260 5d 03 96 3c 17 b0 f9 3b 90 5d b3 3b 1a 6b 69 3c
       0.01831215 0.0076198685 0.0054738 0.014246726
000270 62 f3 16 3b a1 21 cf 3b 16 14 be 3c 2f 21 25 3b
       0.002303325 0.0063211475 0.023202937 0.002519678
000280 62 d2 68 3b 05 2b 11 3c ca e8 4b 3c d8 d6 37 3c
       0.0035525789 0.008860354 0.012445638 0.011220656
000290 a2 dc b5 3a de 33 a1 3b a7 aa 92 bb 72 04 56 3a
       0.0013874958 0.004919513 -0.0044759098 0.00081641146
0002a0 c9 83 bb 3b e3 54 d8 3b b2 b0 73 3c 5b 76 8e 3c
       0.005722497 0.006601916 0.01487367 0.01739042
0002b0 8e bc c0 3c 64 52 35 3c 65 4d 3f 3c 2b 5d 70 3c
       0.02352741 0.011067007 0.011676167 0.0146706505
0002c0 ab 4a 5a 3c 64 4b a4 3b 9b cc 47 3b a5 88 27 3b
       0.013323466 0.00501387 0.0030486945 0.0025563624
0002d0 45 46 52 3d 46 79 b1 3d d3 ad 92 3d cb 54 a1 3d
       0.051336545 0.08665709 0.071620606 0.07877501
0002e0 1a 84 dc 3d 3a 32 af 3d 3e 35 57 3d c5 2e 56 3d
       0.10767384 0.08554502 0.05254101 0.052290697
0002f0 7f 1c 12 3d 00 00 00 00 00 00 00 00 00 00 00 00
       0.035671707 0.0 0.0 0.0
000300 00 00 00 00 00 00 00 00 00 00 00 00 00 00 00 00
       0.0 0.0 0.0 0.0
000310 00 00 00 00 00 00 00 00 21 83 40 3b 0d 86 25 3c
       0.0 0.0 0.0029375034 0.010102761
000320 41 3c 27 3c 21 3d 56 3c 5b 05 f6 3c d2 4a 9e 3c
       0.010207237 0.013076098 0.03003185 0.019322786
000330 45 8b a0 3c 80 01 b8 3c 6a 6a 8b 3c ad 10 41 3c
       0.019597659 0.022461653 0.017018516 0.011783761
000340 47 76 f6 3c e3 54 96 3c 40 41 de 3c 01 7e 03 3d
       0.030085696 0.018351024 0.027130723 0.03210259
000350 2f a0 72 3c c5 23 86 3c 26 e1 87 3c fa eb 24 3c
       0.014808699 0.016374478 0.016586851 0.010066027
000360 d4 91 6d 3c f2 72 cc 3b 30 12 d0 3b 82 22 65 3c
       0.0145001 0.0062392885 0.0063498244 0.013985278
000370 94 fe 88 3a 1e 61 8a bb e0 3f 33 3b cb 68 66 bb
       0.0010451847 -0.004223003 0.0027351305 -0.0035157676
000380 ab f7 03 ba dc 78 0e 3c 16 59 a9 3c b2 b3 8b 3c
       -0.0005034159 0.008695807 0.020672362 0.017053459
000390 4a e9 92 3c 87 2b 5e 3c 26 99 53 3c 1b 7a 1a 3c
       0.017933507 0.013560182 0.012914931 0.009428526
0003a0 c5 ac 7b 3b f0 ad b0 3b 63 34 42 3d d9 e3 b7 3d
       0.003840254 0.0053918287 0.04741324 0.08979005
0003b0 e6 d8 bd 3d d3 69 a7 3d ae 83 ec 3d b2 61 d0 3d
       0.09269886 0.08174481 0.115485534 0.10174884
0003c0 fd e7 a5 3d be fa b3 3d 69 5d 52 3d 00 00 00 00
       0.08100889 0.0878806 0.051358614 0.0
0003d0 00 00 00 00 00 00 00 00 00 00 00 00 00 00 00 00
       0.0 0.0 0.0 0.0
0003e0 00 00 00 00 00 00 00 00 00 00 00 00 00 00 00 00
       0.0 0.0 0.0 0.0
0003f0 b5 f9 81 bb ae 16 13 ba 21 2c 98 ba fc 04 2e bb
       -0.003966535 -0.00056109845 -0.0011609831 -0.0026553264
